models/trainingmodels/draw_1.pth (torch, 45847 bytes, 5 tensors)

linear_relu_stack.0.weight f4 [64, 104]
-0.0044062138 -0.04396641 0.014286332 -0.07182178 0.049784534 -0.09274901 0.009479642 -0.08265975
0.09138002 -0.005748853 -0.030047275 0.064351805 0.010071427 0.09632493 -0.023459263 -0.06007646
-0.04940453 -0.0757734 0.086707585 0.08675689 -0.08693896 0.052221425 0.059830405 0.049045242
0.043707915 0.03752499 -0.083095536 0.03647355 -0.061702203 -0.06883979 -0.047171865 -0.045538675
-0.091422394 0.09003044 0.006934777 0.088404514 -0.06438367 -0.008342341 0.044744365 -0.060343947
0.014325999 0.08237148 -0.050336566 -0.071111545 -0.033519015 -0.020720989 0.07335564 0.048564382
0.047644474 -0.09278241 0.07683656 0.0006665811 -0.070499904 -0.05748462 0.0034844428 -0.021922253
0.006804712 0.012034789 0.029332615 -0.097021826 -0.030846074 -0.084993094 -0.033155404 0.092569254
-0.0541752 -0.052705582 -0.07591125 0.052290194 0.08333502 -0.06519684 -0.08047606 0.08227923
0.08415852 0.060197257 -0.07504928 0.08417719 0.05384881 0.060724907 -0.034425557 0.07086394
-0.067503095 0.044161387 -0.050259322 0.055137374 0.07244656 0.015679024 0.002297923 0.08383436
0.08011573 -0.07302502 -0.06600611 0.07927839 0.055683844 -0.04063981 0.08885256 -0.07637683
0.020771466 0.049095713 0.01856032 0.09042425 -0.05789444 -0.025702693 -0.037115656 -0.07629657
0.088754945 0.051328994 -0.0034333346 0.081011035 0.030382324 0.05554954 0.08588616 0.09803934
0.052425824 -0.0069036633 0.03198553 -0.077230185 0.013207622 0.04832824 -0.06656238 -0.045339495
0.066389956 -0.022893269 -0.023707293 0.06325256 -0.06430345 -0.0306442 0.022828996 -0.017261587
-0.08528812 0.075097956 -0.05231559 -0.025433585 0.06766618 -0.06478783 0.06092862 -0.072150156
0.0008962051 0.053124715 -0.052733965 -0.085861124 -0.060257025 -0.008305952 0.07009403 -0.081598476
0.07005801 0.024779305 -0.03259769 0.09399422 0.083830796 0.048371263 0.045788758 0.07639519
-0.020103708 0.0712373 -0.039546378 -0.08158143 0.027527057 0.09750382 -0.02215685 -0.0801222
-0.038260728 0.07306505 0.09801271 -0.034158766 0.031740777 -0.035145774 0.07613016 -0.04027532
-0.08342615 0.0510829 -0.014775626 -0.030182153 0.038046665 0.044606917 -0.050890494 -0.040082492
0.018911235 -0.026205823 -0.031220526 -0.0051171407 -0.005709216 -0.009608395 0.016966231 0.03871178
0.005881585 0.00096806884 -0.0072156414 0.08008625 -0.0020200834 0.04370383 0.039548166 0.06461603
0.047762446 -0.053148974 0.06484864 -0.0692727 -0.09591517 -0.025076427 -0.090725675 -0.009755544
0.029353224 0.0062609985 0.03173008 -0.06778702 0.022437327 -0.0010629892 0.0035460964 0.08220451
0.015614897 0.055052094 0.0070168264 0.08179667 -0.03446843 -0.07907776 0.012343645 -0.036163844
-0.05113112 -0.025944486 0.025127687 -0.0020181462 -0.025704019 0.020082485 0.01561562 -0.010685328
-0.05768029 -0.05687597 -0.0044123307 0.01607228 0.04345376 0.044626795 -0.008635625 -0.024459928
-0.04457168 -0.059002608 -0.09572804 -0.032122456 0.053295363 0.096231915 -0.0010795444 -0.063652866
0.05690821 0.023957413 0.07260042 -0.058176063 0.021209598 -0.016834445 0.03495411 0.017382372
0.011929736 0.043946065 0.039834715 -0.026747398 0.07218262 0.03589899 -0.06797609 -0.049675327
00000000: 0062 90bb 1f16 34bd 3811 6a3c 4c17 93bd
00000010: deea 4b3d 31f3 bdbd 8050 1b3c 8449 a9bd
00000020: 7325 bb3d e060 bcbb b425 f6bc e1ca 833d
00000030: a002 253c 0146 c53d a42d c0bc bc12 76bd
00000040: 685c 4abd 162f 9bbd bf93 b13d 99ad b13d
00000050: 0e0d b2bd 22e6 553d ba10 753d aae3 483d
00000060: 1207 333d ceb3 193d fe2d aabd 4a65 153d
00000070: 73bb 7cbd e0fb 8cbd 4937 41bd c386 3abd
00000080: aa3b bbbd e161 b83d 203d e33b 6d0d b53d
00000090: 96db 83bd 50ae 08bc de45 373d 372b 77bd
000000a0: 98b7 6a3c 61b2 a83d b72d 4ebd eea2 91bd
000000b0: 3c4b 09bd 10bf a9bc 7b3b 963d 72eb 463d
000000c0: da26 433d b404 bebd 7d5c 9d3d 80bd 2e3a
000000d0: 4162 90bd fe74 6bbd 405b 643b 4c96 b3bc
000000e0: 10fa de3b 902d 453c f44a f03c 61b3 c6bd
000000f0: e8b0 fcbc dc10 aebd f6cd 07bd f394 bd3d
00000100: d1e6 5dbd cfe1 57bd 5c77 9bbd 3e2e 563d
00000110: 8dab aa3d ec85 85bd a2d0 a4bd 0382 a83d
00000120: 4d5b ac3d 6691 763d 70b3 99bd 1765 ac3d
00000130: 9290 5c3d aeba 783d d001 0dbd 1d21 913d
00000140: 103f 8abd 92e2 343d b8dc 4dbd bad7 613d
00000150: dd5e 943d 4c71 803c c098 163b 59b1 ab3d
00000160: b713 a43d 248e 95bd 362e 87bd b55c a23d
00000170: be14 643d ee75 26bd 55f8 b53d 756b 9cbd
00000180: ec28 aa3c 9618 493d d00b 983c 5930 b93d
00000190: b822 6dbd 748e d2bc 9606 18bd 6041 9cbd
000001a0: 27c5 b53d 5a3e 523d cc01 61bb 1de9 a53d
000001b0: 5ae4 f83c ea87 633d 15e5 af3d d9c8 c83d
000001c0: 76bc 563d 2038 e2bb 4203 033d dc2a 9ebd
000001d0: c864 583c d5f3 453d db51 88bd e8b5 39bd
000001e0: 75f7 873d aa8a bbbc cc35 c2bc 8f8a 813d
000001f0: 87b1 83bd 8c09 fbbc e003 bb3c 2c68 8dbc
00000200: 8aab aebd f5cc 993d df48 56bd 185a d0bc
00000210: 9194 8a3d 7baf 84bd 4a90 793d 76c3 93bd
00000220: 4eef 6a3a 4d99 593d 92ff 57bd f5d7 afbd
00000230: 12d0 76bd b015 08bc 758d 8f3d 1a1d a7bd
00000240: 937a 8f3d f8fd ca3c 2885 05bd 0b80 c03d
00000250: 7baf ab3d f220 463d fe8c 3b3d 1575 9c3d
00000260: 88b0 a4bc dde4 913d 62fb 21bd 2a14 a7bd
00000270: 6c80 e13c 15b0 c73d 4882 b5bc 1c17 a4bd
00000280: 48b7 1cbd 21a3 953d e3ba c83d 10ea 0bbd
00000290: 9e02 023d 04f5 0fbd 21ea 9b3d bcf7 24bd
000002a0: 54db aabd 4e3c 513d 7815 72bc 9040 f7bc
000002b0: d2d6 1b3d beb5 363d 8d72 50bd 8a2d 24bd
000002c0: bceb 9a3c 98ad d6bc 30c2 ffbc b0ad a7bb
000002d0: 6014 bbbb 886c 1dbc c4fc 8a3c 3e90 1e3d
000002e0: 50ba c03b 00c6 7d3a 3071 ecbb 4304 a43d
000002f0: 6063 04bb ca02 333d 42fd 213d 6955 843d
00000300: 8ea2 433d bdb2 59bd 5dcf 843d d8de 8dbd
00000310: 2c6f c4bd 146d cdbc 62ce b9bd b8d5 1fbc
00000320: 2c76 f03c 1029 cd3b 66f7 013d ecd3 8abd
00000330: 7cce b73c 0054 8bba a065 683b d75a a83d
00000340: a0d5 7f3c 4e7e 613d 68ed e53b 0385 a73d
00000350: c52e 0dbd 85f3 a1bd 003d 4a3c 8a20 14bd
00000360: de6e 51bd 8889 d4bc 94d8 cd3c e042 04bb
00000370: 3c91 d2bc 0684 a43c a8d8 7f3c 8411 2fbc
00000380: 2b42 6cbd c7f6 68bd 5095 90bb 04aa 833c
00000390: 92fc 313d 96ca 363d 707c 0dbc 3060 c8bc
000003a0: cb90 36bd b8ac 71bd 100d c4bd d692 03bd
000003b0: 3d4c 5a3d 3d15 c53d 807f 8dba 6f5c 82bd
000003c0: 9518 693d 5642 c43c 87af 943d 064a 6ebd
000003d0: c0bf ad3c 64e8 89bc 0a2c 0f3d 7a65 8e3c
000003e0: f074 433c ca00 343d ba29 233d 5c1d dbbc
000003f0: 7bd4 933d d20a 133d 0c37 8bbd 5b78 4bbd

linear_relu_stack.0.bias f4 [64]
-0.078473285 0.004216303 0.09210183 -0.090934135 0.06365656 -0.030898664 -0.09335442 -0.087452605
0.084908776 -0.052189283 -0.017256673 0.024430748 -0.006623926 0.043257017 0.05990531 -0.07287932
-0.046267148 -0.083742686 0.0665259 -0.03492848 0.022733036 0.04703365 0.026463084 0.073049195
-0.08571409 -0.017818635 0.073008694 -0.004580808 0.012129215 0.09383347 0.08791932 -0.02915451
0.006441596 -0.054968353 -0.038276676 0.018921982 0.08484564 -0.08987254 -0.093350425 -0.011269402
0.0876987 -0.04661885 0.08930161 -0.071480066 0.0022113249 0.05404691 0.07972733 0.015558474
-0.018940402 0.06765049 0.06709316 0.03598633 -0.02752476 0.05035829 0.067873515 -0.02259317
-0.08264742 0.04087273 -0.08858922 -0.031866074 0.036151197 0.009800802 0.004452946 -0.093203776
00000000: 9ab6 a0bd ea28 8a3b e29f bc3d ad3b babd
00000010: 5f5e 823d 321f fdbc 9a30 bfbd 5a1a b3bd
00000020: a7e4 ad3d 6ec4 55bd de5d 8dbc fe22 c83c
00000030: 850d d9bb 452e 313d 455f 753d c141 95bd
00000040: 9f82 3dbd 4981 abbd bb3e 883d 2a11 0fbd
00000050: a23a ba3c 5ba6 403d 1cc9 d83c d19a 953d
00000060: de8a afbd 63f8 91bc 9585 953d 9a1a 96bb
00000070: 9db9 463c c32b c03d 0b0f b43d 70d5 eebc
00000080: 0614 d33b 7f26 61bd 01c8 1cbd 4602 9b3c
00000090: 8dc3 ad3d 180f b8bd 822e bfbd 4ca3 38bc
000000a0: 609b b33d 68f3 3ebd c3e3 b63d 2464 92bd
000000b0: e0eb 103b 4b60 5d3d 1548 a33d f8e8 7e3c
000000c0: e728 9bbc 578c 8a3d 2368 893d 6766 133d
000000d0: 9b7b e1bc 7f44 4e3d 4501 8b3d 5015 b9bc
000000e0: 0d43 a9bd 2a6a 273d 446e b5bd 0086 02bd
000000f0: 4713 143d 8b93 203c 05ea 913b 9fe1 bebd

linear_relu_stack.2.weight f4 [64, 64]
0.101931036 0.087630555 -0.032419696 -0.069726914 0.008665711 0.025284648 -0.08112961 0.04150814
-0.090188265 0.04877147 -0.095329806 0.06979093 -0.093898505 -0.08879879 -0.063042864 -0.0013952255
-0.010343641 -0.0653383 -0.016105413 0.07249829 -0.0032799393 0.095941365 0.04840663 0.029021338
-0.020124897 -0.082808375 -0.11244258 -0.05904101 0.015637338 -0.0016362071 0.040391296 0.030577004
0.07071045 0.10897122 -0.008403033 -0.118665874 0.113909975 0.031195194 -0.10253237 -0.092816606
-0.076659605 0.073127255 -0.11763252 0.025316894 0.10745786 0.09200998 0.10639836 -0.06356549
-0.10737653 -0.054771304 -0.061899155 -0.07610099 0.030816287 -0.044461384 -0.01713188 0.084283054
-0.024877429 -0.020485148 0.12493794 -0.1182397 -0.060533434 -0.05850053 -0.10858908 -0.03406322
0.11720522 -0.12076263 0.06203533 0.019339645 0.018456947 -0.058944006 -0.09976703 0.006427422
-0.044566903 0.112952456 0.075497925 -0.07688822 0.033666234 0.06673555 0.0064051864 -0.05646336
0.0022370815 0.08541411 -0.050677225 -0.0880553 -0.08346025 0.0049965344 0.059677586 0.10416089
0.01791823 -0.043943394 0.05492606 0.10053793 -0.0650706 0.07619274 -0.0030830353 0.0738405
-0.061783157 -0.08135958 0.08869973 -0.09938571 0.023059294 -0.046474606 0.028774008 0.015399394
-0.030610938 -0.07861625 0.03066241 -0.03553039 -0.0034470707 -0.097290665 0.057640787 0.102685526
0.03202423 0.008737251 -0.081973605 -0.067069285 -0.08155371 -0.080339774 0.12009296 0.10250293
0.0036150664 -0.112503216 0.062641636 -0.11274561 -0.09014341 0.06763579 -0.020462563 -0.04391402
-0.11654717 -0.071055874 0.12204082 0.07371676 0.03948942 0.03138995 0.11822586 0.091003925
-0.058682546 -0.120516285 0.012141049 0.112012535 -0.024042115 -0.09953292 -0.08747889 -0.07228102
-0.025137872 -0.1248824 -0.046703503 0.006362468 0.07811919 0.0092282295 0.07920438 0.10005392
0.10531549 -0.025730848 0.07257171 0.022141442 0.0810962 -0.012168869 -0.096207276 0.041061
-0.105634466 0.08231974 0.0041582882 0.065929726 -0.0044020563 0.118567854 0.10460007 -0.0047895014
0.08854285 0.014601767 0.09533423 0.054067627 -0.097418204 -0.061577305 0.037505493 -0.062105358
-0.116627574 -0.11528386 0.024484277 -0.033817336 -0.036343083 0.029712409 0.00013047457 -0.037599295
0.018464655 -0.054175243 0.05753936 -0.0033817887 -0.05472818 0.0331095 -0.113459274 -0.08456336
0.06080988 -0.00029955478 -0.039180897 -0.07383191 0.06598139 -0.1172418 -0.11494331 0.11400813
-0.0981047 -0.09743212 0.079975635 -0.0034829653 -0.07353545 0.007366869 0.07993132 0.013636559
0.067813486 -0.09133579 0.100185364 0.015924644 0.034864016 -0.06605667 0.06460996 0.11781365
0.041267022 -0.027802596 0.02136419 0.07526717 0.121876836 -0.043462366 0.0891909 -0.09092237
0.057291765 -0.11415756 0.11015637 -0.0080471905 0.060378417 0.06362632 -0.08720799 -0.02007332
-0.051755007 0.10153633 -0.027685128 0.06741798 -0.08481574 0.100854605 0.03146014 -0.10746743
0.084751815 -0.124484435 -0.1066787 -0.017832663 -0.09749551 -0.025744583 0.07983467 -0.08571768
-0.057091445 0.10274021 0.06968993 0.041679293 -0.024488863 -0.065901205 -0.023242408 -0.110895306
00000000: 38c1 d03d a677 b33d 84ca 04bd fccc 8ebd
00000010: a0fa 0d3c c021 cf3c 4827 a6bd 7004 2a3d
00000020: a0b4 b8bd 98c4 473d 463c c3bd 8cee 8e3d
00000030: dc4d c0bd 24dc b5bd 9e1c 81bd 00e0 b6ba
00000040: 6078 29bc 16d0 85bd 80ef 83bc fc79 943d
00000050: 40f4 56bb e87c c43d 0846 463d 28be ed3c
00000060: f8dc a4bc 7097 a9bd 4c48 e6bd fcd4 71bd
00000070: e019 803c 0076 d6ba 5871 253d a07c fa3c
00000080: a4d0 903d 4e2c df3d e0ac 09bc 1807 f3bd
00000090: a249 e93d 108d ff3c 7efc d1bd a216 bebd
000000a0: b6ff 9cbd bec3 953d 52e9 f0bd 6065 cf3c
000000b0: de12 dc3d ba6f bc3d 62e7 d93d a02e 82bd
000000c0: 3ae8 dbbd e057 60bd f889 7dbd d6da 9bbd
000000d0: 7072 fc3c 241d 36bd 2858 8cbc 989c ac3d
000000e0: c0cb cbbc 78d0 a7bc 76df ff3d a827 f2bd
000000f0: e8f1 77bd 409e 6fbd f463 debd e085 0bbd
00000100: 4a09 f03d 6652 f7bd c218 7e3d 2d6e 9e3c
00000110: 0633 973c 456f 71bd a852 ccbd 209d d23b
00000120: c98b 36bd 9e53 e73d a89e 9a3d 9277 9dbd
00000130: 9be5 093d a6ac 883d 99e2 d13b 2046 67bd
00000140: 009c 123b 98ed ae3d ec92 4fbd 5656 b4bd
00000150: 35ed aabd f8b9 a33b 7c70 743d 4e52 d53d
00000160: 40c9 923c fdfd 33bd 26fa 603d d5e6 cd3d
00000170: bc43 85bd f00a 9c3d c00c 4abb b039 973d
00000180: 5610 7dbd da9f a6bd 34a8 b53d bc8a cbbd
00000190: d8e6 bc3c 285c 3ebd 78b7 eb3c bd4d 7c3c
000001a0: cac3 fabc 8e01 a1bd bc2f fb3c 5088 11bd
000001b0: 40e8 61bb 5440 c7bd bf18 6c3d ca4c d23d
000001c0: d72b 033d b026 0f3c c7e1 a7bd 9f5b 89bd
000001d0: a205 a7bd 2e89 a4bd 4cf3 f53d 0eed d13d
000001e0: c0ea 6c3b 1668 e6bd 424a 803d 2ce7 e6bd
000001f0: 1c9d b8bd a284 8a3d 1ba1 a7bc 30df 33bd
00000200: 48b0 eebd be85 91bd 8af0 f93d d0f8 963d
00000210: a8bf 213d c092 003d 6620 f23d 4460 ba3d
00000220: 1c5d 70bd 3ed1 f6bd 40eb 463c d466 e53d
00000230: f8f3 c4bc ead7 cbbd 2228 b3bd 1208 94bd
00000240: f0ed cdbc 58c2 ffbd 2c4c 3fbd 407c d03b
00000250: f4fc 9f3d 0032 173c e835 a23d 12e9 cc3d
00000260: a6af d73d 80c9 d2bc 7aa0 943d f861 b53c
00000270: c415 a63d f05f 47bc 5208 c5bd 942f 283d
00000280: e256 d8bd 4097 a83d 4042 883b 2a06 873d
00000290: 203f 90bb b4d3 f23d 9038 d63d 40f1 9cbb
000002a0: f455 b53d 403c 6f3c 983e c33d 0476 5d3d
000002b0: 3283 c7bd 7c38 7cbd 5c9f 193d 3062 7ebd
000002c0: 70da eebd f219 ecbd 4093 c83c 0c84 0abd
000002d0: 7cdc 14bd 7067 f33c 00d0 0839 b801 1abd
000002e0: 3043 973c dce6 5dbd 64ae 6b3d 00a1 5dbb
000002f0: a82a 60bd d49d 073d 565d e8bd 8e2f adbd
00000300: c813 793d 900d 9db9 267c 20bd 2f35 97bd
00000310: 4021 873d 781c f0bd 6667 ebbd 187d e93d
00000320: 1eeb c8bd 7e8a c7bd 44ca a33d 7642 64bb
00000330: c199 96bd c765 f13b 08b3 a33d e06b 5f3c
00000340: cce1 8a3d 420e bbbd fc2d cd3d 6674 823c
00000350: 92cd 0e3d b848 87bd 3a52 843d 4848 f13d
00000360: 9c07 293d 45c2 e3bc f403 af3c ad25 9a3d
00000370: 909a f93d 9805 32bd b8a9 b63d 8235 babd
00000380: c5aa 6a3d 70cb e9bd aa99 e13d 5dd8 03bc
00000390: 5c4f 773d 844e 823d 1a9a b2bd ce70 a4bc
000003a0: 0ffd 53bd 48f2 cf3d eccb e2bc 7012 8a3d
000003b0: e0b3 adbd dc8c ce3d 59dc 003d e217 dcbd
000003c0: 5c92 ad3d b2f1 febd 5d7a dabd ce15 92bc
000003d0: baab c7bd 4ee6 d2bc 5c80 a33d c08c afbd
000003e0: b8d8 69bd 7669 d23d 98b9 8e3d e8b7 2a3d
000003f0: de9c c8bc 36f7 86bd dd66 bebc 141d e3bd

linear_relu_stack.2.bias f4 [64]
0.04495479 0.10573469 -0.10065049 0.08621484 -0.09270333 0.0876783 -0.1083903 -0.048506483
-0.09515652 0.0632883 -0.0043005324 -0.08232346 -0.020512134 -0.017854407 -0.038209513 -0.032151088
0.118267044 0.09200759 -0.0781873 0.00890772 0.05669334 0.03968027 0.11720732 -0.005255297
-0.00917262 -0.03736112 0.025728256 -0.037865475 0.07031454 0.0051826113 -0.037583172 0.023899155
0.102445915 -0.12243852 -0.01674232 0.05846925 -0.099618435 -0.10090205 0.07327418 0.088880405
0.0026075095 0.09920938 -0.011162639 -0.038752988 -0.023350062 -0.07893771 -0.03914824 -0.11426152
-0.010979995 0.04104157 -0.0021926612 -0.09721731 0.08900644 -0.07768625 0.04676117 0.038029555
0.041921556 -0.055330336 0.03657706 0.026209122 0.08507544 0.03393199 0.023367777 -0.0050509274
00000000: 8422 383d 6e8b d83d d821 cebd 6891 b03d
00000010: 3edb bdbd ae90 b33d bcfb ddbd bcae 46bd
00000020: 6ce1 c2bd 4c9d 813d 7beb 8cbb 3499 a8bd
00000030: 1009 a8bc 6843 92bc 9481 1cbd dcb0 03bd
00000040: fe35 f23d 7a6e bc3d aa20 a0bd b0f1 113c
00000050: 4737 683d c787 223d 640a f03d a034 acbb
00000060: c248 16bc f907 19bd 10c4 d23c d418 1bbd
00000070: 1201 903d e5d2 a93b d0f0 19bd 29c8 c33c
00000080: 2acf d13d 0cc1 fabd 3127 89bc 747d 6f3d
00000090: c004 ccbd bca5 cebd c610 963d ee06 b63d
000000a0: c0e2 2a3b 4a2e cb3d 80e3 36bc 74bb 1ebd
000000b0: a148 bfbc 18aa a1bd e859 20bd f201 eabd
000000c0: 70e5 33bc 351b 283d c0b2 0fbb de19 c7bd
000000d0: 0249 b63d f819 9fbd a488 3f3d e1c4 1b3d
000000e0: f0b5 2b3d 10a2 62bd d4d1 153d 83b4 d63c
000000f0: 083c ae3d 45fc 0a3d c86d bf3c 4082 a5bb

linear_relu_stack.4.weight f4 [1, 64]
0.017581597 -0.05995701 -0.08739391 0.06250684 0.021545276 0.05498301 -0.0021546185 0.023639187
-0.056438595 -0.02996829 0.054176528 0.037268966 -0.031718984 -0.091674685 0.078810185 -0.07677831
-0.05126774 0.054537747 0.028388962 -0.025598675 -0.050244387 -0.09636596 0.023926156 -0.009466097
-0.096835926 -0.011126009 0.0780323 -0.08080216 -0.081862584 0.11800784 0.10162906 0.030164706
0.03941906 -0.034286276 -0.035995003 -0.035479113 0.0118483305 0.013931781 0.054884214 -0.10041994
-0.045144513 0.09271945 -0.08659333 -0.06333533 -0.05498984 -0.07163438 -0.083294675 -0.090322495
-0.0059078634 0.013911726 0.043382302 -0.028311878 -0.082684904 -0.07775825 0.026466325 0.12338571
0.008884445 -0.12079848 0.017378494 0.0039932 0.11905238 0.10923438 -0.055488452 -0.023413599
00000000: 4807 903c 7b95 75bd 94fb b2bd 9603 803d
00000010: b87f b03c dd35 613d 8034 0dbb f8a6 c13c
00000020: 282c 67bd 0f80 f5bc 35e8 5d3d 58a7 183d
00000030: c4eb 01bd f0bf bbbd 3c67 a13d f23d 9dbd
00000040: 1ffe 51bd f962 5f3d f88f e83c 50b4 d1bc
00000050: 0fcd 4dbd 845b c5bd c900 c43c b017 1bbc
00000060: ea51 c6bd dd49 36bc 66cf 9f3d 9a7b a5bd
00000070: 92a7 a7bd 18ae f13d e622 d03d f91b f73c
00000080: e175 213d c46f 0cbd 7f6f 13bd 8c52 11bd
00000090: 801f 423c 2042 643c 45ce 603d f8a8 cdbd
000000a0: 74e9 38bd b2e3 bd3d d857 b1bd f4b5 81bd
000000b0: 073d 61bd 0cb5 92bd 6696 aabd 00fb b8bd
000000c0: c096 c1bb 02ee 633c a4b1 313d 50ee e7bc
000000d0: b456 a9bd b83f 9fbd e8cf d83c a6b1 fc3d
000000e0: 1090 113c 3265 f7bd 585d 8e3c 64d9 823b
000000f0: bcd1 f33d 46b6 df3d dc47 63bd e0cd bfbc
