models/trainingmodels/draw_backup.pth (torch, 149015 bytes, 5 tensors)

linear_relu_stack.0.weight f4 [128, 156]
00000000: b003 bd3c 5764 9fbd a0e9 933d 67f5 8ebd
00000010: c095 9c3a ccea 653d c024 4fbc 80fc 7dbb
00000020: e4bd dabc 6e75 92bd a0a4 72bb 498e 1ebd
00000030: a51c 56bd 388a 623c 40da b3ba 7cf9 a53c
00000040: 2c1a 873d 0899 dc3c 6562 38bd 0908 76bd
00000050: 6fbd 14bd badd 9d3d d2bd 8b3d 90c8 eabb
00000060: 3495 96bd 570f 15bd b4b4 8f3c d0bb b93b
00000070: 68f8 5c3d 5029 1abd a6c0 2dbd ccc8 3e3d
00000080: b8d1 9dbd a0bd dabb e0f9 ed3b f8d5 80bd
00000090: 30c2 95bb 68de 03bc 7aed e4bc 6a16 993d
000000a0: 2848 483c d0c3 873b b096 b53c e06f 933b
000000b0: c1d0 2abd 381e 733c cb01 2bbd 4882 11bd
000000c0: 4c44 9b3d 509a 3bbc fec5 2fbd 2075 a73c
000000d0: 20fe a43b 65e9 74bd f83b 9ebd ec92 853d
000000e0: c89c 4bbd 34c6 6c3d e6fd 313d a200 e9bc
000000f0: 34f6 723d 6cda 233d 50c0 9f3c 1442 773d
00000100: a8a5 783d a26d 38bd a5be 39bd b056 8f3d
00000110: f6c1 1dbd 808b e13c 22be a03d e0e6 c4bb
00000120: 788a a4bc a154 29bd a4b6 96bd f44a 753d
00000130: a846 66bd 9c55 333d c05b eebc b079 4b3d
00000140: 9096 6e3c dad7 8c3d 6203 6ebd 4680 9f3d
00000150: 0573 81bd b483 393d ece9 b33c 289f 75bc
00000160: 1d62 69bd 5a02 a33d 20df 5e3d ce08 07bd
00000170: bf54 86bd d409 f53c 4874 61bc 0c25 6b3d
00000180: fc01 94bd 0c1d 963c e08e b83b 7240 9f3d
00000190: 0111 45bd 8f4b 86bd b83f 3f3d 6561 8bbd
000001a0: a0c2 c63c 4494 243d 0a1f 21bd 049d 843c
000001b0: 08bf 683d 08eb 7e3d a032 093d 00f2 6a3d
000001c0: 502e 233c d6a7 a33d 82ab ccbc 1019 a7bb
000001d0: a01a 89bc 484c 7e3d 9ab6 15bd ae42 5dbd
000001e0: aa52 68bd 39db 8ebd be2e 823d b0b7 bcbb
000001f0: 70e2 9b3d 680b 7c3d b8fb 753c 819a 9bbd
00000200: 8542 8cbd 6009 0a3b 1c78 7bbd d2bb a13d
00000210: 4ce9 8f3c fde1 92bd 9ad5 9cbd 7ce9 4a3d
00000220: 3ae0 173d 78ef e6bc c0f8 14bc 8cd1 cd3c
00000230: 2c79 e9bc 0629 72bd c4d8 6abd d0da 8a3d
00000240: 56eb 92bd c89b 283c 2c93 2c3d 34f0 0abd
00000250: f097 19bc 6cf2 423d 48fc 68bd b81f 043d
00000260: 68c0 8fbd fe05 9a3d 90bf c73c fe9e 973d
00000270: 4073 8b3d 24a1 613d 1434 9e3c b285 51bd
00000280: 4e82 a13d 988c 44bc 9c87 bc3c c068 98bb
00000290: c806 623c 8d82 17bd 701d 323d 8044 d0ba
000002a0: 178d 7ebd de06 843d 054c 07bd 90bc df3b
000002b0: 4130 95bd 72f4 0e3d b87a 0cbd 0001 403a
000002c0: 08df 0c3d d8f9 1abc 517a 2abd e008 cbbb
000002d0: a008 393d fc2c 933c 2465 c53c 0204 263d
000002e0: b41d 8b3d 8880 ef3c 0810 00bc a6db 9fbd
000002f0: a040 d3bb 34c7 303d 2002 833c 5915 99bd
00000300: 030c 87bd a415 33bd 1c18 233d 34d4 89bc
00000310: 4c6c 873c 50e8 803c 1afc 033d 4a8a a8bc
00000320: 807e 1dba f3e4 05bd da23 143d 28a9 b23c
00000330: 5e6c 2c3d 5639 003d f448 8ebd 2074 3bbc
00000340: 40c8 d33b f069 f73b fcc1 0f3d a0b3 243b
00000350: 7a0c 973d 6064 433d 9439 54bd f83b e63c
00000360: de1f c9bc cc2c c23c 7641 20bd 28ee f73c
00000370: 705d a0bb 98c4 08bc 6430 f43c 12d2 18bd
00000380: 004f b93a 1028 103c c889 593d 106c 273d
00000390: a4e6 d1bc c4c1 953d 2049 1c3b 626f 1d3d
000003a0: 8136 3dbd e88c 10bc b467 973c b4b5 09bd
000003b0: dc59 95bc 74b8 803c de80 9dbd 205f 473c
000003c0: 3067 533d d819 6e3d 109a 39bd 2c54 023d
000003d0: 06a1 823d f1bd 85bd 1c10 0dbd 178c 1ebd
000003e0: d063 e43c c2c9 a03d 50a6 86bd 58eb a0bd
000003f0: b8ce 2dbd b895 f53c f8c1 28bc 2007 90bc
0.023073047 -0.0778281 0.07222295 -0.069804005 0.0011946484 0.056132123 -0.012643039 -0.0038755238
-0.026701875 -0.07151304 -0.0037024394 -0.038709912 -0.05227341 0.013826899 -0.001372166 0.020260565
0.06596789 0.02692844 -0.04501571 -0.060066257 -0.03631347 0.077083066 0.06823315 -0.007165022
-0.07352677 -0.036391582 0.01754222 0.005668141 0.053947836 -0.037637055 -0.042420052 0.046578214
-0.07706016 -0.006675437 0.0072624534 -0.06290811 -0.004570268 -0.008048631 -0.027945269 0.07474978
0.012224235 0.0041432157 0.02216658 0.0044994205 -0.04170299 0.014838748 -0.041749757 -0.035524637
0.07581386 -0.011450365 -0.04291343 0.020441592 0.005035177 -0.059792895 -0.07726282 0.06522164
-0.049710065 0.05780621 0.043455027 -0.028442685 0.05931683 0.040003225 0.019500881 0.06036575
0.060704857 -0.04502643 -0.04534783 0.06998956 -0.038515054 0.02753234 0.07848765 -0.0060089678
-0.020085558 -0.041340474 -0.07359055 0.059885934 -0.056219727 0.043782815 -0.029096484 0.049676597
0.014562264 0.06877108 -0.058108695 0.07788138 -0.06320766 0.045291618 0.021962129 -0.014991559
-0.056978334 0.07959433 0.054412007 -0.03296738 -0.06559133 0.029911913 -0.013760634 0.057408378
-0.07226941 0.018324398 0.0056322664 0.07775964 -0.04811192 -0.065573804 0.046691626 -0.06805686
0.024262726 0.04018046 -0.03933624 0.016188152 0.056822807 0.062235862 0.033495545 0.057359695
0.009959772 0.079909965 -0.024984125 -0.005099423 -0.016736329 0.062084466 -0.036551096 -0.05401867
-0.05671946 -0.06975407 0.063565716 -0.005759202 0.07611549 0.061534315 0.015013628 -0.07597829
-0.06848625 0.0021062717 -0.061393842 0.07897152 0.0175673 -0.0717201 -0.07657929 0.049539074
0.037079073 -0.02819036 -0.00909251 0.025124334 -0.028500162 -0.059121154 -0.05733563 0.067800164
-0.07173793 0.010291047 0.04213254 -0.03392048 -0.009374604 0.047594473 -0.05688122 0.03225681
-0.070191205 0.07520674 0.024383336 0.07403372 0.068090916 0.055085316 0.019311942 -0.051152892
0.07886182 -0.011996411 0.023013882 -0.004651159 0.013795562 -0.036989737 0.043485105 -0.0015889555
-0.062146273 0.06446622 -0.033031482 0.0068278983 -0.07284594 0.03490109 -0.03429672 0.0007324368
0.034392387 -0.009458981 -0.041620556 -0.0061961263 0.04517424 0.017965786 0.02409608 0.040531166
0.06792775 0.029236093 -0.007816322 -0.078055665 -0.006446913 0.043158725 0.015992224 -0.07474775
-0.06594088 -0.04372181 0.039817914 -0.01682482 0.016531132 0.015735775 0.032222845 -0.020573754
-0.00060079247 -0.032689046 0.036167003 0.021809176 0.042095535 0.03130468 -0.069475085 -0.011441261
0.0064630806 0.0075504705 0.035097107 0.002513148 0.073754266 0.047703147 -0.051812723 0.028104767
-0.024551328 0.023703001 -0.03912493 0.030264929 -0.004893951 -0.008347653 0.02980823 -0.037309714
0.0014137924 0.008798614 0.053109914 0.04087454 -0.025622673 0.073123485 0.0023847297 0.0384363
-0.046194557 -0.008822657 0.018482067 -0.03362055 -0.018231325 0.015712954 -0.07690595 0.012168676
0.05161208 0.058130115 -0.04531294 0.031818554 0.06378369 -0.06530369 -0.03443919 -0.03870782
0.027879626 0.07850982 -0.0657469 -0.07857388 -0.04243347 0.029978618 -0.010300152 -0.017581522

linear_relu_stack.0.bias f4 [128]
00000000: d0ee 3c3c 322d 833d f35e 0ebd 6081 7a3c
00000010: ee60 5ebd af4b 87bd 1856 6bbd 827b 9abc
00000020: cae4 9c3d e4b8 943c f0ec 0bbd 8c43 413d
00000030: 12c0 4bbd ae8f 15bd 48e9 423c 4823 083c
00000040: 441e 443d e0b3 9a3c 7078 99bd b06b dabc
00000050: 849e 423d 0080 6e3d 56f1 46bd e670 873d
00000060: 4faf 22bd 647e 883c ec27 6ebd c046 8dbc
00000070: 78b9 753d 7885 633d 6850 7b3d c30b 23bd
00000080: 4423 a3bc 6ec1 f2bc ee0d 203d f01c f3bb
00000090: d478 96bd a895 713d 3e9a 243d 78a7 783c
000000a0: c83f 8a3d 0839 48bc 69bd 87bd c203 913d
000000b0: c47c 3cbd 0238 8c3d ae88 80bd 107b 963b
000000c0: 9088 e5bb a4d4 613d 7416 3f3d 16be 6bbd
000000d0: 28e6 50bc d83b c13c f1fd 1ebd 6280 103d
000000e0: a35b 19bd 0266 a13d 5c62 fabc 44cd 773d
000000f0: fcaa ed3c 2314 1abd 50dd 153c 3c57 dc3c
00000100: 68a8 afbc bc74 10bd 8295 8d3d 4040 a03b
00000110: 6845 a13c fc1b 753d 70a5 fd3c 30e2 903b
00000120: b06f 57bc 38cd 3fbc 7660 9e3d 721a 833d
00000130: 1ed9 83bd f87f a03d bcb1 473d 713d 8bbd
00000140: b20b 833d 54ce fc3c a0e3 7dbc ca22 5cbd
00000150: 8818 493d 9039 03bc d019 12bc f8c4 613d
00000160: bcd9 903c 89be 8fbd 3434 4c3d a09f c93b
00000170: 70e4 6d3d 33a3 89bd 22b7 90bd bc18 9fbc
00000180: 5255 4cbd 3847 723d ea59 a23d 6eb1 053d
00000190: 783c 9bbd 48d1 04bc ab20 2dbd b0d7 8ebd
000001a0: 40f6 bd3a d02d 433d ba7c a1bc 2dfb 13bd
000001b0: c263 8a3d c0f9 833a 5e2c 97bc 5042 8dbb
000001c0: e842 68bd 42ee 9a3d 92cf 963d 0073 493c
000001d0: 202b 393d 58c0 ec3c 1850 58bd 7c8b 9ebd
000001e0: 75a8 08bd 0020 e037 a050 efbc 50cb 01bd
000001f0: 00e1 2b3b 8a9b 9fbc e036 63bc 4895 033c
0.011531547 0.06405105 -0.03475852 0.0152896345 -0.054291658 -0.066062324 -0.057455152 -0.018857721
0.076608256 0.018154569 -0.034161508 0.04718356 -0.04974372 -0.036513977 0.011896439 0.008309193
0.047880426 0.0188846 -0.07493675 -0.026662678 0.047514454 0.05822754 -0.04857 0.066133305
-0.03971797 0.01666183 -0.05814354 -0.01724565 0.05999133 0.055547208 0.06135598 -0.03980614
-0.019914277 -0.02963325 0.039075784 -0.007419221 -0.07347265 0.058980614 0.04018616 0.015176646
0.067504466 -0.012220629 -0.06627924 0.07080795 -0.046017423 0.0684662 -0.062760696 0.004592307
-0.007004805 0.05513443 0.046652272 -0.057554327 -0.012750186 0.023588106 -0.038816396 0.035278685
-0.037440907 0.078807846 -0.03056448 0.06049849 0.029012196 -0.03761686 0.009147003 0.026897065
-0.021442607 -0.035267577 0.06913282 0.0048904717 0.019686416 0.05984114 0.030962676 0.004421495
-0.013149187 -0.011706643 0.07733242 0.064015284 -0.06437896 0.07836908 0.048753485 -0.067988284
0.06398715 0.030860104 -0.015496165 -0.053744115 0.04909566 -0.008009329 -0.008917287 0.055119485
0.017681949 -0.070187636 0.049854472 0.006153062 0.058079183 -0.06720581 -0.0706618 -0.019420974
-0.049886055 0.05914995 0.07927306 0.032639913 -0.07579893 -0.008106537 -0.042267483 -0.06974733
0.0014492944 0.047651112 -0.019712795 -0.03612821 0.067573085 0.0010068938 -0.018453773 -0.0043108836
-0.05670443 0.07564975 0.0736381 0.012295485 0.045207143 0.02890031 -0.05281076 -0.07741448
-0.03336378 2.6717782e-05 -0.02921325 -0.031688035 0.002622664 -0.019483346 -0.013868064 0.008031197

linear_relu_stack.2.weight f4 [128, 128]
00000000: 9483 a63c 6aaa 2b3d 18c9 a7bc 7941 44bd
00000010: fa07 9ebd 62e7 163d c036 d73c f9a4 893d
00000020: 2ab6 4c3d b6b4 39bd de08 4b3d acce 903c
00000030: 2464 f03c e04c ea3b e044 e83c 283f 79bc
00000040: d251 363d 4c14 d3bc 9a5c 36bd dff0 8d3d
00000050: 1b07 acbd c2db 3c3d f4ea d33c 5856 06bc
00000060: 5e6a 5cbd 363c dfbc 4060 743c 04eb 2ebd
00000070: 6c36 013d 065d 62bd 4ee6 2b3d 9558 a0bd
00000080: c4db a33c b607 4e3d cf79 823d 797f ac3d
00000090: b3fe 44bd 7e14 473d 8ec7 073d e8f3 003c
000000a0: 2da0 913d 3e9a 763d b2eb 793d 21aa aa3d
000000b0: 9f1c 813d 5a8f 193d 5745 20bd b6c2 6e3d
000000c0: 3040 d03c 0021 273c cece 223d 0a4e 13bd
000000d0: 796f 893d 23ab 8f3d 19f3 59bd 9097 16bc
000000e0: 5c6f b63c fc02 d23c 267a 563d 987d a5bd
000000f0: 575e 91bd db26 953d 00c9 0b3c 9139 2cbd
00000100: df4a 75bd f745 863d 58a3 acbc 6ee3 7c3d
00000110: 1458 043d 0837 963c 3b75 60bd b208 95bd
00000120: 47a1 82bd 141d c6bc b15b 5bbd 101b c13b
00000130: 32be 5ebd 12d2 7f3d 00e5 31ba b035 c8bb
00000140: 78dd d5bc 868b 67bd 1d2e 903d ce02 223d
00000150: 2307 a93d 9c9e a4bc a4d4 d2bc 24ae 47bd
00000160: 20bb 883b 4827 90bc b299 5fbd 3d16 57bd
00000170: e0ea 43bd 4749 9d3d 02d8 553d 98d4 65bc
00000180: 50b7 103c 676d 8d3d 47f7 0dbd 73c3 5bbd
00000190: 1b67 883d 1a24 25bd 6dd4 9d3d fe2d 84bd
000001a0: 74a2 c8bc 2032 5a3c 0967 ab3d 00b9 e5ba
000001b0: 834c 9c3d b884 67bd 6b39 a13d fd06 ac3d
000001c0: deac 163d 3e0f 8dbd 1c10 92bd 9920 19bd
000001d0: f545 97bd 9ca8 53bd 38b1 ca3c 3ceb 91bc
000001e0: 898b a93d 9a9d 373d 7022 13bc ec46 99bc
000001f0: e62c 173d d6cc 793d 5520 06bd 3437 92bc
00000200: cd3d 823d cd8f 43bd f4e1 22bd c8dd dc3c
00000210: 2602 773d 9968 ae3d 62a8 083d af1b 57bd
00000220: 3fea 853d 927a 85bd d673 54bd 96c0 3a3d
00000230: 0bba b1bd 004e b6ba 56bb 293d 9678 97bd
00000240: e66a 7d3d e878 e5bc e650 513d 0096 7db9
00000250: fad0 503d c085 8fbc 8bc1 993d 0c7e b53c
00000260: 7088 aabb 455f 8e3d d45c a43c 665b 5a3d
00000270: 55d1 9d3d a4e4 71bd b0e6 f5bb 6804 74bc
00000280: ccfa fe3c 108e f73b fe65 32bd c2e3 773d
00000290: 68f4 453c 07b0 2cbd 4d10 973d 308b e33b
000002a0: 7025 ffbc 1f8e 2ebd 7085 963b ce13 743d
000002b0: 822e 7f3d 37ab 823d 4d5e 2ebd 5b74 a63d
000002c0: 26f8 173d e482 07bd 38d3 65bc 58dc 113d
000002d0: 5d81 adbd 9214 0d3d 0e31 8abd d9c1 8f3d
000002e0: 872a 3dbd a08b c3bc c096 2fbb 0d08 1abd
000002f0: 32dc 3b3d afdb 92bd 70eb 17bc 5dc7 9ebd
00000300: c46e e9bc 9852 01bc 7c67 7cbd 6a60 243d
00000310: a876 9cbc 7ac4 5c3d a87d f23c c77e 25bd
00000320: 020a 253d df02 57bd 009e 1539 fcf9 093d
00000330: e0aa 443b ed83 a13d 6542 6dbd aa89 363d
00000340: 1501 843d 5ca1 f43c d05d c13b a0cc 0a3b
00000350: b27c 6dbd 5f5b a5bd 509d 65bc d417 de3c
00000360: 80dd 98ba 8caf fbbc 370f 11bd 8267 73bd
00000370: 9631 80bd 34ae d5bc 9d30 923d 95ac b43d
00000380: bc8a cdbc b2a3 15bd 78dd 7d3c ce0b 763d
00000390: eb20 983d cc7b acbc d677 293d 0815 13bc
000003a0: f25d 0dbd 295f 9f3d 36fa 4bbd 209e 88bb
000003b0: 745f ed3c 986e 1ebd 8a97 90bd 3643 203d
000003c0: 4366 38bd 00da 4e3a d8cf 843c d3d6 96bd
000003d0: 1c05 bcbc 7cd3 8fbc 68c7 04bc f529 91bd
000003e0: 8e5a 593d 96ed 673d d697 a5bd 01bf 823d
000003f0: 40c7 e2ba a066 7fbb 6c0a 153d 2031 bebc
0.020326413 0.041910566 -0.020481631 -0.047914002 -0.07716365 0.036841758 0.026271224 0.06720919
0.049978413 -0.045338355 0.049569003 0.017676674 0.029344626 0.0071502775 0.028353155 -0.0152128115
0.044511624 -0.025766514 -0.044521905 0.06930708 -0.08399793 0.046108015 0.02586887 -0.008199297
-0.053812377 -0.02725039 0.014915526 -0.042704597 0.03154604 -0.055264495 0.041967683 -0.07829396
0.020002253 0.050300322 0.063708894 0.08422751 -0.048094463 0.048603527 0.033149295 0.007870652
0.07110629 0.06020569 0.061015792 0.08333231 0.06304287 0.037490226 -0.039128628 0.05829116
0.025421232 0.010200739 0.039748006 -0.035963096 0.06710715 0.070150636 -0.05321035 -0.009191409
0.022269897 0.025636189 0.052362584 -0.08080596 -0.07098072 0.07282802 0.008531809 -0.042047087
-0.059885856 0.065563135 -0.021073982 0.06174033 0.03231056 0.018336788 -0.0547993 -0.07277049
-0.063784175 -0.024183787 -0.05355424 0.0058931187 -0.054380603 0.062456198 -0.0006786138 -0.0061099157
-0.026106581 -0.056529544 0.070400454 0.039553456 0.08253314 -0.020095162 -0.02573616 -0.048750058
0.0041726977 -0.017596856 -0.054589935 -0.052511442 -0.047831416 0.07679992 0.052207954 -0.014027737
0.008832768 0.069056325 -0.03465965 -0.05365319 0.06660291 -0.040317632 0.077065326 -0.06454085
-0.024491526 0.013317615 0.08369262 -0.0017526448 0.07631781 -0.056523055 0.0787228 0.083997704
0.036785953 -0.06887673 -0.07131979 -0.037384603 -0.0738639 -0.05167447 0.024742708 -0.017812364
0.08278567 0.044828035 -0.0089803785 -0.018710576 0.036908053 0.060986362 -0.032745678 -0.017848589
0.06359444 -0.04774456 -0.039766267 0.026961222 0.060304783 0.08516044 0.033363707 -0.052516636
0.065388195 -0.06517519 -0.051868282 0.04559382 -0.08678063 -0.0013908744 0.041438423 -0.07396047
0.061869524 -0.028011754 0.05110254 -0.0002418384 0.050980546 -0.017519832 0.075076185 0.02215483
-0.005204253 0.06951765 0.020063795 0.05330982 0.077059425 -0.05905594 -0.0075043067 -0.014893629
0.031125449 0.007554777 -0.0435543 0.06051994 0.012082197 -0.04216006 0.07376156 0.0069440827
-0.031145781 -0.042616006 0.0045935437 0.0595892 0.062300213 0.06380313 -0.0425704 0.08127662
0.037101887 -0.03308381 -0.014027409 0.035610527 -0.0847194 0.034443446 -0.06747638 0.070193954
-0.046183135 -0.02387029 -0.0026792735 -0.037605334 0.04586429 -0.071708076 -0.009272441 -0.07752869
-0.0284952 -0.007893227 -0.061622128 0.04013101 -0.019099548 0.053898312 0.029600933 -0.040404107
0.040292747 -0.052492972 0.00014268607 0.03368567 0.0030009076 0.07886491 -0.057924647 0.04456488
0.06445519 0.029862098 0.005901076 0.0021179095 -0.057980247 -0.08074068 -0.014014557 0.027110972
-0.0011662692 -0.030723356 -0.0354149 -0.059424885 -0.06259458 -0.026084043 0.071381785 0.0882198
-0.025090568 -0.036533065 0.015494697 0.06006985 0.074281536 -0.021055125 0.04137405 -0.008977182
-0.03451342 0.07781822 -0.049799167 -0.0041692406 0.02897618 -0.03867969 -0.07060154 0.039126597
-0.0450194 0.0007890761 0.016212389 -0.07365193 -0.022951655 -0.017556898 -0.008104183 -0.07088081
0.053064875 0.056623064 -0.08085601 0.06384087 -0.0017301813 -0.0038971081 0.036386892 -0.023216784

linear_relu_stack.2.bias f4 [128]
00000000: a0b9 bcbb 9fed 873d caef 163d 605c 4bbc
00000010: af98 83bd 3e65 593d 97e6 05bd f8b7 fa3c
00000020: 98a3 0dbd 00e9 ac3a 1678 2a3d d8b4 92bc
00000030: d8e9 85bc c889 793c f099 0bbc a047 32bb
00000040: 4917 ae3d 529d 493d 1828 8bbd fbdd 0abd
00000050: 084a a73c e531 973d 00ec 853c 0971 46bd
00000060: 213c 08bd 86f6 9fbd 8ec4 6a3d d2be 13bd
00000070: ea9d 3cbd 0015 e2b9 9a73 513d eae4 24bd
00000080: deba 0f3d f09e 6f3c 4992 84bd b010 be3c
00000090: 20dc 703b 20de fa3c 9d6e 883d b3f4 44bd
000000a0: 7f70 ae3d 24f9 6cbd f486 8abd f672 363d
000000b0: 46b0 91bd afaa a13d d0fa f3bb de07 5e3d
000000c0: 28b4 0e3c 8288 1f3d 056f 45bd 283d bb3c
000000d0: 10d9 32bd 934e b33d 1258 7cbd 882c 913c
000000e0: 5c36 a9bd ff24 a43d e181 54bd 7c38 89bd
000000f0: 1016 ccbb f887 69bc 3875 95bc 805c 533a
00000100: 4072 d0ba 9a5e 1a3d 66c6 8dbd 281c 62bd
00000110: 709b 40bc 8cc3 cd3c 021d 27bd f5a8 923d
00000120: 524a 7e3d 57ac 25bd d892 923c 3841 94bd
00000130: f40f 053d c06a 75bb 605a 2abc 1c71 b2bd
00000140: f2e1 513d dee0 553d 1a9a 8fbd c01d b73b
00000150: 8040 86bc fdcf 943d e9d9 823d 0001 6cbb
00000160: 3030 a4bc ac96 ab3c dea3 0cbd 02d7 a8bd
00000170: 36e6 a8bd 0036 e33c 00d0 49bc 5655 0f3d
00000180: 5a57 90bd 97ed 84bd c0f2 62bc 9c4c a2bd
00000190: f6cd 6bbd 4f8a 13bd fe44 91bd a214 3c3d
000001a0: 375b 9f3d 9ac9 3c3d 1d4d b23d 4e16 6b3d
000001b0: 14ed 9fbd 3aa3 6cbd b2b3 a9bd f8d3 a9bd
000001c0: 2441 c6bc d4d9 a23c 09ef 5fbd 5c43 a8bc
000001d0: e907 803d c0dc ed3b 604a 0e3b e6b4 163d
000001e0: ef3e 9c3d 4c1f d53c 735f b13d b7a3 9b3d
000001f0: fed9 723d d805 af3c 676d 4abd 6fc3 68bd
-0.005759433 0.066371195 0.036849774 -0.012412161 -0.064256065 0.053075068 -0.03269061 0.030605301
-0.034579843 0.0013191998 0.04161843 -0.017908499 -0.016346857 0.0152306035 -0.008520588 -0.0027203336
0.08500535 0.049222298 -0.06794757 -0.033903103 0.020421043 0.073825635 0.016347885 -0.048447642
-0.03326047 -0.078106925 0.057316355 -0.036070652 -0.046049036 -0.00043121725 0.051135637 -0.040257372
0.03509032 0.014625296 -0.06473214 0.023201317 0.0036752298 0.030623496 0.06661723 -0.048084926
0.08517551 -0.057854787 -0.067640215 0.04454323 -0.071136996 0.078938834 -0.0074456707 0.05420672
0.008709945 0.038948543 -0.04820158 0.02285631 -0.04366404 0.08755221 -0.061607428 0.01772143
-0.08262321 0.08014869 -0.051881675 -0.06700227 -0.006228216 -0.014253609 -0.01824437 0.0008062795
-0.001590319 0.037687875 -0.06922607 -0.055202633 -0.011755809 0.025117658 -0.04079915 0.07161132
0.062082596 -0.04044756 0.017892286 -0.07239002 0.032485917 -0.003744766 -0.010397524 -0.0871298
0.05124087 0.052216403 -0.070118144 0.0055882633 -0.016388178 0.07266233 0.06389219 -0.0036011338
-0.020042509 0.02094587 -0.034335963 -0.082441345 -0.08247034 0.02773571 -0.0123176575 0.034993492
-0.07047911 -0.06490629 -0.013851821 -0.07924768 -0.057569467 -0.036020573 -0.07093237 0.045918114
0.0778107 0.0460907 0.087061144 0.05739432 -0.07808891 -0.057772852 -0.08286227 -0.08292383
-0.024200983 0.01987926 -0.05467132 -0.020539932 0.06251509 0.0072589815 0.0021711811 0.036793612
0.07629191 0.0260159 0.086607836 0.075995855 0.059289925 0.021365091 -0.04942074 -0.056827005

linear_relu_stack.4.weight f4 [1, 128]
00000000: 28c7 6ebc ae18 7d3d ce40 4c3d ff73 01bd
00000010: 46b1 7fbd f090 f23b 2d19 923d 745e cb3c
00000020: 46c4 afbd 3e7e 2f3d 8c02 c4bc 259c 893d
00000030: a0b6 8e3b f7cf 35bd 0753 9abd 18f3 02bc
00000040: 39c5 9a3d 8269 3abd caf5 583d 59cb 8b3d
00000050: 8151 70bd f30f b33d a03b 7c3c 2aa7 203d
00000060: e386 953d 8c2f 913c e204 183d 9081 3a3c
00000070: a0bf 51bb 2ad4 90bd 2082 bf3b fc6a 923c
00000080: aa85 723d 0739 983d 0082 de3a ea1d 3c3d
00000090: 26d0 653d 4d42 8b3d de0d 3fbd 33f5 a63d
000000a0: b05f b8bc e0b0 063c 86e3 d5bc 1f1a 02bd
000000b0: 006a 3ab9 a39b 9e3d 341f 963c b007 863c
000000c0: f9e7 4fbd 1ab2 7bbd 5ce5 2ebd 2d60 a1bd
000000d0: de59 acbd 29f0 b23d 4e99 49bd 36cb 2f3d
000000e0: 039f 93bd d66d 263d 6aaa 2b3d 57b5 46bd
000000f0: 440b 833c 03a3 94bd b0df 1cbd cad3 373d
00000100: 7d7e a93d 1a0b 403d 46bb 513d 0d6b 96bd
00000110: d8b7 96bd 4c8d fbbc 11d8 953d 6413 c43c
00000120: 508b e23b 08dd 48bc 9cc9 d33c fb02 a33d
00000130: fc1c 7abd b6fa 92bd bb91 ae3d da88 0e3d
00000140: 02b2 7cbd 780b 7abd 68d5 b1bc 0760 aebd
00000150: da9f 623d 5252 373d b907 39bd 575d 28bd
00000160: 5971 20bd a609 273d abe3 a93d 8305 883d
00000170: 50ef 19bd e287 1b3d 2baf 08bd 761c 72bd
00000180: dca0 99bc 5023 64bc d4bd 84bc 4acc 083d
00000190: 403d acbd d5b7 ac3d 9ed5 afbd 32c4 623d
000001a0: 1484 d53c 1a25 003d 4090 e33c 8047 333b
000001b0: c2ce a5bd 50cc 9dbd ea4f 223d 20a3 ba3b
000001c0: 5c55 48bd 807b b5bb df84 9d3d 40b2 95bb
000001d0: 2063 583b b765 af3d 6e2f 233d 2a0c 793d
000001e0: b248 263d ea6f 293d 6876 4b3c 3ab5 3ebd
000001f0: 281e 9abd 758e 05bd c1b5 8d3d 6ce8 8dbc
-0.01457385 0.061791115 0.04986649 -0.031604763 -0.06242492 0.007402532 0.07133708 0.024825312
-0.08582358 0.042845003 -0.023926996 0.06719235 0.0043552667 -0.044387784 -0.075353675 -0.007992528
0.075571485 -0.045510776 0.052968778 0.06825895 -0.05867148 0.087432764 0.015395075 0.03922192
0.07301118 0.017722867 0.03711403 0.011383429 -0.0032005087 -0.07071717 0.0058443695 0.01787328
0.059209503 0.07432752 0.0016975999 0.045926966 0.05610671 0.06799755 -0.046644084 0.08152237
-0.022506565 0.008220881 -0.026109468 -0.031763192 -0.0001777783 0.07744529 0.018325426 0.016361088
-0.050758336 -0.061449148 -0.042699203 -0.07879672 -0.08415578 0.08737213 -0.04921847 0.042918406
-0.072080635 0.04063209 0.041910566 -0.048512783 0.015996583 -0.072576545 -0.038299263 0.044879712
0.08276079 0.046885587 0.05120399 -0.07344637 -0.07359284 -0.030707024 0.07316602 0.023935027
0.00691358 -0.012259729 0.02585297 0.07959553 -0.061062798 -0.071767256 0.0852389 0.03479848
-0.0616932 -0.061046094 -0.021708205 -0.085144095 0.055328228 0.04475624 -0.04517338 -0.04110464
-0.039170597 0.040780686 0.08295377 0.06641676 -0.03758174 0.037971385 -0.03337018 -0.059109174
-0.018753462 -0.013924435 -0.016203798 0.03339795 -0.0841012 0.08433501 -0.08585666 0.055362888
0.026063956 0.031285383 0.027778745 0.002735585 -0.080960765 -0.07704985 0.039626993 0.0056957155
-0.04890953 -0.005538404 0.07691359 -0.004568368 0.0033018067 0.085643224 0.039840154 0.060802616
0.04059667 0.041366495 0.012418367 -0.04655955 -0.07525283 -0.03260656 0.069194324 -0.017322741
