models/trainingmodels/start_2.pth (torch, 45847 bytes, 5 tensors)

linear_relu_stack.0.weight f4 [64, 104]
-0.0044062138 -0.04396641 0.014286332 -0.07182178 0.049784534 -0.09274901 0.009479642 -0.08265975
0.09138002 -0.005748853 -0.030047275 0.064351805 0.010071427 0.09632493 -0.023459263 -0.06007646
-0.04940453 -0.0757734 0.086707585 0.08675689 -0.08693896 0.052221425 0.059830405 0.049045242
0.043707915 0.03752499 -0.083095536 0.03647355 -0.061702203 -0.06883979 -0.047171865 -0.045538675
-0.091422394 0.09003044 0.006934777 0.088404514 -0.06438367 -0.008342341 0.044744365 -0.060343947
0.014325999 0.08237148 -0.050336566 -0.071111545 -0.033519015 -0.020720989 0.07335564 0.048564382
0.047644474 -0.09278241 0.07683656 0.0006665811 -0.070499904 -0.05748462 0.0034844428 -0.021922253
0.006804712 0.012034789 0.029332615 -0.097021826 -0.030846074 -0.084993094 -0.033155404 0.092569254
-0.0541752 -0.052705582 -0.07591125 0.052290194 0.08333502 -0.06519684 -0.08047606 0.08227923
0.08415852 0.060197257 -0.07504928 0.08417719 0.05384881 0.060724907 -0.034425557 0.07086394
-0.067503095 0.044161387 -0.050259322 0.055137374 0.07244656 0.015679024 0.002297923 0.08383436
0.08011573 -0.07302502 -0.06600611 0.07927839 0.055683844 -0.04063981 0.08885256 -0.07637683
0.020771466 0.049095713 0.01856032 0.09042425 -0.05789444 -0.025702693 -0.037115656 -0.07629657
0.088754945 0.051328994 -0.004433334 0.081011035 0.029382326 0.05554954 0.08588616 0.09803934
0.05142583 -0.0079036625 0.030985536 -0.077230185 0.013207622 0.04732824 -0.06656238 -0.046339493
0.06538995 -0.023893267 -0.023707293 0.062252566 -0.06430345 -0.032644194 0.021828998 -0.017261587
-0.086288124 0.075097956 -0.053315587 -0.026433583 0.065666184 -0.06478783 0.059928626 -0.072150156
-0.00010379404 0.052124716 -0.05373396 -0.085861124 -0.06125702 -0.008305952 0.07009403 -0.08359847
0.06905801 0.024779305 -0.03259769 0.09299423 0.082830794 0.048371263 0.04478876 0.07539519
-0.020103708 0.0712373 -0.039546378 -0.08158143 0.027527057 0.09750382 -0.02215685 -0.0801222
-0.038260728 0.07306505 0.097012706 -0.034158766 0.031740777 -0.035145774 0.07513016 -0.04027532
-0.08342615 0.0510829 -0.014775626 -0.030182153 0.038046665 0.044606917 -0.050890494 -0.040082492
0.018911235 -0.026205823 -0.031220526 -0.0051171407 -0.005709216 -0.009608395 0.016966231 0.037711784
0.005881585 0.00096806884 -0.0072156414 0.08008625 -0.0020200834 0.04370383 0.039548166 0.06461603
0.047762446 -0.053148974 0.06484864 -0.0692727 -0.09591517 -0.025076427 -0.090725675 -0.009755544
0.029353224 0.0062609985 0.03173008 -0.06778702 0.022437327 -0.0010629892 0.0035460964 0.08220451
0.015614897 0.055052094 0.006016828 0.08179667 -0.03546843 -0.07907776 0.012343645 -0.036163844
-0.05013115 -0.025944486 0.02612766 -0.0020181462 -0.025704019 0.019082487 0.01561562 -0.011685327
-0.05768029 -0.05787597 -0.0044123307 0.017072255 0.04345376 0.045626767 -0.008635625 -0.024459928
-0.04457168 -0.059002608 -0.09572804 -0.032122456 0.053295337 0.096231915 -7.957034e-05 -0.063652866
0.05590821 0.022957414 0.07360039 -0.058176063 0.022209572 -0.016834445 0.03495411 0.017382348
0.011929736 0.043946065 0.039834715 -0.025747424 0.07218262 0.03589899 -0.06797609 -0.050675325
00000000: 0062 90bb 1f16 34bd 3811 6a3c 4c17 93bd
00000010: deea 4b3d 31f3 bdbd 8050 1b3c 8449 a9bd
00000020: 7325 bb3d e060 bcbb b425 f6bc e1ca 833d
00000030: a002 253c 0146 c53d a42d c0bc bc12 76bd
00000040: 685c 4abd 162f 9bbd bf93 b13d 99ad b13d
00000050: 0e0d b2bd 22e6 553d ba10 753d aae3 483d
00000060: 1207 333d ceb3 193d fe2d aabd 4a65 153d
00000070: 73bb 7cbd e0fb 8cbd 4937 41bd c386 3abd
00000080: aa3b bbbd e161 b83d 203d e33b 6d0d b53d
00000090: 96db 83bd 50ae 08bc de45 373d 372b 77bd
000000a0: 98b7 6a3c 61b2 a83d b72d 4ebd eea2 91bd
000000b0: 3c4b 09bd 10bf a9bc 7b3b 963d 72eb 463d
000000c0: da26 433d b404 bebd 7d5c 9d3d 80bd 2e3a
000000d0: 4162 90bd fe74 6bbd 405b 643b 4c96 b3bc
000000e0: 10fa de3b 902d 453c f44a f03c 61b3 c6bd
000000f0: e8b0 fcbc dc10 aebd f6cd 07bd f394 bd3d
00000100: d1e6 5dbd cfe1 57bd 5c77 9bbd 3e2e 563d
00000110: 8dab aa3d ec85 85bd a2d0 a4bd 0382 a83d
00000120: 4d5b ac3d 6691 763d 70b3 99bd 1765 ac3d
00000130: 9290 5c3d aeba 783d d001 0dbd 1d21 913d
00000140: 103f 8abd 92e2 343d b8dc 4dbd bad7 613d
00000150: dd5e 943d 4c71 803c c098 163b 59b1 ab3d
00000160: b713 a43d 248e 95bd 362e 87bd b55c a23d
00000170: be14 643d ee75 26bd 55f8 b53d 756b 9cbd
00000180: ec28 aa3c 9618 493d d00b 983c 5930 b93d
00000190: b822 6dbd 748e d2bc 9606 18bd 6041 9cbd
000001a0: 27c5 b53d 5a3e 523d 8045 91bb 1de9 a53d
000001b0: 34b3 f03c ea87 633d 15e5 af3d d9c8 c83d
000001c0: e4a3 523d 5d7e 01bc 61d5 fd3c dc2a 9ebd
000001d0: c864 583c 42db 413d db51 88bd 7bce 3dbd
000001e0: 2beb 853d d0bb c3bc cc35 c2bc 8cfc 7e3d
000001f0: 87b1 83bd ebb5 05bd bad2 b23c 2c68 8dbc
00000200: d4b7 b0bd f5cc 993d 7261 5abd 3e8b d8bc
00000210: fe7b 863d 7baf 84bd b877 753d 76c3 93bd
00000220: 00ac d9b8 ba80 553d 2418 5cbd f5d7 afbd
00000230: a4e8 7abd b015 08bc 758d 8f3d ad35 abbd
00000240: 496e 8d3d f8fd ca3c 2885 05bd c273 be3d
00000250: 31a3 a93d f220 463d 6b74 373d cb68 9a3d
00000260: 88b0 a4bc dde4 913d 62fb 21bd 2a14 a7bd
00000270: 6c80 e13c 15b0 c73d 4882 b5bc 1c17 a4bd
00000280: 48b7 1cbd 21a3 953d 99ae c63d 10ea 0bbd
00000290: 9e02 023d 04f5 0fbd d7dd 993d bcf7 24bd
000002a0: 54db aabd 4e3c 513d 7815 72bc 9040 f7bc
000002b0: d2d6 1b3d beb5 363d 8d72 50bd 8a2d 24bd
000002c0: bceb 9a3c 98ad d6bc 30c2 ffbc b0ad a7bb
000002d0: 6014 bbbb 886c 1dbc c4fc 8a3c ac77 1a3d
000002e0: 50ba c03b 00c6 7d3a 3071 ecbb 4304 a43d
000002f0: 6063 04bb ca02 333d 42fd 213d 6955 843d
00000300: 8ea2 433d bdb2 59bd 5dcf 843d d8de 8dbd
00000310: 2c6f c4bd 146d cdbc 62ce b9bd b8d5 1fbc
00000320: 2c76 f03c 1029 cd3b 66f7 013d ecd3 8abd
00000330: 7cce b73c 0054 8bba a065 683b d75a a83d
00000340: a0d5 7f3c 4e7e 613d d028 c53b 0385 a73d
00000350: 5847 11bd 85f3 a1bd 003d 4a3c 8a20 14bd
00000360: 5256 4dbd 8889 d4bc ad09 d63c e042 04bb
00000370: 3c91 d2bc e052 9c3c a8d8 7f3c d073 3fbc
00000380: 2b42 6cbd 5a0f 6dbd 5095 90bb 1ddb 8b3c
00000390: 92fc 313d 22e3 3a3d 707c 0dbc 3060 c8bc
000003a0: cb90 36bd b8ac 71bd 100d c4bd d692 03bd
000003b0: 364c 5a3d 3d15 c53d 00df a6b8 6f5c 82bd
000003c0: 0200 653d 3011 bc3c cdbb 963d 064a 6ebd
000003d0: d9f0 b53c 64e8 89bc 0a2c 0f3d 6d65 8e3c
000003e0: f074 433c ca00 343d ba29 233d 43ec d2bc
000003f0: 7bd4 933d d20a 133d 0c37 8bbd ee90 4fbd

linear_relu_stack.0.bias f4 [64]
-0.078473285 0.0012163112 0.092101805 -0.09193413 0.06265656 -0.03289866 -0.09335442 -0.08645261
0.083908774 -0.051189285 -0.018256672 0.025430746 -0.0046239295 0.04225702 0.059905306 -0.073879324
-0.04526715 -0.085742675 0.0655259 -0.03492848 0.021733038 0.05003362 0.027463082 0.07204919
-0.08571409 -0.017818648 0.07200869 -0.004580807 0.011129215 0.09383347 0.089919314 -0.02915451
0.007441595 -0.054968353 -0.037276678 0.01992198 0.08484564 -0.08987254 -0.093350425 -0.012269399
0.0866987 -0.04661885 0.087301604 -0.07048007 0.0022113249 0.05504691 0.07872733 0.016558474
-0.017940402 0.06665049 0.06809316 0.037986327 -0.02552476 0.05135829 0.06687352 -0.022593172
-0.08264742 0.039872732 -0.08758922 -0.032866072 0.037151195 0.012800799 0.006452945 -0.093203776
00000000: 9ab6 a0bd a26c 9f3a df9f bc3d f647 bcbd
00000010: 1552 803d bfc0 06bd 9a30 bfbd 110e b1bd
00000020: 5dd8 ab3d dbab 51bd 048f 95bc 2454 d03c
00000030: 5584 97bb b215 2d3d 445f 753d 0b4e 97bd
00000040: 0c6a 39bd db99 afbd 7132 863d 2a11 0fbd
00000050: 7c09 b23c 0ef0 4c3d 42fa e03c 878e 933d
00000060: de8a afbd 6af8 91bc 4b79 933d 981a 96bb
00000070: 5057 363c c32b c03d 9e27 b83d 70d5 eebc
00000080: a0d8 f33b 7f26 61bd 6eaf 18bd 6c33 a33c
00000090: 8dc3 ad3d 180f b8bd 822e bfbd 9705 49bc
000000a0: 178f b13d 68f3 3ebd 2fcb b23d db57 90bd
000000b0: e0eb 103b de78 613d cb3b a13d a3a5 873c
000000c0: c0f7 92bc 0d80 883d 6d74 8b3d 8d97 1b3d
000000d0: 4d19 d1bc 125d 523d fcf4 883d 5115 b9bc
000000e0: 0d43 a9bd 9751 233d fa61 b3bd 939e 06bd
000000f0: da2b 183d 71ba 513c 3a73 d33b 9fe1 bebd

linear_relu_stack.2.weight f4 [64, 64]
0.101931036 0.087630555 -0.032419696 -0.069726914 0.008665711 0.025284648 -0.08112961 0.04150814
-0.090188265 0.04877147 -0.095329806 0.06979093 -0.093898505 -0.08879879 -0.063042864 -0.0013952255
-0.010343641 -0.0653383 -0.016105413 0.07249829 -0.0032799393 0.095941365 0.04840663 0.029021338
-0.020124897 -0.082808375 -0.11244258 -0.05904101 0.015637338 -0.0016362071 0.040391296 0.030577004
0.07071045 0.10897122 -0.008403033 -0.118665874 0.113909975 0.031195194 -0.10253237 -0.092816606
-0.076659605 0.073127255 -0.11763252 0.025316894 0.10745786 0.09200998 0.10639836 -0.06356549
-0.10737653 -0.054771304 -0.061899155 -0.07610099 0.030816287 -0.044461384 -0.01713188 0.084283054
-0.024877429 -0.020485148 0.12493794 -0.1182397 -0.060533434 -0.05850053 -0.10858908 -0.03406322
0.11720522 -0.12076264 0.061035335 0.019339643 0.018456921 -0.05994399 -0.09976703 0.0074274167
-0.044566903 0.11395245 0.0754979 -0.077888206 0.032666236 0.06673555 0.0064051854 -0.05646336
0.0022370815 0.08441411 -0.050677225 -0.089055285 -0.08446024 0.0049965354 0.060677584 0.10416088
0.01791823 -0.043943394 0.05492608 0.100537986 -0.0660706 0.07619274 -0.0020830382 0.0738405
-0.061783154 -0.08135958 0.087699726 -0.099385716 0.02405929 -0.046474606 0.028774008 0.015399393
-0.030610938 -0.07861625 0.029662415 -0.03553039 -0.0034470707 -0.09829067 0.057640787 0.10368548
0.03202423 0.008737251 -0.081973605 -0.06706928 -0.082553715 -0.08133978 0.12009296 0.10350292
0.0036150664 -0.112503216 0.062641636 -0.11174563 -0.09014342 0.06763582 -0.02146256 -0.04391402
-0.11654717 -0.071055874 0.12204082 0.07371676 0.03948942 0.03138995 0.11822586 0.091003925
-0.058682546 -0.120516285 0.012141049 0.112012535 -0.024042115 -0.09953292 -0.08747889 -0.07228102
-0.025137872 -0.1248824 -0.046703503 0.006362468 0.07811919 0.0092282295 0.07920438 0.10005392
0.10531549 -0.025730848 0.07257171 0.022141442 0.0810962 -0.012168869 -0.096207276 0.041061
-0.105634466 0.08231974 0.0041582882 0.065929726 -0.0044020563 0.118567854 0.10460007 -0.0047895014
0.08854285 0.014601767 0.09533423 0.054067627 -0.097418204 -0.061577305 0.037505493 -0.062105358
-0.116627574 -0.11528386 0.024484277 -0.033817336 -0.036343083 0.029712409 0.00013047457 -0.037599295
0.018464655 -0.054175243 0.05753936 -0.0033817887 -0.05472818 0.0331095 -0.113459274 -0.08456336
0.06080988 0.00070044457 -0.037180904 -0.07283191 0.06698142 -0.11524181 -0.11494331 0.113008134
-0.097104706 -0.098432116 0.08097566 -0.0024829805 -0.07153546 0.008366869 0.079931326 0.014636558
0.06881349 -0.08933579 0.10118537 0.017924633 0.03586401 -0.06505667 0.06360996 0.118813656
0.041267022 -0.027802598 0.02236417 0.075267114 0.12287684 -0.043462366 0.08919089 -0.09092237
0.058291763 -0.11415756 0.111156374 -0.0070471875 0.06037842 0.06362632 -0.08720799 -0.019073322
-0.05075501 0.10153633 -0.025685135 0.06841798 -0.08481574 0.10185461 0.032460134 -0.10846739
0.085751824 -0.12348444 -0.1056787 -0.017832663 -0.09549551 -0.024744585 0.080834545 -0.08571768
-0.057091445 0.103740215 0.070689924 0.040679313 -0.023488864 -0.06490125 -0.021242427 -0.110895306
00000000: 38c1 d03d a677 b33d 84ca 04bd fccc 8ebd
00000010: a0fa 0d3c c021 cf3c 4827 a6bd 7004 2a3d
00000020: a0b4 b8bd 98c4 473d 463c c3bd 8cee 8e3d
00000030: dc4d c0bd 24dc b5bd 9e1c 81bd 00e0 b6ba
00000040: 6078 29bc 16d0 85bd 80ef 83bc fc79 943d
00000050: 40f4 56bb e87c c43d 0846 463d 28be ed3c
00000060: f8dc a4bc 7097 a9bd 4c48 e6bd fcd4 71bd
00000070: e019 803c 0076 d6ba 5871 253d a07c fa3c
00000080: a4d0 903d 4e2c df3d e0ac 09bc 1807 f3bd
00000090: a249 e93d 108d ff3c 7efc d1bd a216 bebd
000000a0: b6ff 9cbd bec3 953d 52e9 f0bd 6065 cf3c
000000b0: de12 dc3d ba6f bc3d 62e7 d93d a02e 82bd
000000c0: 3ae8 dbbd e057 60bd f889 7dbd d6da 9bbd
000000d0: 7072 fc3c 241d 36bd 2858 8cbc 989c ac3d
000000e0: c0cb cbbc 78d0 a7bc 76df ff3d a827 f2bd
000000f0: e8f1 77bd 409e 6fbd f463 debd e085 0bbd
00000100: 4a09 f03d 6752 f7bd 3000 7a3d 2c6e 9e3c
00000110: f832 973c d487 75bd a852 ccbd b061 f33b
00000120: c98b 36bd e75f e93d a59e 9a3d da83 9fbd
00000130: 08cd 053d a6ac 883d 97e2 d13b 2046 67bd
00000140: 009c 123b 4ee1 ac3d ec92 4fbd 9e62 b6bd
00000150: 7ef9 acbd fab9 a33b 0f89 783d 4d52 d53d
00000160: 40c9 923c fdfd 33bd 2bfa 603d dce6 cd3d
00000170: 0650 87bd f00a 9c3d 9583 08bb b039 973d
00000180: 5510 7dbd da9f a6bd ea9b b33d bd8a cbbd
00000190: fd17 c53c 285c 3ebd 78b7 eb3c bc4d 7c3c
000001a0: cac3 fabc 8e01 a1bd 98fe f23c 5088 11bd
000001b0: 40e8 61bb 9e4c c9bd bf18 6c3d 0e59 d43d
000001c0: d72b 033d b026 0f3c c7e1 a7bd 9e5b 89bd
000001d0: ec11 a9bd 7895 a6bd 4cf3 f53d 57f9 d33d
000001e0: c0ea 6c3b 1668 e6bd 424a 803d e5da e4bd
000001f0: 1d9d b8bd a684 8a3d 40d2 afbc 30df 33bd
00000200: 48b0 eebd be85 91bd 8af0 f93d d0f8 963d
00000210: a8bf 213d c092 003d 6620 f23d 4460 ba3d
00000220: 1c5d 70bd 3ed1 f6bd 40eb 463c d466 e53d
00000230: f8f3 c4bc ead7 cbbd 2228 b3bd 1208 94bd
00000240: f0ed cdbc 58c2 ffbd 2c4c 3fbd 407c d03b
00000250: f4fc 9f3d 0032 173c e835 a23d 12e9 cc3d
00000260: a6af d73d 80c9 d2bc 7aa0 943d f861 b53c
00000270: c415 a63d f05f 47bc 5208 c5bd 942f 283d
00000280: e256 d8bd 4097 a83d 4042 883b 2a06 873d
00000290: 203f 90bb b4d3 f23d 9038 d63d 40f1 9cbb
000002a0: f455 b53d 403c 6f3c 983e c33d 0476 5d3d
000002b0: 3283 c7bd 7c38 7cbd 5c9f 193d 3062 7ebd
000002c0: 70da eebd f219 ecbd 4093 c83c 0c84 0abd
000002d0: 7cdc 14bd 7067 f33c 00d0 0839 b801 1abd
000002e0: 3043 973c dce6 5dbd 64ae 6b3d 00a1 5dbb
000002f0: a82a 60bd d49d 073d 565d e8bd 8e2f adbd
00000300: c813 793d 0a9e 373a 014b 18bd e528 95bd
00000310: 8e2d 893d e603 ecbd 6667 ebbd cf70 e73d
00000320: d5de c6bd c796 c9bd 91d6 a53d 80b9 22bb
00000330: 2f81 92bd 3115 093c 09b3 a33d 2cce 6f3c
00000340: 16ee 8c3d aff5 b6bd 463a cf3d aed6 923c
00000350: 24e6 123d 6e3c 85bd f045 823d 9354 f33d
00000360: 9c07 293d 46c2 e3bc 1035 b73c a525 9a3d
00000370: daa6 fb3d 9805 32bd b7a9 b63d 8235 babd
00000380: 58c3 6e3d 70cb e9bd f4a5 e33d 18ec e6bb
00000390: 5d4f 773d 844e 823d 1a9a b2bd a83f 9cbc
000003a0: 7ce4 4fbd 48f2 cf3d a269 d2bc ba1e 8c3d
000003b0: e0b3 adbd 2699 d03d ebf4 043d 2724 debd
000003c0: a79e af3d 69e5 fcbd 136e d8bd ce15 92bc
000003d0: 2693 c3bd 28b5 cabc 958c a53d c08c afbd
000003e0: b8d8 69bd c075 d43d e1c5 903d 5a9f 263d
000003f0: b86b c0bc f2ea 84bd 9904 aebc 141d e3bd

linear_relu_stack.2.bias f4 [64]
0.04495479 0.10573469 -0.10065049 0.08721484 -0.09270333 0.0876783 -0.1083903 -0.048506483
-0.09515652 0.0622883 -0.002300533 -0.08232346 -0.021512134 -0.017854407 -0.038209513 -0.032151088
0.11726704 0.093007594 -0.0781873 0.00890772 0.055693343 0.037680272 0.11820732 -0.004255299
-0.011172621 -0.039361116 0.025728256 -0.037865475 0.06931454 0.0061826115 -0.037583172 0.023899155
0.10344592 -0.12243852 -0.01774232 0.057469252 -0.099618435 -0.10090205 0.07427418 0.088880405
0.0016075099 0.09920938 -0.011162639 -0.039752986 -0.024350062 -0.07893771 -0.03914824 -0.11426152
-0.009979999 0.04104157 -0.0031926609 -0.096217304 0.08800644 -0.07768625 0.04676117 0.039029554
0.040921558 -0.055330336 0.03657706 0.028209114 0.08607544 0.034931988 0.022367777 -0.0050509274
00000000: 8422 383d 6e8b d83d d821 cebd b29d b23d
00000010: 3edb bdbd ae90 b33d bcfb ddbd bcae 46bd
00000020: 6ce1 c2bd 0422 7f3d 8ac4 16bb 3499 a8bd
00000030: 373a b0bc 6843 92bc 9481 1cbd dcb0 03bd
00000040: b429 f03d c47a be3d aa20 a0bd b0f1 113c
00000050: b41e 643d a156 1a3d ae16 f23d 0970 8bbb
00000060: 5e0d 37bc 1f39 21bd 10c4 d23c d418 1bbd
00000070: c8f4 8d3d 8197 ca3b d0f0 19bd 29c8 c33c
00000080: 74db d33d 0cc1 fabd 5858 91bc e164 6b3d
00000090: c004 ccbd bca5 cebd 101d 983d ee06 b63d
000000a0: 15b3 d23a 4a2e cb3d 80e3 36bc 07d4 22bd
000000b0: c879 c7bc 18aa a1bd e859 20bd f201 eabd
000000c0: 2683 23bc 351b 283d f63b 51bb 940d c5bd
000000d0: b83c b43d f819 9fbd a488 3f3d 74dd 1f3d
000000e0: 5d9d 273d 10a2 62bd d4d1 153d cd16 e73c
000000f0: 5248 b03d d814 0f3d a13c b73c 4082 a5bb

linear_relu_stack.4.weight f4 [1, 64]
0.017581597 -0.05995701 -0.08739391 0.06350684 0.021545276 0.05498301 -0.0021546185 0.023639187
-0.056438595 -0.02896829 0.056176525 0.037268966 -0.030718984 -0.09167469 0.078810185 -0.07677831
-0.05026774 0.055537745 0.028388962 -0.025598675 -0.04924439 -0.094365954 0.024926156 -0.010466095
-0.09483592 -0.009126009 0.0780323 -0.08080216 -0.08086258 0.11900784 0.10162906 0.030164706
0.040419057 -0.034286276 -0.034995005 -0.034479115 0.0118483305 0.013931781 0.055884212 -0.10041994
-0.044144515 0.09271945 -0.08659333 -0.06233533 -0.053989843 -0.07163438 -0.083294675 -0.090322495
-0.006907862 0.013911726 0.042382304 -0.029311879 -0.0816849 -0.07775825 0.026466325 0.124385715
0.007884446 -0.12079848 0.017378494 0.0059932 0.12005238 0.11023438 -0.054488454 -0.023413599
00000000: 4807 903c 7b95 75bd 94fb b2bd e00f 823d
00000010: b87f b03c dd35 613d 8034 0dbb f8a6 c13c
00000020: 282c 67bd e84e edbc 5b19 663d 58a7 183d
00000030: 61a6 fbbc f1bf bbbd 3c67 a13d f23d 9dbd
00000040: 8ce5 4dbd 8c7b 633d f88f e83c 50b4 d1bc
00000050: 7cb4 49bd f042 c1bd f031 cc3c fc79 2bbc
00000060: 5639 c2bd 4285 15bc 66cf 9f3d 9a7b a5bd
00000070: 489b a5bd 62ba f33d e622 d03d f91b f73c
00000080: 748e 253d c46f 0cbd ec56 0fbd f939 0dbd
00000090: 801f 423c 2042 643c d8e6 643d f8a8 cdbd
000000a0: e1d0 34bd b2e3 bd3d d857 b1bd 5553 7fbd
000000b0: 7424 5dbd 0cb5 92bd 6696 aabd 00fb b8bd
000000c0: 595b e2bb 02ee 633c 1199 2d3d 771f f0bc
000000d0: 6a4a a7bd b83f 9fbd e8cf d83c f0bd fe3d
000000e0: c32d 013c 3265 f7bd 585d 8e3c 9b62 c43b
000000f0: 06de f53d 90c2 e13d 492f 5fbd e0cd bfbc
