models/trainingmodels/start_backup.pth (torch, 337595 bytes, 12 tensors)

linear_relu_stack.0.weight f4 [64, 104]
0.09056356 -0.087663464 -0.024462298 0.05744674 -0.07755838 -0.040515844 0.026493572 0.036257632
-0.07940496 -0.08141562 0.0594149 -0.025785893 -0.091360934 -0.068885356 0.050391607 0.041991837
-0.09611601 -0.009360909 -0.096925 0.058786653 0.009624988 0.09595912 0.080440424 0.090772666
0.008939728 -0.05407694 0.032801546 0.09789451 -0.08690955 0.027186416 -0.05809241 0.08671815
0.09608955 0.08144102 0.08117586 0.06588056 0.083911054 -0.071973324 0.09186525 0.080612294
0.045960166 -0.038969997 -0.050354265 0.0770056 -0.09323488 0.053299047 -0.0014247224 0.07071865
-0.07462004 -0.08690582 0.09482101 0.050928302 -0.044860452 -0.0034855083 -0.077178 0.022598796
-0.012337506 0.028165914 0.018627435 -0.07976073 -0.08472573 -0.09429257 -0.033361644 -0.016944788
-0.020809092 0.048234783 0.06921505 0.0342767 0.06959204 0.08854068 -0.024078757 -0.07778623
0.07164975 -0.031683765 0.00103385 -0.02484639 0.07917578 -0.0014341176 0.037514187 -0.088804185
0.00908801 -0.028445266 -0.06935167 0.094797365 0.013394199 0.038280465 0.01991593 -0.043069854
-0.015888222 -0.08088357 -0.061556004 0.011115164 -0.010140546 0.00460615 0.06530372 0.04035271
-0.026087858 -0.0028609037 0.0072856247 -0.07463495 0.057459228 -0.026229754 -0.006773539 0.057153232
0.056784756 0.082852416 0.016258068 0.07169587 0.06799207 -0.023280099 0.013271794 -0.056246463
-0.08994451 -0.08899725 0.032641478 0.08059885 0.041462354 0.01937271 -0.064950064 0.0074473247
0.086185716 0.091404594 -0.046969976 0.077875234 0.044755526 -0.08627624 -0.048952222 -0.038629506
-0.07690783 -0.0801068 -0.005888894 0.061708428 -0.05278998 -0.027996786 0.09410558 -0.011031613
0.08905231 0.023596019 -0.05553302 -0.050482627 -0.05885578 -0.06460934 0.040092 0.0062019303
-0.034006163 0.027680166 -0.081215136 0.04683318 -0.0035803542 0.04982757 0.057637863 0.065447606
-0.05951429 -0.002927862 0.06526586 -0.03409355 0.059288986 -0.081173934 0.0074517652 0.093081094
-0.002096124 0.03826449 0.022600755 0.0146743655 -0.093242176 0.043150492 0.032186173 0.070048206
0.046395637 0.018903963 -0.049215224 -0.054339916 -0.09754786 0.066681825 0.012770504 -0.06970447
0.023565136 -0.075634256 -0.07714107 -0.07188174 0.075530104 0.026085086 0.07262417 -0.013672449
0.054286174 -0.088525265 -0.05829499 0.026272818 0.07577614 -0.047836524 -0.0569394 0.04403705
0.025015734 -0.025063708 -0.011234641 0.018970415 0.09749503 -0.049342357 -0.07183438 -0.07818421
0.0813114 0.06356288 -0.077709645 -0.09105323 0.021764308 -0.02466628 -0.013261229 -0.05564702
-0.0025803745 0.016125046 -0.09165088 0.07955506 -0.07214158 -0.084489666 -0.049350947 0.026487082
0.089448445 0.02429977 -0.021259837 0.0011795685 -0.06823613 0.0062811673 -0.062069308 -0.040617842
-0.042462435 0.0031814277 0.039096646 0.081694834 -0.08254238 -0.035738617 0.02691596 0.028812744
-0.044928543 0.07178617 -0.052618578 -0.018844508 -0.030731589 -0.01663991 0.062265836 -0.06386961
0.030601017 0.08800388 -0.07264754 -0.088017955 0.08628867 0.0630335 0.012879729 0.03850458
0.015247308 0.0056765378 0.057962187 0.0505305 0.0043641776 0.03429856 -0.078649685 0.039795674
00000000: 6379 b93d e788 b3bd 2865 c8bc 464d 6b3d
00000010: eed6 9ebd f1f3 25bd 0c09 d93c e282 143d
00000020: 119f a2bd 3cbd a6bd 0a5d 733d f03c d3bc
00000030: 711b bbbd c413 8dbd 6e67 4e3d a2ff 2b3d
00000040: 78d8 c4bd 805e 19bc 9d80 c6bd 46ca 703d
00000050: 20b2 1d3c 3786 c43d f3bd a43d 05e7 b93d
00000060: f077 123c c87f 5dbd ea5a 063d eb7c c83d
00000070: a2fd b1bd 0cb6 de3c 4ff2 6dbd 4999 b13d
00000080: 99ca c43d 8dca a63d 873f a63d 63ec 863d
00000090: 8fd9 ab3d c066 93bd d923 bc3d 0f18 a53d
000000a0: ba40 3c3d 019f 1fbd 4640 4ebd 1db5 9d3d
000000b0: eef1 bebd 1a50 5a3d c0bd baba f1d4 903d
000000c0: 64d2 98bd aefb b1bd 8531 c23d 329a 503d
000000d0: 98bf 37bd 206d 64bb 800f 9ebd 1c21 b93c
000000e0: 4023 4abc 34bc e63c 9098 983c 9859 a3bd
000000f0: af84 adbd 771c c1bd 38a6 08bd cccf 8abc
00000100: d477 aabc d691 453d 9fc0 8d3d ba65 0c3d
00000110: 4586 8e3d d154 b53d d040 c5bc 634e 9fbd
00000120: 1bbd 923d d6c6 01bd 4082 873a a88a cbbc
00000130: e926 a23d 00f9 bbba 7aa8 193d f8de b5bd
00000140: e0e5 143c 0c06 e9bc 4008 8ebd 1f25 c23d
00000150: 5873 5b3c facb 1c3d bc26 a33c 046a 30bd
00000160: 0428 82bc 49a6 a5bd 2622 7cbd 601c 363c
00000170: 8824 26bc 30ef 963b f5bd 853d e248 253d
00000180: 34b6 d5bc 007e 3bbb 40bc ee3b 35da 98bd
00000190: 5e5a 6b3d c8df d6bc 90f4 ddbb 8219 6a3d
000001a0: 2297 683d 87ae a93d a42f 853c 49d5 923d
000001b0: 6d3f 8b3d e8b5 bebc f071 593c b162 66bd
000001c0: d434 b8bd 3144 b6bd 12b3 053d 0311 a53d
000001d0: 6ed4 293d 84b3 9e3c 8a04 85bd b008 f43b
000001e0: 2382 b03d 5532 bb3d 9763 40bd 0d7d 9f3d
000001f0: 9251 373d 99b1 b0bd 2082 48bd f939 1ebd
00000200: da81 9dbd 090f a4bd a0f7 c0bb fac1 7c3d
00000210: 4e3a 58bd 8459 e5bc 6dba c03d f0bd 34bc
00000220: 0f61 b63d 704c c13c 9876 63bd dfc6 4ebd
00000230: c212 71bd e751 84bd 8237 243d 9039 cb3b
00000240: 0c4a 0bbd 84c1 e23c 1f54 a6bd 26d4 3f3d
00000250: 60a4 6abb fe17 4c3d ae15 6c3d 6509 863d
00000260: 42c5 73bd 60e1 3fbb 1baa 853d aea5 0bbd
00000270: 02d9 723d 853e a6bd f02d f43b 4da1 be3d
00000280: 205f 09bb 3abb 1c3d 3825 b93c c06c 703c
00000290: c1f5 bebd 92be 303d a6d5 033d 6f75 8f3d
000002a0: 5a09 3e3d 7cdc 9a3c e795 49bd 8893 5ebd
000002b0: 2cc7 c7bd 7b90 883d 603b 513c 38c1 8ebd
000002c0: ac0b c13c 22e6 9abd 23fc 9dbd bc36 93bd
000002d0: 87af 9a3d 64b0 d53c fbbb 943d 6802 60bc
000002e0: 2e5b 5e3d bc4c b5bd bac6 6ebd 183a d73c
000002f0: 8530 9b3d 3bf0 43bd 4a39 69bd 3260 343d
00000300: cced cc3c 6852 cdbc 8011 38bc d867 9b3c
00000310: 79ab c73d 361b 4abd e71d 93bd 0b1f a0bd
00000320: 9786 a63d 412d 823d 3c26 9fbd 1e7a babd
00000330: 104b b23c f010 cabc a045 59bc 21ee 63bd
00000340: 801b 29bb ac18 843c 75b3 bbbd c3ed a23d
00000350: f7be 93bd eb08 adbd 3824 4abd 70fb d83c
00000360: bf30 b73d 5010 c73c 1c29 aebc c09b 9a3a
00000370: 62bf 8bbd 40d2 cd3b 633c 7ebd e55e 26bd
00000380: 17ed 2dbd 807f 503b ce23 203d 9f4f a73d
00000390: fb0b a9bd a862 12bd dc7e dc3c b408 ec3c
000003a0: fe06 38bd a104 933d 9486 57bd cc5f 9abc
000003b0: d0c0 fbbc 6c50 88bc 760a 7f3d 12ce 82bd
000003c0: fcae fa3c 613b b43d 3cc8 94bd c242 b4bd
000003d0: 1db8 b03d b517 813d 8005 533c fab6 1d3d
000003e0: d8cf 793c 4002 ba3b c269 6d3d 12f9 4e3d
000003f0: 6001 8f3b a67c 0c3d 1613 a1bd ca00 233d

linear_relu_stack.0.bias f4 [64]
-0.040179726 -0.09144094 -0.07801856 0.08866421 0.078816555 -0.037791092 0.072122686 0.059005804
-0.056888808 -0.009680942 0.002937764 0.034332313 0.06761772 0.016261756 0.059465937 -0.055020254
-0.07070993 -0.020451747 -0.07714953 -0.08467558 0.09353923 0.0956944 0.020015873 -0.061267823
-0.009631284 0.017468676 -0.047280878 0.033107437 0.07165242 0.018875368 0.020552322 0.01750964
-0.07812786 -0.08256634 -0.04994758 -0.07569746 -0.00028008968 0.08647198 0.018161379 0.05153572
0.040465318 0.07916523 -0.042125452 0.05684056 -0.060456097 0.08275249 0.042444892 -0.058426928
0.02597157 -0.061185002 0.009372659 0.037173025 0.082943894 -0.03279335 0.09083573 -0.09445386
-0.08973855 0.02142696 -0.05562599 0.018871337 -0.076993324 0.06398662 -0.025737382 -0.07794066
00000000: 7f93 24bd 6345 bbbd 32c8 9fbd 9595 b53d
00000010: 936a a13d d5ca 1abd 0fb5 933d 12b0 713d
00000020: 3d04 69bd d09c 1ebc 8087 403b 0aa0 0c3d
00000030: 297b 8a3d 6037 853c 8e92 733d eb5c 61bd
00000040: 5ed0 90bd 6c8a a7bc 9300 9ebd 646a adbd
00000050: 7f91 bf3d 6dfb c33d 54f8 a33c f8f3 7abd
00000060: 88cc 1dbc 781a 8f3c 98a9 41bd aa9b 073d
00000070: 81be 923d 84a0 9a3c 585d a83c 6070 8f3c
00000080: 8001 a0bd 8b18 a9bd d595 4cbd 4507 9bbd
00000090: 00d9 92b9 3918 b13d 2cc7 943c 1e17 533d
000000a0: f6be 253d 6121 a23d bd8b 2cbd a6d1 683d
000000b0: d0a0 77bd 237a a93d b2da 2d3d 1351 6fbd
000000c0: 54c2 d43c 209d 7abd c88f 193c be42 183d
000000d0: 7dde a93d 5252 06bd 1508 ba3d 0671 c1bd
000000e0: d8c8 b7bd 9887 af3c 14d8 63bd 1098 9a3c
000000f0: adae 9dbd 6b0b 833d 34d7 d2bc 5a9f 9fbd

linear_relu_stack.2.weight f4 [64, 64]
0.09818883 -0.014134437 0.061453864 -0.021513343 -0.059510812 -0.09603645 0.10482657 0.06422381
0.031854093 0.0022584647 0.022519812 -0.09336549 0.081552 -0.11100192 0.022798061 0.029903427
0.046535805 0.042560697 -0.07341649 0.059924006 0.021425292 0.020247474 0.04328078 -0.026441425
-0.05816686 0.058400646 0.07618889 0.024491578 0.094955504 -0.016832426 -0.09633355 -0.081943214
-0.067882046 0.021118417 0.054575503 0.030911565 -0.031110004 0.09948906 -0.030175477 0.015715972
0.102100775 -0.10359721 0.017009959 -0.071286455 0.11787166 0.013112977 0.11302343 0.021995425
-0.08999017 -0.00031001866 -0.11046249 0.07744038 0.06459819 -0.06975505 0.098850295 0.08084099
0.115352854 -0.08727832 -0.052575454 0.06046021 -0.09188259 0.0657942 -0.052577525 -0.03688845
0.10254407 0.046929047 -0.077893555 0.11719929 0.007955864 0.035762772 0.09788863 -0.07968971
-0.02093932 -0.06454761 -0.02120778 0.054799184 -0.0015258938 0.001972109 0.021556213 0.0878271
-0.119491875 -0.054754227 0.01181522 -0.12289466 -0.122033 0.042827353 -0.061462134 -0.11987716
0.017066717 -0.031019121 -0.0042440444 0.0849036 0.075641096 -0.047455445 -0.087862 -0.017325655
0.102208644 0.06449525 -0.045874983 0.08932561 0.040919885 -0.009048924 0.03966619 -0.032836586
-0.04492113 -0.016598374 -0.12040825 -0.08268656 -0.03990361 0.021125674 0.10292174 0.055512622
0.10798429 -0.084796116 -0.09617858 0.111137524 -0.04213254 -0.11715166 0.07946299 0.06557347
0.098731816 0.035470128 0.11581375 -0.041692495 0.00320296 0.015248448 0.07469681 0.011525288
-0.099245906 -0.08916676 0.02403079 0.035346195 -0.015947476 0.03978549 0.0466872 0.0958534
0.10277897 -0.09663853 -0.013439044 0.022484615 0.09174062 -0.043021902 0.038100317 0.05435042
-0.09696916 -0.032781422 -0.06001258 -0.108677655 0.091573566 -0.025780305 0.10288036 0.09267956
0.016708955 -0.077393174 0.10359274 0.08039357 0.014147863 -0.09078334 -0.119013205 0.07020472
-0.0107023865 0.00663504 0.11098823 -0.013941318 0.08962758 0.0082137585 -0.10318372 0.032506242
0.046633035 0.018603027 0.002106011 0.055112183 -0.018348187 0.007826984 0.11474058 -0.08418001
0.059956834 -0.09922649 -0.07832956 0.111624315 -0.0047317594 -0.081682384 0.098646924 0.037876174
0.0037345737 -0.04156731 -0.080810085 -0.015564442 -0.111785576 -0.02329342 -0.0017733425 -0.12100756
0.101114765 -0.07203081 0.037205175 -0.08131628 -0.11079933 -0.05326028 -0.054586455 -0.041036382
-0.010879427 0.004282117 -0.051601335 0.056976408 -0.0462631 -0.0969989 -0.022945583 0.1145193
0.0905416 -0.11561306 0.04975252 0.122672394 -0.028701112 0.09126194 -0.015098095 0.094440594
0.049086764 -0.010671124 -0.022638097 -0.08374572 -0.1206903 -0.042324394 -0.04118994 0.017504737
-0.11815593 -0.007192999 0.103387624 0.091568634 0.023167193 0.08703965 0.0049676597 -0.019482166
0.09609681 0.12315643 -0.064685196 -0.04368761 -0.027031317 0.05241698 -0.025523677 0.089649454
0.036597893 -0.06654328 -0.07274529 -0.06288096 0.033098817 -0.0038626492 0.064464554 0.028989285
-0.072557524 0.10161911 0.011810884 -0.11025663 0.07318507 0.041672066 -0.09573455 -0.03908114
00000000: 3a17 c93d 2094 67bc 0cb7 7b3d c03c b0bc
00000010: 9cc1 73bd c2ae c4bd 50af d63d c687 833d
00000020: 7079 023d c002 143b 787b b83c 6836 bfbd
00000030: bc04 a73d fa54 e3bd 00c3 ba3c 08f8 f43c
00000040: 549c 3e3d 2054 2e3d 625b 96bd e072 753d
00000050: 1884 af3c 08de a53c 3047 313d b09b d8bc
00000060: 6040 6ebd 8435 6f3d ec08 9c3d 90a2 c83c
00000070: 0878 c23d 28e4 89bc 864a c5bd d8d1 a7bd
00000080: be05 8bbd 8800 ad3c 908a 5f3d 403a fd3c
00000090: 68da febc ecc0 cb3d 9032 f7bc c8be 803c
000000a0: 361a d13d c62a d4bd 7858 8b3c a2fe 91bd
000000b0: b266 f13d d0d7 563c d478 e73d c02f b43c
000000c0: c44c b8bd 008a a2b9 283a e2bd 1099 9e3d
000000d0: 0e4c 843d bcdb 8ebd 0672 ca3d f68f a53d
000000e0: 1e3e ec3d fabe b2bd 5c59 57bd 20a5 773d
000000f0: f02c bcbd 1cbf 863d 885b 57bd 5818 17bd
00000100: a002 d23d ac38 403d a886 9fbd 2e06 f03d
00000110: 5059 023c fc7b 123d d679 c83d 5c34 a3bd
00000120: f088 abbc 8a31 84bd f0bb adbc 1c75 603d
00000130: 8000 c8ba 803e 013b a896 b03c b2de b33d
00000140: 28b8 f4bd f845 60bd a094 413c 32b0 fbbd
00000150: 70ec f9bd bc6b 2f3d b8bf 7bbd 2882 f5bd
00000160: 80cf 8b3c d01b febc a011 8bbb f0e1 ad3d
00000170: b8e9 9a3d a460 42bd fef0 b3bd 88ee 8dbc
00000180: c452 d13d 1616 843d 68e7 3bbd 58f0 b63d
00000190: 9c9b 273d f041 14bc 0479 223d a87f 06bd
000001a0: 38ff 37bd 50f9 87bc 9a98 f6bd 9257 a9bd
000001b0: f871 23bd c00f ad3c a2c8 d23d 3461 633d
000001c0: de26 dd3d 96a9 adbd 46f9 c4bd 129c e33d
000001d0: 2c93 2cbd 36ed efbd 7ebd a23d 624b 863d
000001e0: e833 ca3d 2049 113d c22f ed3d c0c5 2abd
000001f0: c0e8 513b a0d4 793c a4fa 983d 90d4 3c3c
00000200: 7041 cbbd 109d b6bd 38dc c43c 2cc7 103d
00000210: 48a4 82bc 1cf6 223d 143b 3f3d ca4e c43d
00000220: c87d d23d 6cea c5bd 702f 5cbc a831 b83c
00000230: 82e2 bb3d bc37 30bd 140f 1c3d 8c9e 5e3d
00000240: c497 c6bd d045 06bd c0cf 75bd 6492 debd
00000250: ec8a bb3d 3831 d3bc f0b2 d23d c8ce bd3d
00000260: 38e1 883c 5080 9ebd 6e28 d43d 62a5 a43d
00000270: 70cc 673c 9eec b9bd 32bd f3bd 7ec7 8f3d
00000280: 1059 2fbc c06a d93b cc4d e33d 206a 64bc
00000290: aa8e b73d 0093 063c fc51 d3bd 4425 053d
000002a0: 4802 3f3d 6065 983c 0005 0a3b 50bd 613d
000002b0: f04e 96bc c03c 003c 1cfd ea3d 9266 acbd
000002c0: 4c95 753d 4237 cbbd 406b a0bd 4a9b e43d
000002d0: e00c 9bbb 1849 a7bd 6607 ca3d 0c24 1b3d
000002e0: c0bf 743b 7c42 2abd c27f a5bd 0002 7fbc
000002f0: d6ef e4bd d8d1 bebc 806f e8ba d0d2 f7bd
00000300: 4215 cf3d e484 93bd 7464 183d 2689 a6bd
00000310: c2ea e2bd 7427 5abd 0c96 5fbd c415 28bd
00000320: a03f 32bc 0051 8c3b ec5b 53bd 1860 693d
00000330: 607e 3dbd 5ca7 c6bd 60f8 bbbc 1889 ea3d
00000340: e06d b93d 8ac6 ecbd 4cc9 4b3d aa3b fb3d
00000350: 981e ebbc 8ae7 ba3d 005e 77bc 126a c13d
00000360: 340f 493d f0d5 2ebc 8873 b9bc e082 abbd
00000370: 7a2c f7bd 585c 2dbd c8b6 28bd 1866 8f3c
00000380: bcfb f1bd 40b3 ebbb e4bc d33d 5688 bb3d
00000390: 20c9 bd3c d841 b23d c0c7 a23b 1099 9fbc
000003a0: 68ce c43d 7039 fc3d ac79 84bd c8f1 32bd
000003b0: c870 ddbc 30b3 563d 0817 d1bc 229a b73d
000003c0: ace7 153d d847 88bd 7cfb 94bd bcc7 80bd
000003d0: a092 073d 8024 7dbb fe05 843d f07a ed3c
000003e0: 0a99 94bd ae1d d03d 7082 413c 3ace e1bd
000003f0: 0ee2 953d 54b0 2a3d 7a10 c4bd 8c13 20bd

linear_relu_stack.2.bias f4 [64]
0.09121902 -0.027872026 0.017772749 -0.050552413 0.08772145 0.049010605 0.08900459 0.0146332085
0.098638535 -0.0032359362 0.03102468 0.059018686 0.024033114 0.08431655 -0.061237678 -0.060302064
-0.11597292 0.010092035 0.06815632 -0.008778274 -0.012046933 -0.020144582 -0.019581854 0.046394363
0.014572293 0.09974535 0.08001082 0.10313076 0.08823641 0.056327626 -0.036252797 -0.099494085
-0.0059295 -0.019982636 -0.080365404 -0.0784854 0.0121971965 0.12072496 -0.043006748 0.044412255
0.0644128 -0.03545636 0.11600369 0.0069467276 -0.06061898 -0.0758293 0.03670004 0.008919939
0.042611867 0.01652126 0.06737524 -0.035026044 -0.046977967 -0.110061705 0.08741054 -0.11080754
0.09478955 0.053563476 -0.033679545 0.02485992 -0.11912316 0.019661903 0.060915485 -0.060532093
00000000: 0ad1 ba3d e053 e4bc 2898 913c 0c10 4fbd
00000010: 4ea7 b33d 58bf 483d 0a48 b63d 20c0 6f3c
00000020: 0003 ca3d 0012 54bb 7827 fe3c 94bd 713d
00000030: 18e1 c43c 28ae ac3d 5cd4 7abd 4cff 76bd
00000040: 3683 edbd 1059 253c 8a95 8b3d c0d2 0fbc
00000050: 8060 45bc 4006 a5bc 206a a0bc 0408 3e3d
00000060: a0c0 6e3c 4a47 cc3d b6dc a33d 3836 d33d
00000070: 4ab5 b43d ccb7 663d d07d 14bd 8ec3 cbbd
00000080: 404c c2bb a0b2 a3bc 9e96 a4bd f4bc a0bd
00000090: c0d6 473c a63e f73d d827 30bd a0e9 353d
000000a0: dcea 833d b03a 11bd 5893 ed3d 60a1 e33b
000000b0: 9c4b 78bd 644c 9bbd c852 163d f024 123c
000000c0: c889 2e3d 9857 873c 08fc 893d 7877 0fbd
000000d0: f86b 40bd 0868 e1bd 4c04 b33d 10ef e2bd
000000e0: 0621 c23d 6065 5b3d 90f3 09bd 08a7 cb3c
000000f0: d8f6 f3bd 0012 a13c 8482 793d 80f0 77bd

linear_relu_stack.4.weight f4 [1, 64]
-0.056579188 0.013030499 -0.11575532 -0.056721702 -0.034792006 0.112789854 0.08052021 0.05284451
0.12435281 -0.05613774 -0.095255315 -0.020817712 -0.091692775 0.07401852 0.055356592 0.033866853
0.08504814 0.015881985 -0.07366991 0.024909973 0.033444285 0.088448465 -0.04382932 -0.11766261
0.022414565 -0.05124457 -0.10762802 -0.033632427 0.015237957 0.016203552 -0.09152725 -0.086834446
0.0919531 0.05084154 -0.11349341 0.01983574 -0.04779677 0.027718544 0.009006992 0.086565614
0.015157461 0.07751143 -0.054716438 0.0068662614 -0.119939774 -0.05720696 -0.11566445 -0.0822608
-0.08539234 0.11308202 -0.072935075 -0.068139195 0.07291953 -0.08398004 0.022461116 0.10579912
-0.023438051 -0.07454966 -0.0050641745 -0.10322575 -0.10543637 0.10326719 -0.11337452 0.036725014
00000000: 94bf 67bd e07d 553c 2011 edbd 0455 68bd
00000010: 1082 0ebd 5efe e63d c8e7 a43d 7c73 583d
00000020: b0ac fe3d b0f0 65bd 3815 c3bd e889 aabc
00000030: 6cc9 bbbd 0697 973d 98bd 623d f8b7 0a3d
00000040: b82d ae3d f01a 823c 40e0 96bd 0010 cc3c
00000050: e0fc 083d 7824 b53d 6086 33bd 18f9 f0bd
00000060: c09e b73c d4e5 51bd 146c dcbd 28c2 09bd
00000070: a0a8 793c 50bd 843c a472 bbbd 42d6 b1bd
00000080: e851 bc3d 383f 503d 3c6f e8bd 907e a23c
00000090: 8cc6 43bd 0012 e33c 1092 133c 5049 b13d
000000a0: 0057 783c 50be 9e3d 581e 60bd 60fe e03b
000000b0: fca2 f5bd d851 6abd 7ce1 ecbd 5a78 a8bd
000000c0: 2ee2 aebd 8c97 e73d fc5e 95bd 908c 8bbd
000000d0: d656 953d bafd abbd 6000 b83c 36ad d83d
000000e0: 2801 c0bc 7ead 98bd 60f1 a5bb 0668 d3bd
000000f0: 06ef d7bd c07d d33d e630 e8bd f86c 163d

cnns.0.weight f4 [32, 2, 3, 3]
0.1381698 0.016944569 -0.22537223 -0.1270245 0.18757537 0.09819943 -0.28755862 -0.15214795
-0.17102098 -0.17391182 0.091915786 -0.19220826 -0.10332017 0.25823382 -0.22306804 0.28786924
0.1836976 -0.115793765 0.17316233 0.15253098 -0.026601622 0.09457147 0.023088753 0.23795024
0.24676886 0.118430234 -0.2579758 -0.02083595 0.115360096 0.17790534 0.358927 -0.20349914
0.012975207 0.09445703 -0.15865749 -0.2765509 -0.22834454 -0.17622413 -0.23255001 0.09923425
-0.07539851 -0.25550798 0.09366663 -0.035757642 -0.11997148 0.027443117 -0.033122145 0.11622877
-0.0035044095 -0.08220173 0.24343506 0.08413204 -0.14635889 -0.17102538 -0.004733588 0.03198266
0.21203703 -0.14100415 0.034329273 -0.102409296 -0.21073577 -0.26350045 0.03304451 -0.034629844
-0.0061394 -0.1959305 0.16503249 0.20524448 -0.20919307 -0.09611955 0.07446807 0.050886143
-0.0144886905 -0.033729043 0.13105944 0.116747096 -0.115827575 -0.11356375 0.02693988 0.15602647
-0.21875747 0.09720255 -0.1342106 -0.076675504 -0.21894576 -0.06628937 0.0020459828 0.10124489
0.16094375 0.13411556 0.13064332 -0.10661052 -0.124117024 0.17403242 0.12306867 0.002970919
0.09489471 0.1461741 -0.16823913 0.14034459 -0.24840428 -0.118207596 0.11943049 -0.07463445
-0.16434564 -0.02161529 0.11678226 -0.11325709 0.10230485 -0.043939766 -0.056098536 0.20955084
-0.069680266 -0.075816534 -0.23173954 0.051839963 0.02655552 0.19051516 -0.096163176 0.13420345
-0.119238965 -0.06711601 0.11324723 0.10811423 0.10261403 -0.15082896 0.09608673 0.14234515
-0.041570876 0.19097082 -0.13487002 -0.009226201 0.13103452 -0.25978607 -0.1602854 0.17572582
0.070161544 0.05808411 0.027141947 -0.31755915 0.19502355 0.20685983 -0.17084943 0.124200806
0.17541048 0.22026387 0.09322601 -0.19416822 -0.27038035 -0.09032826 0.017731806 0.044350922
-0.1676391 0.19056346 0.17139164 -0.041781995 0.3186308 0.31454465 -0.16695282 0.015269596
-0.16723993 0.055875886 -0.06060104 -0.18200293 0.17468709 -0.09790572 -0.09636344 0.13831998
0.1449096 -0.074227184 0.2781225 0.26925743 -0.09984775 0.31384364 -0.123807125 -0.23302574
-0.107864134 0.19793214 0.23896559 0.0020102921 0.0104413275 0.045595378 0.1666988 -0.026679955
-0.1457072 -0.16321614 -0.092679426 0.18175995 0.22947454 0.30824497 0.07726702 0.09068091
0.11365622 0.36916095 0.04535899 -0.09001392 -0.100251324 -0.117450595 0.097698435 0.072663866
-0.07454912 0.092013754 -0.04220753 -0.16327876 0.2740351 0.05545098 0.10975216 0.07569533
-0.21330866 0.27869633 0.2512379 0.14141224 -0.14800817 0.07231798 -0.13285317 0.06069015
-0.27723792 0.14282088 0.17485127 0.087888435 -0.090836786 0.20181496 0.12444517 -0.10745259
0.08591492 -0.07840727 -0.21020323 -0.15310249 -0.08387797 0.1930268 0.026544867 -0.02031452
0.14243032 -0.17770408 0.13707855 0.1949937 -0.080541395 -0.15175031 0.012279244 -0.197788
-0.13114694 0.010581445 0.18726903 0.31595954 0.238994 -0.03351713 0.27499825 -0.014687824
-0.17642298 0.17120118 0.12821807 -0.0095383115 -0.2148752 -0.17299616 -0.24473394 -0.092481434
00000000: 627c 0d3e 56cf 8a3c fac7 66be b612 02be
00000010: c213 403e c81c c93d e23a 93be accc 1bbe
00000020: 2020 2fbe f115 32be 583e bc3d 3ed2 44be
00000030: 8699 d3bd 3937 843e f36b 64be 9963 933e
00000040: 391b 3c3e 4825 edbd 7751 313e 1531 1c3e
00000050: a5eb d9bc b0ae c13d a024 bd3c 3aa9 733e
00000060: fab0 7c3e 8d8b f23d 6715 84be 27b0 aabc
00000070: ea41 ec3d d12c 363e 48c5 b73e 1462 50be
00000080: f695 543c b072 c13d 1c77 22be 1498 8dbe
00000090: 27d3 69be 1974 34be 9721 6ebe 543b cb3d
000000a0: 896a 9abd f1d1 82be 4ad4 bf3d 9b76 12bd
000000b0: 9bb3 f5bd 63d0 e03c 16ab 07bd 5909 ee3d
000000c0: 3caa 65bb 6159 a8bd 0a47 793e 6b4d ac3d
000000d0: 1bdf 15be 4721 2fbe 371c 9bbb 4000 033d
000000e0: 3c20 593e 6463 10be da9c 0c3d f7bb d1bd
000000f0: 1ecb 57be 88e9 86be ae59 073d 06d8 0dbd
00000100: 052d c9bb 01a2 48be 47fe 283e 9c2b 523e
00000110: b536 56be 54da c4bd b782 983d fd6d 503d
00000120: f961 6dbc 7727 0abd 7234 063e 1a19 ef3d
00000130: 0237 edbd 1d94 e8bd 06b1 dc3c 67c5 1f3e
00000140: f501 60be 2112 c73d 816e 09be 0c08 9dbd
00000150: 5133 60be b9c2 87bd e515 063b 7b59 cf3d
00000160: 70ce 243e 9755 093e 5dc7 053e 9e56 dabd
00000170: 1131 febd 8e35 323e 6d0b fc3d c0b3 423b
00000180: 2858 c23d aaae 153e e146 2cbe 7eb6 0f3e
00000190: b15d 7ebe d316 f2bd f997 f43d f2d9 98bd
000001a0: 394a 28be 8c12 b1bc 8a2b ef3d 55f3 e7bd
000001b0: 3585 d13d 2ffa 33bd 94c7 65bd 7f94 563e
000001c0: 87b4 8ebd b345 9bbd 214d 6dbe 2456 543d
000001d0: f68a d93c 6816 433e 33f1 c4bd a16c 093e
000001e0: 8f33 f4bd 1e74 89bd 2aee e73d fe6a dd3d
000001f0: 4e27 d23d e872 1abe 1fc9 c43d edc2 113e
00000200: 3946 2abd db8d 433e 5e1b 0abe 7e29 17bc
00000210: ea2d 063e ae02 85be db21 24be 78f1 333e
00000220: dbb0 8f3d 9be9 6d3d ca58 de3c 1d97 a2be
00000230: 41b4 473e 10d3 533e 27f3 2ebe fe5c fe3d
00000240: ce9e 333e da8c 613e 47ed be3d 09d4 46be
00000250: 4b6f 8abe 06fe b8bd 4b42 913c 50a9 353d
00000260: 96a9 2bbe 1123 433e 4a81 2f3e 9923 2bbd
00000270: 9423 a33e ff0b a13e aef5 2abe 542d 7a3c
00000280: f240 2bbe 1dde 643d cc38 78bd fa5e 3abe
00000290: 2ce1 323e cb82 c8bd 325a c5bd c1a3 0d3e
000002a0: 2f63 143e 6c04 98bd 1366 8e3e 1cdc 893e
000002b0: fa7c ccbd 1db0 a03e 978e fdbd 4d9e 6ebe
000002c0: dfe7 dcbd b9ae 4a3e 65b3 743e 1bbf 033b
000002d0: 1a12 2b3c 38c2 3a3d 17b3 2a3e ec8f dabc
000002e0: 4534 15be 2222 27be b6ce bdbd 481f 3a3e
000002f0: 60fb 6a3e 49d2 9d3e 2c3e 9e3d eab6 b93d
00000300: 98c4 e83d aa02 bd3e 59ca 393d 3859 b8bd
00000310: 9150 cdbd f089 f0bd 1e16 c83d cbd0 943d
00000320: 36ad 98bd b571 bc3d cee1 2cbd 8c32 27be
00000330: 544e 8c3e 9120 633d bec5 e03d 2706 9b3d
00000340: 966d 5abe 49b1 8e3e 41a2 803e 5fce 103e
00000350: 748f 17be 731b 943d a90a 08be 3c96 783d
00000360: 21f2 8dbe a33f 123e 360c 333e dafe b33d
00000370: a308 babd 95a8 4e3e 1cdd fe3d 1a10 dcbd
00000380: 29f4 af3d fe93 a0bd 843f 57be e6c6 1cbe
00000390: 37c8 abbd d1a8 453e 9f74 d93c a36a a6bc
000003a0: 41d9 113e 0ff8 35be 525e 0c3e 6eac 473e
000003b0: e3f2 a4bd 6f64 1bbe e22e 493c f088 4abe
000003c0: 624b 06be cc5d 2d3c 74c3 3f3e 73c5 a13e
000003d0: d8ba 743e 4249 09bd 92cc 8c3e 33a5 70bc
000003e0: 3aa8 34be 5d4f 2f3e 994b 033e 9446 1cbc
000003f0: 3f08 5cbe e825 31be 899b 7abe e866 bdbd

cnns.0.bias f4 [32]
0.13644624 -0.02490301 0.1767476 0.13516033 -0.042141326 -0.015019024 -0.07977747 0.10914986
-0.105791256 -0.1611188 -0.03796463 -0.0694962 -0.16842975 -0.057878286 0.18255188 -0.14000805
0.05995516 -0.021345092 -0.0001630254 -0.0009517925 0.023000674 -0.047403816 -0.089774035 -0.122238375
-0.21622819 -0.04515761 0.14778991 -0.03628833 0.03706569 -0.12024304 -0.017930573 0.0012671833
00000000: 90b8 0b3e 6601 ccbc 53fd 343e 7867 0a3e
00000010: 629c 2cbd 5a12 76bc 5f62 a3bd f689 df3d
00000020: 16a9 d8bd 54fc 24be cd80 1bbd 0654 8ebd
00000030: d978 2cbe c811 6dbd e1ee 3a3e 455e 0fbe
00000040: 8b93 753d e7db aebc ccf1 2ab9 b781 79ba
00000050: e96b bc3c 812a 42bd 73db b7bd 1d58 fabd
00000060: ec6a 5dbe 30f7 38bd 3d56 173e 12a3 14bd
00000070: 31d2 173d fc41 f6bd 23e3 92bc 9e17 a63a

cnns.2.weight f4 [64, 32, 3, 3]
-0.0398011 -0.0240944 -0.03751963 -0.022100203 0.021855587 -0.032994334 -0.043829095 0.042548705
-0.050356 -0.0031552552 -0.031625558 -0.03926057 -0.016851533 -0.045245208 0.015156333 0.0013064077
-0.06603735 0.0046178345 0.026057212 -0.012933833 -0.012094013 0.02936011 -0.02664247 0.03409097
-0.042320665 -0.007276926 -0.02514464 0.043155048 -0.027118389 -0.044049215 -0.003546967 0.029919133
-0.053791855 0.023370976 -0.04949858 -0.0019783056 -0.05786899 -0.011650832 -0.039006695 0.03008203
-0.017417999 0.045646697 0.003421531 -0.049730644 -0.007510023 -0.025494345 -0.06063978 0.0021112747
0.019307561 0.0068646614 0.03973205 -0.050342273 0.038136814 0.029950157 -0.054188583 -0.012925123
0.02025746 0.035701536 -0.068042465 -0.042496476 0.021750288 0.0074032927 -0.0052919243 0.014558186
-0.0658349 -0.0030822058 -0.05886111 -0.068925686 -0.04096382 0.005460931 0.024521518 0.0047946875
0.027066592 0.037829246 -0.0344465 -0.034955762 0.03629978 0.009052899 -0.044804096 0.038047723
-0.029830506 -0.004699569 -0.035527907 -0.013020173 0.02158885 0.018358748 0.029391665 -0.029314145
-0.026019165 0.032400437 0.051738728 0.028438095 -0.0060757976 0.011804903 0.0053301957 0.03122307
0.06324885 -0.005866723 -0.009035789 -0.016351089 0.005073633 0.012497147 0.047419693 -0.050533436
-0.03716198 0.050996218 -0.057111677 -0.03437777 0.058358874 0.017604008 -0.013641375 0.011214238
-0.05192543 0.0056492863 0.014131416 0.012567543 -0.013501476 -0.04455348 -0.022952128 0.0043796953
-0.013790451 -0.014171821 -0.048583273 0.005194317 -0.025807396 0.019055521 0.0020305775 0.022192309
-6.486046e-05 0.040891126 -0.06699242 -0.0078178095 0.006039842 -0.0330152 0.008022224 -0.058397844
-0.006597275 0.022314752 -7.38628e-05 -0.04315889 0.03189886 -0.017147597 -0.04815179 -0.06375882
-0.0039661136 0.02510631 -0.010515278 0.047075346 0.011822165 0.047751717 -0.05183706 0.004155221
-0.061120886 -0.0055650314 0.021194296 0.039516542 -0.035790306 0.03786339 -0.05487338 -0.0662336
-0.06488204 0.04777964 0.049771074 -0.004910721 0.014126293 0.00044314854 -0.025544902 -0.0014629439
0.014059266 0.03857585 -0.045372102 -0.04939467 0.018760748 -0.0501226 0.0017758259 0.035999767
0.021759538 -0.001137051 -0.027535142 -0.0009686963 0.038290925 -0.043624904 0.045602996 0.024515921
0.015515253 0.04574449 0.047897313 -0.00727067 0.031455014 0.006011542 0.058107894 0.04745252
0.022954311 0.033956483 -0.05694184 0.058912095 0.01739595 0.015385669 -0.051605448 -0.010013999
0.042868868 0.041626412 -0.027612656 -0.043024957 0.032623693 0.017465683 0.0050431318 0.0062724142
-0.018078834 0.05332048 0.02798206 -0.018569894 -0.042871747 -0.008458111 0.019862216 0.046697546
-0.052935 -0.055699043 -0.042386897 0.057284076 0.04255179 0.030422684 0.031905923 0.0052307583
0.027443644 0.034584384 -0.034918193 -0.0076227044 -0.02690713 0.031682476 -0.055413324 -0.039809782
-0.045883533 -0.05307899 0.02374538 0.02300872 -0.023147728 0.014381578 0.028615756 0.002157221
-0.009680905 -0.007809666 -0.037394352 -0.06119314 -0.0204833 0.02054816 -0.049219497 0.029906858
-0.055336814 -0.020801615 0.009301293 -0.055648938 -0.03278805 0.007675605 0.026565004 -0.067059405
00000000: 7a06 23bd 9f61 c5bc 2fae 19bd 7c0b b5bc
00000010: 7d0a b33c 1125 07bd 2386 33bd 8d47 2e3d
00000020: 1842 4ebd 66c8 4ebb cd89 01bd b1cf 20bd
00000030: 3a0c 8abc 0a53 39bd 4552 783c c53b ab3a
00000040: 973e 87bd 3451 973b ef75 d53c 6de8 53bc
00000050: f825 46bc 9d84 f03c 4f41 dabc f9a2 0b3d
00000060: 6f58 2dbd 4873 eebb 22fc cdbc 59c3 303d
00000070: 6227 debc f36c 34bd 3b74 68bb f818 f53c
00000080: d954 5cbd 7d74 bf3c 06bf 4abd 76a6 01bb
00000090: 0908 6dbd 22e3 3ebc 7cc5 1fbd 976e f63c
000000a0: 31b0 8ebc 08f8 3a3d c43b 603b 5cb2 4bbd
000000b0: a416 f6bb 84d9 d0bc 6b61 78bd 505d 0a3b
000000c0: e42a 9e3c f4f0 e03b 13be 223d b333 4ebd
000000d0: 5935 1c3d 085a f53c d9f4 5dbd e5c3 53bc
000000e0: f9f2 a53c c63b 123d d959 8bbd c910 2ebd
000000f0: a92d b23c 5297 f23b e167 adbb 7585 6e3c
00000100: 73d4 86bd d5fe 49bb 5918 71bd e928 8dbd
00000110: aec9 27bd 9cf1 b23b 5ae1 c83c c11c 9d3b
00000120: c2ba dd3c d7f2 1a3d c617 0dbd c62d 0fbd
00000130: 14af 143d 9c52 143c 8084 37bd eed7 1b3d
00000140: 1b5f f4bc d8fe 99bb b685 11bd 9052 55bc
00000150: 1adb b03c 1665 963c cac6 f03c 3824 f0bc
00000160: 2526 d5bc 52b6 043d fdeb 533d 02f7 e83c
00000170: 7c17 c7bb 5a69 413c eca8 ae3b 86c7 ff3c
00000180: 9d88 813d a43d c0bb d90a 14bc b8f2 85bc
00000190: b840 a63b d5c0 4c3c 273b 423d 26fc 4ebd
000001a0: 2937 18bd 69e1 503d efed 69bd b4cf 0cbd
000001b0: b709 6f3d 4836 903c 1380 5fbc ecbb 373c
000001c0: c2af 54bd a61d b93b 7487 673c 19e8 4d3c
000001d0: 4b35 5dbc b67d 36bd 1a06 bcbc 8c83 8f3b
000001e0: 58f1 61bc ed30 68bc 41ff 46bd 1735 aa3b
000001f0: 086a d3bc 531a 9c3c 7013 053b a5cc b53c
00000200: b205 88b8 747d 273d 5233 89bd 4516 00bc
00000210: dee9 c53b f23a 07bd a56f 033c 9432 6fbd
00000220: f42d d8bb 6dcd b63c cae6 9ab8 60c7 30bd
00000230: 61a8 023d 1e79 8cbc d03a 45bd fc93 82bd
00000240: 2cf6 81bb c0ab cd3c 4648 2cbc 14d2 403d
00000250: c1b1 413c 4e97 433d 1953 54bd 8528 883b
00000260: e559 7abd de5a b6bb a99f ad3c 19dc 213d
00000270: db98 12bd a416 1b3d e9c2 60bd 7ba5 87bd
00000280: e0e0 84bd 95b4 433d c1dc 4b3d 1dea a0bb
00000290: f871 673c 6456 e839 8b43 d1bc 40c0 bfba
000002a0: d658 663c b601 1e3d 19d8 39bd 1152 4abd
000002b0: 24b0 993c 5b4d 4dbd d4c2 e83a 7e74 133d
000002c0: 0f41 b23c 1a09 95ba 6191 e1bc 1cf0 7dba
000002d0: f2d6 1c3d 07b0 32bd 35ca 3a3d 9dd5 c83c
000002e0: b033 7e3c 935e 3b3d f92f 443d cd3e eebb
000002f0: f9d6 003d 78fc c43b 8b02 6e3d 935d 423d
00000300: ae0a bc3c f415 0b3d d93b 69bd cf4d 713d
00000310: f481 8e3c 2c14 7c3c 3c60 53bd c211 24bc
00000320: 4497 2f3d 7580 2a3d f033 e2bc f03a 30bd
00000330: 6ca0 053d 3114 8f3c db40 a53b d388 cd3b
00000340: 101a 94bc 9366 5a3d a23a e53c e41f 98bc
00000350: 499a 2fbd e493 0abc 16b6 a23c ed45 3f3d
00000360: 5fd2 58bd ae24 64bd e29d 2dbd b5a2 6a3d
00000370: c94a 2e3d fe38 f93c c9af 023d c866 ab3b
00000380: 7ed1 e03c 5ba8 0d3d 6106 0fbd e1c7 f9bb
00000390: 576c dcbc 7cc5 013d 15f9 62bd 950f 23bd
000003a0: 5ff0 3bbd 5b69 59bd ac85 c23c c87c bc3c
000003b0: 4ea0 bdbc b6a0 6b3c 976b ea3c 2a60 0d3b
000003c0: a99c 1ebc 3ae8 ffbb d22a 19bd a8a5 7abd
000003d0: 98cc a7bc 9d54 a83c 629a 49bd 3aff f43c
000003e0: dba8 62bd 2668 aabc 7364 183c 24f0 63bd
000003f0: c34c 06bd a483 fb3b da9e d93c 7156 89bd

cnns.2.bias f4 [64]
-0.06533861 -0.064219125 0.03812451 -0.033922743 -0.008778918 0.054258056 -0.01306301 -0.049368918
-0.020720357 -0.049590822 0.011623733 -0.03892956 0.03711386 -0.04796627 -0.012624888 0.013152916
0.02798897 0.0139897885 0.01931331 -0.029428083 -0.050001908 -0.049339965 0.028336674 -0.05472534
-0.0058462108 -0.04578266 -0.028422281 -0.03297958 -0.047127943 -0.015784735 -0.068548545 0.03954292
-0.0009775445 -0.027836755 -0.014771449 0.016937256 -0.04751427 0.039794195 -0.041682497 0.03374352
-0.03612969 -0.019899037 -0.064744085 -0.017859118 -0.047644407 -0.0020176687 -0.02665945 -0.01768884
-0.046767984 -0.06539225 -0.039606523 -0.05648054 -0.04710419 0.03588121 -0.044660147 -0.04811707
-0.03958509 -0.036744315 -0.010624331 -0.067120425 -0.078581244 -0.020325087 -0.020792658 -0.014987857
00000000: 40d0 85bd 5185 83bd 7228 1c3d 93f2 0abd
00000010: 73d5 0fbc b23d 5e3d 3c06 56bc 1037 4abd
00000020: bdbd a9bc bf1f 4bbd 7871 3e3c 9a74 1fbd
00000030: b404 183d 4878 44bd 9ed8 4ebc 547f 573c
00000040: 2049 e53c 6d35 653c f236 9e3c 2a13 f1bc
00000050: cdce 4cbd b418 4abd 5022 e83c ae27 60bd
00000060: 9291 bfbb 9986 3bbd d8d5 e8bc 9915 07bd
00000070: 3b09 41bd fd4e 81bc 2e63 8cbd c2f7 213d
00000080: f320 80ba e809 e4bc f303 72bc 00c0 8a3c
00000090: 539e 42bd 3dff 223d 44bb 2abd a536 0a3d
000000a0: bafc 13bd 4e03 a3bc 8c98 84bd 494d 92bc
000000b0: c826 43bd dd3a 04bb eb64 dabc 30e8 90bc
000000c0: c98f 3fbd 5fec 85bd 733a 22bd 2458 67bd
000000d0: 53f0 40bd 2df8 123d 8fed 36bd 6816 45bd
000000e0: fa23 22bd 3581 16bd ad11 2ebc 6f76 89bd
000000f0: 34ef a0bd cc80 a6bc 5d55 aabc a18f 75bc

linear.0.weight f4 [16, 3328]
0.011232892 0.012131745 0.0059997104 -0.013888815 0.013333838 -0.0027081026 -0.011732833 0.011064969
5.3035095e-05 -0.009720009 0.010292992 0.005633587 0.008058898 -0.013936853 0.008489916 0.014365913
0.016119918 -0.0060915705 -0.013910868 0.0018757433 -0.013957389 -0.0044913953 -0.0029684296 -0.006011259
0.014368972 -0.0059811287 -0.0016299356 -0.011693131 -0.01429921 0.0025208592 0.012666656 0.014301462
-0.008745041 0.011315385 0.014014514 -0.005274605 -0.013006045 0.0014327727 -0.01663174 -0.010400657
0.0029019155 -0.012954787 0.0017688908 -0.017004741 0.0059971157 0.010889975 0.017054489 0.016733343
0.014619013 -0.007090996 -0.0105450135 -0.0033528628 -0.0069646165 -0.006053119 -0.02326027 0.008844054
0.010575205 -0.022956852 0.00042858606 -0.008259536 0.0072383345 0.008414444 0.0011610534 0.0059039886
-0.010013373 0.011408506 -0.022676624 0.010806186 -0.0020023703 -0.012877917 -0.0065242266 -0.009116457
0.008948108 -0.0025784774 0.00786844 -4.918467e-05 -0.016175078 -0.022904273 -0.010326309 -0.0128844995
-0.016840247 0.0064716497 0.008636564 0.0022274745 -0.0013452957 -0.021806804 -0.00839451 0.00854285
-0.017827986 -0.02189848 0.010816546 -0.0153649 -0.011157478 -0.015861427 0.0041480092 -0.0056762653
0.006022872 -0.018657845 -0.020828065 0.0062554968 0.0055398615 -0.0051115043 -0.019789502 0.007870449
-0.012020642 -0.010910252 0.0006983317 -0.011490178 0.010884987 -0.020559682 -0.023293752 0.002805717
-0.01318359 -0.008861522 0.011133494 -0.015171544 -0.01626853 -0.0012240435 0.0040192404 0.010686862
0.0057038814 0.01029342 -0.016444873 -0.013448685 -0.017689344 0.010481595 0.006306627 -0.0038180696
-0.017595282 -0.008105911 -0.013911344 0.007712167 0.0034962674 0.007216474 0.00811255 -0.011465707
-0.01354247 -0.0056782723 0.004771854 -0.0058481544 -0.0068798373 -0.007942098 -0.0008803848 -0.018827405
0.008155922 0.0076682847 0.006181337 -0.011933921 0.010825618 -0.016890882 0.00056561886 0.0070784925
0.015990796 0.008390538 -0.023044782 0.005162401 0.0014396531 -0.010499902 -0.002680596 0.0017514321
-0.017811447 -0.016802805 0.0043168715 0.0068747574 -0.015188387 0.017030077 -0.0053132204 -0.014514312
-0.0016014073 -0.0023496468 0.015427789 -0.01190238 0.0016907005 -0.014587391 -0.008357006 -0.021852724
0.011490358 0.014190031 0.006021444 0.010951232 -0.014196065 0.014888724 -0.009232319 -0.01783506
0.0069415057 -0.0040966445 -0.0035182454 0.002475129 -0.00031462547 0.004700437 -0.0022478467 0.0043021156
-0.016505856 -0.016923536 -0.0014203973 -0.005450966 -0.0099299215 -0.0141934985 -0.00952729 -0.012901226
-0.014469871 -0.007880185 -0.0009276755 0.008019455 -0.009271569 -0.0076287626 -0.0024073226 0.0036443826
-0.006191438 -0.0057641296 0.007830452 0.006686721 -0.01410229 -0.006062247 -0.016178466 -0.021007909
-0.0029459666 0.007186731 -0.0020571866 0.006710943 -0.021971356 -0.0044528237 -0.011638172 -0.0144157875
0.007104302 0.0067392476 -0.017619176 0.00015116483 -0.007735463 -0.023011763 -0.005068304 0.0077430983
-0.015732791 0.009971213 -0.0075585004 -0.012800943 -0.0110088885 -0.008349336 0.003008455 -0.014057505
-0.006474985 -0.0005034879 0.010002717 -0.012003494 -0.0032922456 -0.0043734848 -0.010607908 0.0045818714
0.016851647 0.0026888996 0.008618187 0.008098807 0.015478278 0.0026967302 -0.0020848252 0.014041061
00000000: 2a0a 383c 3ac4 463c 3899 c43b ea8d 63bc
00000010: 2c76 5a3c 6c7a 31bb 123b 40bc d849 353c
00000020: 0072 5e38 ac40 1fbc f0a3 283c f499 b83b
00000030: 7809 043c 6657 64bc 4a19 0b3c 025f 6b3c
00000040: eb0d 843c cc9b c7bb 69ea 63bc 80db f53a
00000050: 88ad 64bc 8e2c 93bb fc89 42bb 18fa c4bb
00000060: d66b 6b3c 58fd c3bb 90a3 d5ba 8c94 3fbc
00000070: 3c47 6abc 0035 253b ce87 4f3c ae50 6a3c
00000080: 5c47 0fbc 2a64 393c 229d 653c 98d6 acbb
00000090: 4e17 55bc e0cb bb3a 493f 88bc 8467 2abc
000000a0: 102e 3e3b 5140 54bc 20da e73a 874d 8bbc
000000b0: 7483 c43b de6b 323c dbb5 8b3c 5d14 893c
000000c0: 9684 6f3c 965b e8bb fec4 2cbc b4bb 5bbb
000000d0: 7037 e4bb 3e59 c6bb 528c bebc a7e6 103c
000000e0: a043 2d3c 0210 bcbc d9b3 e039 0153 07bc
000000f0: 8d2f ed3b bcdc 093c 7d2e 983a 3f76 c13b
00000100: 210f 24bc beea 3a3c 54c4 b9bc 6e0c 313c
00000110: 333a 03bb e6fd 52bc 2ec9 d5bb 315d 15bc
00000120: 169b 123c acfb 28bb a1ea 003c a34b 4eb8
00000130: 9981 84bc bea1 bbbc ae2f 29bc 8219 53bc
00000140: 8ff4 89bc 2210 d43b 6080 0d3c d2fa 113b
00000150: a254 b0ba 2fa4 b2bc 2089 09bc 4ff7 0b3c
00000160: ff0b 92bc 7164 b3bc e237 313c 10bd 7bbc
00000170: dbcd 36bc d3ef 81bc 06ec 873b f7ff b9bb
00000180: 835b c53b 56d8 98bc 9e9f aabc e9fa cc3b
00000190: ba87 b53b 687e a7bb 981d a2bc 0ef3 003c
000001a0: 3af2 44bc eac0 32bc 3f10 373a 4d41 3cbc
000001b0: f256 323c c76c a8bc 8ad2 bebc 1fe0 373b
000001c0: fcff 57bc eb2f 11bc 4269 363c 1192 78bc
000001d0: 9545 85bc 1670 a0ba d5b3 833b f317 2f3c
000001e0: a0e7 ba3b bca5 283c 66b7 86bc e057 5cbc
000001f0: 3ee9 90bc ffba 2b3c d2a7 ce3b 9438 7abb
00000200: fb23 90bc a8ce 04bc 68ec 63bc 59b6 fc3b
00000210: a221 653b 2c78 ec3b 80ea 043c a9da 3bbc
00000220: 3ce1 5dbc cd10 babb 365d 9c3b e0a1 bfbb
00000230: 4270 e1bb 931f 02bc a0c9 66ba ee3b 9abc
00000240: 6ba0 053c 3c46 fb3b d08c ca3b 7e86 43bc
00000250: ef5d 313c bf5e 8abc 0a46 143a b3f2 e73b
00000260: 21ff 823c 7878 093c 69c8 bcbc 5c29 a93b
00000270: beb2 bc3a c807 2cbc f0ac 2fbb 4f90 e53a
00000280: 50e9 91bc 09a6 89bc 8b74 8d3b a545 e13b
00000290: b6d8 78bc a982 8b3c 861a aebb 70cd 6dbc
000002a0: 50e6 d1ba 88fc 19bb d6c4 7c3c 3302 43bc
000002b0: 7f9a dd3a f4ff 6ebc d3eb 08bc 7c04 b3bc
000002c0: 0e42 3c3c 4e7d 683c 894f c53b cc6c 333c
000002d0: 9d96 68bc d6ef 733c 2743 17bc d51a 92bc
000002e0: 9275 e33b 253d 86bb 5d92 66bb c635 223b
000002f0: 51f4 a4b9 2006 9a3b 9c50 13bb c3f8 8c3b
00000300: 4a37 87bc 3aa3 8abc a02c baba 049e b2bb
00000310: 1cb1 22bc d98b 68bc 5a18 1cbc aa5f 53bc
00000320: 0a13 6dbc e41b 01bc 402f 73ba 0864 033c
00000330: c7e7 17bc b3fa f9bb 2cc4 1dbb 98d6 6e3b
00000340: 8ce1 cabb 06e1 bcbb 4c4b 003c 481c db3b
00000350: 4b0d 67bc d0a5 c6bb b488 84bc c718 acbc
00000360: 1e11 41bb ab7e eb3b ddd1 06bb 78e7 db3b
00000370: 46fd b3bc fee8 91bb 08ae 3ebc 3230 6cbc
00000380: 34cb e83b e8d4 dc3b 1756 90bc 0082 1e39
00000390: c479 fdbb 2a83 bcbc 0414 a6bb d1b9 fd3b
000003a0: 0ee2 80bc 4c5e 233c 4cad f7bb 0cbb 51bc
000003b0: a05e 34bc a7cb 08bc 8029 453b 7351 66bc
000003c0: 1c2c d4bb 80fc 03ba 70e2 233c 4eaa 44bc
000003d0: b7c2 57bb 734f 8fbb cacc 2dbc 8623 963b
000003e0: 770c 8a3c 4038 303b 4c33 0d3c dcb0 043c
000003f0: 9a98 7d3c a0bb 303b 90a1 08bb 7a0c 663c

linear.0.bias f4 [16]
-0.00092711434 0.008525489 -0.014240887 -0.022708176 0.0085434215 -0.0008929269 -0.009891327 -0.007290432
0.005403172 -0.011509966 -0.021435767 0.008484259 -0.020992953 -0.01146557 -0.010356225 -0.017847423
00000000: 9709 73ba 7eae 0b3c 9c52 69bc 7f06 babc
00000010: b5f9 0b3c 4f13 6aba 3b0f 22bc 94e4 eebb
00000020: 180d b13b 4c94 3cbc 109a afbc 9001 0b3c
00000030: 6af9 abbc 16da 3bbc 28ad 29bc c234 92bc

linear.2.weight f4 [1, 16]
-0.20072974 -0.04802008 0.07372264 -0.11141925 0.20846885 0.15128683 -0.0779735 0.027712774
0.1043048 -0.021396926 -0.07606401 -0.23697516 -0.18423411 0.020083694 -0.1566981 -0.12888373
00000000: 198c 4dbe b4b0 44bd e5fb 963d c72f e4bd
00000010: dc78 553e efea 1a3e 92b0 9fbd e605 e33c
00000020: c19d d53d 9b48 afbc 73c7 9bbd 9ea9 72be
00000030: dea7 3cbe 8f86 a43c 7775 20be 19fa 03be
