models/trainingmodels/start_backup.pth (torch, 337595 bytes, 12 tensors)

linear_relu_stack.0.weight f4 [64, 104]
000000 d1 37 ba bd a1 a0 b2 3d 9a c0 40 3d 71 0a 85 bd
       -0.090926774 0.08722044 0.04705868 -0.06496132
000010 19 d9 93 3d a0 c7 a8 bd c7 ca 80 3d 54 01 ed bc
       0.072191425 -0.082412004 0.06288677 -0.028931297
000020 08 a7 81 bc fe cc 4a bd 1d 54 bf bd a3 dd 6c bd
       -0.015826717 -0.049511902 -0.09342215 -0.057828557
000030 f0 bd 1d 3c b1 1a 81 3d 85 b2 88 3d 18 48 3c bc
       0.009627804 0.06303919 0.06674675 -0.011491798
000040 5c a9 a5 bd d2 91 3a 3d 7a d6 30 3d 80 82 b8 bb
       -0.08088943 0.04554922 0.04317329 -0.005630791
000050 b2 5e 12 3d d8 91 5a bc 6c bf f2 bc b5 75 84 3d
       0.03573484 -0.013340436 -0.029632293 0.06467763
000060 ab f3 b5 3d ca 3d 9b bd 40 3d fe bb 24 5d a4 bc
       0.088843666 -0.07580145 -0.0077587664 -0.020063944
000070 79 91 a3 3d 49 b1 b4 3d 4b bd be 3d e6 89 24 3d
       0.07986731 0.08822877 0.093134485 0.040170573
000080 f2 ca 41 bd 80 b0 34 3b 0b 26 ac 3d fe 8b b1 bd
       -0.047312684 0.0027571023 0.084056936 -0.086692795
000090 cb 9f 44 bd 77 8d ac 3d 0a 67 02 3d 72 40 bb bd
       -0.048003953 0.0842542 0.031836547 -0.09143151
0000a0 56 6a 19 3d 3e 50 11 bd 58 40 49 bc c8 3e 60 3c
       0.037454925 -0.035476916 -0.012283407 0.013686843
0000b0 4b d4 82 3d 06 50 14 bd e0 30 ae bd 10 32 75 bc
       0.06388148 -0.03620913 -0.08505416 -0.014965549
0000c0 2d 98 be bd dd ae 4f bd b5 da b5 3d bc 03 fd 3c
       -0.09306369 -0.050703872 0.08879606 0.03088557
0000d0 16 33 79 3d 7d 23 82 3d 3f 45 6f bd 90 94 63 bc
       0.060839735 0.06354425 -0.058415648 -0.0138904005
0000e0 34 c8 08 bd 28 72 93 bc dd 8c a1 3d f5 e3 49 bd
       -0.033394054 -0.01799877 0.07888196 -0.049289662
0000f0 88 46 e8 bc 4c 0a 84 bd d0 98 a2 3c 14 67 ad 3c
       -0.028353944 -0.064472765 0.019848257 0.021167316
000100 81 0b b9 bd b4 a2 c1 bc ea 3d 88 bd 60 ce c2 3b
       -0.09035397 -0.023637153 -0.06652434 0.005945012
000110 b0 e4 be 3b c9 58 31 bd 02 69 9f bd 9e 7e 17 3d
       0.0058256015 -0.043297563 -0.077837005 0.036985986
000120 24 2f 8f 3c 34 62 c5 bc e9 5f be 3d 93 a5 59 bd
       0.017478533 -0.024094678 0.09295637 -0.05313642
000130 5b 6f 9d 3d 10 2d 83 3c 80 e3 df bb c0 7d d6 3c
       0.07687255 0.016012698 -0.00683254 0.02618301
000140 9a 86 40 3d c9 2c 5f bd 20 01 4f bc af b0 ab 3d
       0.047003366 -0.05448607 -0.012634546 0.08383309
000150 ed b0 c6 bd 5c f3 16 bd 65 c4 b1 3d a0 e1 a3 3c
       -0.09701715 -0.03685318 0.086800374 0.020005047
000160 4f 25 34 bd 30 bb 8e bc a8 10 25 bc 1a 54 6f bd
       -0.043980893 -0.017423242 -0.010074772 -0.058429815
000170 38 2a cc bc 96 2c 17 3d 68 72 80 3c e9 33 6c bd
       -0.024922475 0.036907755 0.015679553 -0.057666693
000180 8f 78 b6 3d 00 94 c8 39 35 22 b2 3d 69 d4 4b bd
       0.089097135 0.0003825724 0.08697931 -0.049763117
000190 f2 a5 a0 bd 20 fa 69 3c a0 b2 95 bd ba 15 a2 bd
       -0.078441516 0.014280826 -0.07309461 -0.079143
0001a0 90 97 0a bc fa 41 03 bd c3 95 97 bd ec 0d 02 bd
       -0.008458987 -0.032045342 -0.07401612 -0.03175156
0001b0 d6 49 6f 3d 55 3e 8b 3d 81 8f 3b bd 2c c3 0c bd
       0.058420025 0.06798998 -0.045791153 -0.034365818
0001c0 c0 43 15 bc 34 0d 29 bd e2 e4 49 3d 48 2a b6 3c
       -0.009110391 -0.041272357 0.049290545 0.022236958
0001d0 f0 cf df 3b ca f6 70 3d be ef 4b 3d 1e e9 56 3d
       0.006830208 0.058829106 0.049789183 0.05246841
0001e0 d3 89 6c bd 67 d8 a5 bd 06 39 0d 3d 80 27 42 bd
       -0.057748627 -0.08097916 0.03447821 -0.04740095
0001f0 e5 90 5b bd bb 05 1b bd 00 6d 8a bb 94 ad 03 bd
       -0.05360498 -0.037847262 -0.0042244196 -0.03214796
000200 06 46 59 3d 46 89 82 bd 7f cf c4 3d 40 99 d3 ba
       0.053045295 -0.06373839 0.09609889 -0.0016143695
000210 1c 97 e0 3c d0 38 80 bb 66 ab 20 bd ee 0f 7a 3d
       0.027415805 -0.0039130226 -0.03922596 0.061050348
000220 1c 8d dd bc 4e d5 42 3d d7 f6 c1 3d 21 75 c8 3d
       -0.027044825 0.047566704 0.09470909 0.097879656
000230 c8 26 3e bc f3 8c bc bd c4 b5 fb 3c 7c c8 df 3c
       -0.011605926 -0.092065714 0.030726321 0.027317278
000240 7d bf 27 bd 1f be 91 bd 72 18 7c 3d f8 6b 80 bd
       -0.0409541 -0.07116341 0.06154675 -0.062705934
000250 92 ba 25 3d 00 14 47 bc 68 76 ce bc 22 1f 62 bd
       0.04046113 -0.012150764 -0.025202945 -0.05520547
000260 e2 03 9c bd f2 96 22 3d c7 92 c6 bd 16 e5 04 3d
       -0.07617928 0.039694734 -0.09695964 0.032445036
000270 8f 07 b4 3d 7e bf 4e bd fd 00 83 3d 80 a2 05 3a
       0.08790504 -0.05047559 0.06396673 0.0005097762
000280 2c 30 d4 3c 48 58 b2 3c 52 e8 49 bd fc 54 9a bd
       0.025901876 0.021770611 -0.049293824 -0.07535741
000290 c0 4b 83 bc f8 f5 43 bc 80 a6 a1 3a a5 a4 b2 bd
       -0.016027331 -0.011960499 0.0012332946 -0.0872281
0002a0 38 00 cd bc cc d1 80 bd 0d 9c 84 3d de 4a 0b bd
       -0.025024518 -0.062900156 0.06475077 -0.034006946
0002b0 6e 57 02 bd e3 50 af 3d 2a a5 1c 3d e4 44 0d bd
       -0.03182166 0.0856035 0.03824345 -0.034489527
0002c0 53 ac c0 3d 11 5e 98 bd 4d 8e 31 bd 20 61 e2 bc
       0.09407868 -0.07439817 -0.0433486 -0.027634203
0002d0 80 b4 09 3a c0 54 bc bd 1c de fb 3c a4 92 d1 bc
       0.0005253032 -0.09195852 0.030745558 -0.025582619
0002e0 ea 99 10 bd 98 a0 f0 bc 57 0f a1 bd 1f a2 9e 3d
       -0.035303034 -0.029373452 -0.07864254 0.07745766
0002f0 a0 9f 3d 3b 7a bf 59 3d 29 51 87 3d c6 3e 6a 3d
       0.0028934255 0.053161122 0.06607277 0.05718877
000300 2a e5 41 3d 11 d6 b2 3d a0 26 c9 bc 3c 3d bf bc
       0.04733769 0.08732236 -0.02455455 -0.023344629
000310 9c 32 1a bd 65 f9 3d bd 00 dd 9a bb c8 57 74 bc
       -0.03764592 -0.04638042 -0.0047260523 -0.014913507
000320 28 f8 2f bd 6c c9 af bd e1 05 72 bd fe 68 76 3d
       -0.04296127 -0.0858334 -0.059087638 0.060158722
000330 20 73 c6 bd da 02 02 3d ea d1 0e 3d 01 1b c0 3d
       -0.09689927 0.031741 0.03486816 0.093801506
000340 4d de b9 3d c0 06 5d bc 6a 78 50 3d 43 b1 97 3d
       0.09075604 -0.013490379 0.050896086 0.07406857
000350 14 84 86 bc 52 2f 77 3d 4b ec 83 3d 2a 8f 03 3d
       -0.016420402 0.060347863 0.06441554 0.032118954
000360 89 00 8c 3d 38 ac b4 bc ca 59 24 3d 9a c7 0d bd
       0.068360396 -0.022054777 0.040124692 -0.034614183
000370 42 d4 63 3d db 9e 81 3d 6f c0 b1 3d 26 eb 27 3d
       0.055622347 0.063291274 0.08679282 0.04099574
000380 0d f3 b8 bd 76 91 0e bd 24 39 ea 3c f5 be b2 3d
       -0.09030733 -0.03480669 0.0285917 0.087278284
000390 e6 74 76 3d 18 34 a3 3c 14 61 ea 3c 56 b8 66 3d
       0.060170077 0.019922301 0.028610744 0.05632814
0003a0 e5 7a 8e 3d ea f4 50 3d 4b a7 c0 bd ce af 0a 3d
       0.06957034 0.05101482 -0.094069086 0.033859067
0003b0 91 6b 9c 3d 00 be 25 39 00 e9 d0 bc e4 9b 99 3c
       0.07637704 0.00015806407 -0.025501728 0.018751092
0003c0 02 d5 05 3d c0 43 c0 ba 93 3f ad 3d ab 0f bd 3d
       0.032673843 -0.0014668629 0.084593914 0.09231504
0003d0 e3 ec c0 bd 00 6e 2f b9 3e 97 81 bd 5f e4 93 3d
       -0.094201826 -0.00016730279 -0.06327675 0.07221293
0003e0 27 c2 88 3d c0 85 d7 3b 00 07 1b 3a eb d9 92 bd
       0.066776566 0.0065772235 0.0005913824 -0.07170471
0003f0 ee 14 6d bd 3f dc bc 3d 15 3f 7b bd 00 96 28 bc
       -0.05788129 0.09221696 -0.061339457 -0.010289669

linear_relu_stack.0.bias f4 [64]
000000 28 59 21 bc 4b 5d ac 3d 67 8e 87 3d 6c 9d 73 bd
       -0.009847917 0.08416232 0.06618958 -0.0594763
000010 02 e7 43 3d 5f 5f a8 3d 57 b1 8e 3d c0 3b 74 3b
       0.047827728 0.082213156 0.06967419 0.003726706
000020 62 1f 58 3d b0 5b e2 bb ab 6e b1 bd 5e 41 57 3d
       0.052764304 -0.0069079027 -0.08663686 0.052552573
000030 20 69 26 3b 70 8e 26 3c 8a 57 08 3d f9 90 b8 3d
       0.002539225 0.010165796 0.03328661 0.09012026
000040 00 4b 78 ba 11 d7 89 bd 58 6f 57 3c 94 71 3e bd
       -0.0009471625 -0.06730474 0.013149105 -0.046495035
000050 f4 9f e5 bc 60 9a 45 bb 40 86 21 3c e1 9e ab bd
       -0.028030373 -0.003015183 0.009858668 -0.08379913
000060 ac a7 db 3c 0d 8a 96 3d 60 de 8b bb 81 f2 ae bd
       0.02681335 0.0735055 -0.0042684525 -0.08542348
000070 b4 ea f3 3c 24 95 0b bd e3 ef 93 3d 40 65 c2 bb
       0.029775001 -0.03407778 0.07223489 -0.00593248
000080 ad 0c 8c 3d 6d af 8e 3d d3 ba 91 3d c3 dd 86 bd
       0.06838355 0.069670536 0.07115712 -0.065852664
000090 f2 7a 8c bd 7c 69 a8 bc f8 b5 4b bc 28 1c 3d bc
       -0.068593875 -0.020558111 -0.012433521 -0.0115423575
0000a0 c1 0b b6 3d 7b f3 60 bd 6c af c5 bc 00 70 de 38
       0.08888961 -0.0549197 -0.0241315 0.000106066465
0000b0 60 a2 0c bb fe 95 ac bd a9 b9 95 3d c6 8c 25 3d
       -0.0021459088 -0.08427046 0.073108025 0.040417455
0000c0 b8 7b 37 bc 66 8f 1c 3d 70 f6 b0 3b 18 79 5a 3c
       -0.01119893 0.038222693 0.0054004714 0.013334535
0000d0 70 65 ba bc a0 d2 d4 bc 52 f0 20 3d 03 a9 95 3d
       -0.022753447 -0.02597934 0.039291687 0.07307627
0000e0 24 fe b2 bc 56 72 79 3d f7 93 89 3d 45 3f be 3d
       -0.0218497 0.060900055 0.06717675 0.092894115
0000f0 b3 d0 9a 3d f0 18 95 bd 0a 1c 8d bd 09 b9 80 3d
       0.075593375 -0.07280147 -0.06890114 0.06285293

linear_relu_stack.2.weight f4 [64, 64]
000000 20 78 f4 3b 5a a4 9f 3d f0 0f 6a bc 3a e5 90 bd
       0.007460609 0.077950194 -0.014286026 -0.070749715
000010 1e 69 84 bd 70 f1 61 3d 92 a9 b4 3d 60 10 ed bd
       -0.06465362 0.055161893 0.088214055 -0.11575389
000020 a0 3c 38 bc cc 5c 14 bd d8 7f c9 bd e8 c3 94 3c
       -0.011244923 -0.03622131 -0.098388374 0.018159822
000030 50 34 de 3c 7c d8 7e bd 40 32 a7 bd 00 3b 2f bb
       0.027124554 -0.062218174 -0.08163881 -0.0026738048
000040 c8 2b 0c 3d d0 a0 42 bc f0 60 8d bc d6 41 db bd
       0.03422144 -0.011879161 -0.017258137 -0.107059166
000050 40 b1 bb 3d 8e 29 ad 3d c0 17 a9 3c 62 f2 8a bd
       0.09164667 0.084551916 0.020641208 -0.06784512
000060 50 5a 0d 3d a8 15 d9 bc 30 15 3e bc 2e 6e ab 3d
       0.034509957 -0.026499584 -0.011601731 0.083706245
000070 aa 7d 82 bd dc 54 4c bd a4 55 83 3d 98 cb 20 3d
       -0.06371625 -0.049885616 0.06412819 0.039256662
000080 d8 6d d2 bd 04 12 ec bd 58 bd 56 3d 44 9f ec 3d
       -0.10274857 -0.11526874 0.052426666 0.11553815
000090 92 c1 d1 bd 9a 9f c0 bd 90 ac 17 3d 7e 70 84 3d
       -0.10241999 -0.094054416 0.037029803 0.06466769
0000a0 c4 f9 bf bd c0 71 3d bb c4 2a 7e 3d 20 09 b2 bd
       -0.09373811 -0.0028906912 0.062052503 -0.08693147
0000b0 ae ba 8f bd 24 44 64 3d 1c b4 26 bd c0 e8 43 3d
       -0.07018028 0.055729046 -0.04069911 0.04782939
0000c0 36 22 ea 3d 86 be 81 3d 00 1d 2a 3b 4a f4 89 3d
       0.114323065 0.063351676 0.0025957227 0.067360476
0000d0 28 e3 59 3d c8 42 b4 bc b0 ec 4a 3d 48 3d ee bc
       0.05319515 -0.0220045 0.04954213 -0.029081956
0000e0 30 f9 79 3c a0 ec 6f 3c b8 19 aa bc c6 61 ca 3d
       0.015257165 0.014643818 -0.020764217 0.0988193
0000f0 60 a6 f5 3d da 6a fa 3d da 0b 83 bd 54 b0 ba 3d
       0.11994624 0.122274116 -0.06398745 0.09115663
000100 d0 55 a5 3c e4 86 76 3d 98 0b 78 3d 70 1c de bd
       0.02018252 0.060187235 0.06055793 -0.10845268
000110 38 e7 66 bd 8a db a5 3d 58 d5 7a 3d 28 55 a1 3d
       -0.05637285 0.080985144 0.061238617 0.078775704
000120 b8 dd bc 3d d0 a6 4b 3c 12 50 bd bd 4c 41 7c 3d
       0.09221977 0.012429908 -0.09243788 0.06158571
000130 00 3f 83 3d 80 80 8b bb 4e a4 e9 3d 10 40 db 3c
       0.06408501 -0.0042572618 0.11408292 0.026763946
000140 9e 3f ff 3d 00 f4 26 bb 60 29 e6 bc d6 2a 96 bd
       0.12463306 -0.0025475025 -0.028095901 -0.07332389
000150 64 62 40 bd 20 d6 55 bc a8 32 25 bd 9a df d1 3d
       -0.046968833 -0.01305154 -0.040331513 0.10247727
000160 48 ca 16 bd 38 b1 35 3d 04 b0 35 bd ba e1 ea bd
       -0.036814004 0.044358462 -0.044357315 -0.11468835
000170 2a 41 ab bd 22 05 c7 bd 50 18 ee 3d c0 7a b5 bb
       -0.083620384 -0.09717776 0.11625731 -0.0055383146
000180 94 fa ff bd f8 dc 03 bd 4c 87 db bd f4 cc 40 bd
       -0.12498966 -0.032193154 -0.10719165 -0.04707046
000190 92 6e 8f 3d ca a6 b7 3d c0 69 fc bc 40 16 dd bc
       0.070035115 0.08967359 -0.030812144 -0.026988149
0001a0 c0 8f a2 bd 10 fc 34 bc 00 79 77 ba 3e 3a ea 3d
       -0.079375744 -0.0110464245 -0.00094403327 0.1143689
0001b0 5c a7 f4 3d 70 a2 6d bd 08 26 71 3d e6 5d f7 3d
       0.11945984 -0.05801624 0.05887416 0.120784566
0001c0 24 8f ce 3d f8 41 af 3c 70 7d 44 bd 50 9c 27 3d
       0.10085896 0.021393761 -0.04797119 0.040920556
0001d0 f2 87 d2 3d 6c 14 e7 bd dc 26 04 bd 28 c0 c8 3d
       0.10279836 -0.11283192 -0.03226362 0.09802276
0001e0 f0 59 89 3c 30 cf 77 3d de 4c f0 3d 54 ad a7 3d
       0.016766518 0.060500324 0.11733411 0.081873566
0001f0 10 a3 ff 3c b0 da 9b 3c f4 4d a4 bd e2 01 88 3d
       0.031205684 0.019025177 -0.08022681 0.06640984
000200 a0 8c cf 3c 58 18 0f 3d 00 ac 5d ba 98 e3 b4 3d
       0.02533561 0.034935325 -0.0008456111 0.088324726
000210 10 c5 6f bd 80 d7 08 bc 7c 8f 2e bd 6e 7b 9e 3d
       -0.058537543 -0.00835216 -0.042617306 0.07738386
000220 a8 3c e7 3d 60 9d 1b 3d 38 3f e6 3c 50 43 36 bc
       0.11290866 0.03799188 0.028106317 -0.011124447
000230 46 3d ca 3d 58 e0 51 bd 5c 07 d2 bd ce 58 dc 3d
       0.09874968 -0.05123934 -0.1025531 0.10759126
000240 b8 cb 99 bc 20 be b6 3b d4 ab 12 bd 5e f5 9b 3d
       -0.018773898 0.005576864 -0.0358084 0.076151595
000250 2a 46 ec bd 80 3d 73 bb b8 49 06 bd 90 62 29 bc
       -0.1153682 -0.0037115514 -0.032785147 -0.010338441
000260 4a 9b d3 bd ce 0b 91 3d e4 c3 b1 3d b0 08 76 3c
       -0.103323534 0.0708233 0.08679941 0.01501672
000270 c4 e5 36 bd e0 a2 6b 3c 80 27 99 ba d0 4b 33 3d
       -0.044652715 0.014382094 -0.0011684746 0.043773472
000280 18 ec e7 3c 10 ed 82 3c 44 28 a7 bd 40 90 9c bd
       0.02831082 0.01598218 -0.08161977 -0.07644701
000290 24 6d 00 3d d0 f1 4e 3c ae 90 a8 bd 78 c9 80 bc
       0.031354085 0.012630895 -0.082307205 -0.015721068
0002a0 c0 ab 41 3c 82 7f 81 3d a6 0c fe 3d b0 98 b4 bd
       0.011820734 0.06323148 0.12404756 -0.08818185
0002b0 78 70 86 3c 58 18 c6 3d 52 2a b1 bd de c9 e1 3d
       0.016411051 0.09672612 -0.0865065 0.11024831
0002c0 b0 4a ee bd f4 c7 b4 3d 58 99 6a 3d 7c 17 ac bd
       -0.11635339 0.088272005 0.057275146 -0.08402917
0002d0 64 34 8e bd 80 e3 00 bd 80 c0 59 bd 08 47 88 bd
       -0.069435865 -0.03146696 -0.053162098 -0.06654173
0002e0 80 18 de bc 24 f6 7c 3d 76 f7 e7 3d 7a b2 b5 bd
       -0.027111292 0.061758175 0.11326496 -0.08871932
0002f0 78 66 07 3d 38 65 cc bc 2a 22 c6 bd f4 06 e4 bd
       0.033056706 -0.024950609 -0.09674485 -0.11134139
000300 76 c5 98 bd c8 dc be 3c 18 52 85 bc ae 79 cf bd
       -0.07459538 0.023298636 -0.016274497 -0.101306304
000310 ee 31 fd bd 34 4c 6f 3d 58 e6 9a 3c 44 6a 58 3d
       -0.12363039 0.058422282 0.018908665 0.052835718
000320 d4 c0 c4 3d 00 20 74 3d 70 4e 76 bd e8 1c 0d 3d
       0.096070915 0.05960083 -0.060133398 0.034451395
000330 20 a9 c5 3d 84 44 9c 3d 76 84 96 3d 46 c9 f5 bd
       0.09651399 0.07630256 0.07349484 -0.120012805
000340 00 e1 1a 3d fe 16 a8 3d f0 eb 54 bc ca b3 90 bd
       0.037812233 0.082075104 -0.012995705 -0.07065542
000350 38 a3 d0 bc c8 6e 0a 3d 7e 6f fa 3d 68 9c 4f bd
       -0.025468454 0.033797055 0.12228297 -0.05068627
000360 4c 13 a1 bd 44 1c 7e bd e0 03 6e 3d d4 43 fa bd
       -0.07865009 -0.062038675 0.058109164 -0.122199684
000370 3e 79 a3 3d 00 c6 d1 3c 7e c4 86 3d f8 1a 89 bd
       0.079821095 0.02560711 0.06580447 -0.06694597
000380 40 96 21 3d 60 72 f4 bb b2 26 e6 3d c0 b0 6c bd
       0.03944993 -0.0074599236 0.11237849 -0.05778575
000390 9c 52 47 3d f0 3d 3a bd 40 1d d7 3c e0 e5 bf 3c
       0.048662767 -0.045469224 0.026259065 0.023425043
0003a0 c8 57 48 3d 8e 17 e8 3d 8a c8 ed 3d 4c cb 08 3d
       0.04891184 0.11332618 0.116105154 0.033397004
0003b0 10 06 98 3d 50 40 6e 3c 20 1c cc 3d 7e 74 85 bd
       0.07423031 0.0145417005 0.09966302 -0.0651636
0003c0 d8 71 1e bd 6c d4 57 bd 40 91 1c 3d 78 5c 2d bd
       -0.03868279 -0.052692816 0.03822446 -0.042324513
0003d0 c8 d4 d3 bd c8 68 2a bd 00 79 1f bb d8 89 86 bd
       -0.10343319 -0.041603833 -0.0024333596 -0.0656926
0003e0 d0 a6 99 bd 40 d1 b0 3c 50 e0 a5 bc d0 c0 06 bd
       -0.0750252 0.021584153 -0.020248562 -0.032898724
0003f0 fe 95 b7 bd f4 33 08 3d d6 19 9b 3d b2 c4 96 bd
       -0.089641556 0.03325267 0.07573287 -0.073617354

linear_relu_stack.2.bias f4 [64]
000000 28 76 0b 3d 50 f9 c3 3d 92 92 db 3d 1a b6 c0 3d
       0.03404823 0.09569037 0.107213154 0.09409733
000010 bc 5b f9 3d f8 5a c0 bd 6c 1b 1c 3d f8 c0 8c 3c
       0.121757 -0.09392351 0.03811209 0.017181858
000020 80 19 ac bb 84 22 4f bd 48 e9 ba 3c d4 a4 d1 3d
       -0.0052520633 -0.050570026 0.022816315 0.102365166
000030 ba 17 d2 3d 64 fa 3d bd 46 30 97 3d 80 c8 f1 3a
       0.10258432 -0.04638137 0.07382254 0.0018446594
000040 a8 d8 e9 3d 70 9d 4d bd 10 a5 02 3d 26 47 a2 bd
       0.11418277 -0.050198972 0.031895697 -0.07923727
000050 dc 28 ca 3d 86 6a d4 bd c0 36 7a 3b f2 d4 90 bd
       0.098710746 -0.1037188 0.0038179606 -0.07071866
000060 4a cb de 3d 18 b3 b3 3c a0 d2 53 3d 0c 20 3d bd
       0.10878618 0.021935984 0.05171454 -0.04617314
000070 40 f1 c5 bc 08 23 cd bc 08 9f f5 bc cc d2 76 bd
       -0.024162889 -0.025041118 -0.029983059 -0.060259625
000080 08 65 9d 3c f0 6d 81 bc ee 4f b1 bd 00 26 fa ba
       0.019213215 -0.015799493 -0.086578235 -0.0019084811
000090 80 ad fa 3a 8c ed 72 bd 0e d8 a2 bd 50 43 bf bc
       0.0019125193 -0.059308574 -0.079513654 -0.023347527
0000a0 48 02 c1 3d 12 0b c3 bd 24 85 5b bd e0 c7 d0 bd
       0.09424263 -0.09523596 -0.05359377 -0.10194373
0000b0 b4 b2 fe 3d d8 1e 15 3d 50 ec 36 3c 70 f9 02 3c
       0.12436429 0.036406368 0.01116474 0.007994041
0000c0 b8 7f 05 3d 80 94 ab 3a 34 0b 76 bd 78 5a 8a 3c
       0.032592505 0.0013090521 -0.060069278 0.016888842
0000d0 e2 92 97 3d 80 2c ed ba 18 36 f7 3d c8 1b a2 bc
       0.074010625 -0.0018094927 0.120708644 -0.019788638
0000e0 2c 26 ce bd 74 45 a2 3d aa a0 f3 bd 28 17 b6 bc
       -0.100658745 0.079234034 -0.118958786 -0.022227839
0000f0 d0 34 0b 3d 10 fd 53 3c 6e 1f 94 3d bc 3a ed bd
       0.033985913 0.012938753 0.07232557 -0.11583468

linear_relu_stack.4.weight f4 [1, 64]
000000 e4 92 e9 3d 30 d0 56 3d aa 5f 94 bd ee c7 d2 bd
       0.1140497 0.052444637 -0.07244809 -0.1029204
000010 04 ad a3 bd 30 cb e4 3c 6a d6 9a 3d 40 43 36 bb
       -0.079919845 0.027928919 0.075604275 -0.002781108
000020 08 3a 22 3d de 1f bb bd c0 85 69 3d 3a 9d 8f 3d
       0.039606124 -0.091369376 0.05701232 0.070124105
000030 40 de 3a 3d 28 c1 93 bd 78 e8 59 3d 68 e5 b7 bd
       0.04562211 -0.07214576 0.053200215 -0.08979303
000040 a4 7d 0f 3d b0 30 af 3d ec 6f d6 bd 80 c1 ab bc
       0.03503193 0.08554208 -0.10470566 -0.020966291
000050 50 5e 5d 3d 00 4f 55 3b 60 d5 8b 3b f4 31 f6 3d
       0.05404502 0.0032548308 0.0042673796 0.120212466
000060 a4 90 13 3d a2 fc b4 3d 40 08 38 3c 68 c2 fd bd
       0.036026612 0.088372484 0.011232436 -0.12390596
000070 dc d8 86 bd a0 6c 10 3c c0 c2 b8 3c 12 cd d8 3d
       -0.065843314 0.008814961 0.022553802 0.10585989
000080 30 2a c4 bc 78 d4 8f 3c 50 5c 2a bd 40 a9 66 bc
       -0.023945898 0.017557368 -0.041591942 -0.014078438
000090 82 09 9d 3d d0 0e ed bc f0 34 78 bc 44 b6 b9 3d
       0.07667829 -0.028937727 -0.01514934 0.090679675
0000a0 96 99 bb bd fe 31 ed 3d 80 ca b2 bb 24 f5 ae 3d
       -0.091601536 0.11581801 -0.005456269 0.085428506
0000b0 06 98 ab bd 40 ee 68 3c 58 f3 db bd 2a 1b 91 bd
       -0.083786055 0.0142169595 -0.107397735 -0.07085259
0000c0 dc ea 5c 3d ae d7 87 bd c4 f1 dc 3d 08 89 86 3c
       0.053934917 -0.066329345 0.10788301 0.016422763
0000d0 40 aa 78 3b 7c 17 30 3d 00 3c de bc e6 3b c7 3d
       0.0037943274 0.042991146 -0.02712822 0.097282216
0000e0 88 31 b3 bc 26 27 fb bd 40 8a ee bb 3e c6 fb bd
       -0.021874204 -0.12263326 -0.0072796643 -0.12293671
0000f0 5a 4c da 3d 64 f6 e4 bd c0 70 39 bc 68 d4 52 3d
       0.10659094 -0.11179808 -0.011318386 0.051472098

cnns.0.weight f4 [32, 2, 3, 3]
000000 41 60 c9 3d 64 e1 00 3e 57 92 87 bd 4a 10 3f 3e
       0.09832812 0.1258598 -0.06619709 0.18658558
000010 d3 e7 5d be 71 3d 1b be 4a 83 4e bd ad 47 3a bd
       -0.21670465 -0.15160157 -0.050418176 -0.04547851
000020 18 4e 32 be 4d 9a 14 be 73 f2 06 3e ad 82 68 bc
       -0.17412603 -0.14511986 0.13178425 -0.014191312
000030 7a ed cf 3d e8 a2 06 3e ef 4d 7e be bc 71 92 bd
       0.10152717 0.13148081 -0.24834417 -0.07150599
000040 31 35 35 be 71 3a 4e 3e 8e e0 8b 3c 51 7f 79 3e
       -0.17696072 0.20139481 0.01707485 0.24364974
000050 53 ed 25 be 69 9a 0b bd 80 d3 62 be f6 f5 6b 3c
       -0.16203813 -0.034082804 -0.22150993 0.014401903
000060 4d ed 8f 3d b2 ef 5b be d5 2b 0c bd 0f aa 54 be
       0.070276834 -0.21478155 -0.03422149 -0.20767997
000070 48 6f 4d 3d a6 03 32 3e 68 a2 b9 3d 5d 1d 42 3e
       0.050154954 0.17384204 0.0906418 0.18956514
000080 3b 87 4a 3c f1 49 45 be ba ff c8 3c 84 6d a6 bd
       0.012361343 -0.19266488 0.024536002 -0.08126357
000090 3c 78 06 3e 61 6a 23 be 78 55 5a 3e 20 ec 4b 3e
       0.13131803 -0.15958549 0.21321666 0.19914293
0000a0 4a 7a 36 be 92 5d cd 3d 0d 8c 80 3e 31 fb 0e be
       -0.17820087 0.10027613 0.2510685 -0.1396301
0000b0 56 6f 8b 3e 3d 2e 7b be b8 8c 8b 3d 06 ae 11 3d
       0.2723338 -0.24529357 0.06813949 0.035566352
0000c0 ff d1 90 3d fa c8 23 3e 1c a6 28 be 04 ae 4d 3e
       0.070713036 0.15994635 -0.16469616 0.20085913
0000d0 cb 90 a2 bb 6f 90 89 bd 1f f1 2f be 45 4e 38 be
       -0.0049611083 -0.06717002 -0.17181824 -0.17998607
0000e0 f1 f8 1d 3e 2b ce 63 3e 29 8f 21 be dd 06 3e bd
       0.15426995 0.22246616 -0.15777268 -0.046393264
0000f0 80 c1 f8 3d 7a 70 8a bd d6 04 c3 bd 01 58 d2 3d
       0.12146282 -0.067597345 -0.09522407 0.10270692
000100 80 99 1f 3e 17 b4 51 3e 9c 12 1e 3e 13 12 3c 3e
       0.155859 0.20478855 0.15436786 0.1836627
000110 8d b5 d8 bd cd bc c9 3c 7f 27 ff bd b4 92 cc 3d
       -0.10581503 0.02462616 -0.12458705 0.09988919
000120 97 60 19 3e 64 4e 81 3e c8 d6 26 bb ce 57 ee bd
       0.14978252 0.2525512 -0.002545761 -0.11637841
000130 e5 40 3d be db 22 14 be 54 04 b4 3d 75 89 4e bc
       -0.18481787 -0.14466421 0.08789888 -0.0126060145
000140 f7 93 b0 bd 55 ed 55 be f2 ba 9f bd 67 38 62 be
       -0.08621972 -0.20891316 -0.07799329 -0.22091828
000150 11 c3 7d 3b fd 21 0c be 08 d0 f4 3d 27 0c 4c 3d
       0.0038721005 -0.1368484 0.11953741 0.049816277
000160 68 ea db 3c 5f 46 c6 bd c8 3d d5 3c b7 e4 36 3e
       0.026845172 -0.09681391 0.026030436 0.17860685
000170 76 7d 5e 3e cc fa 57 3d 4f a7 63 be 01 ea 5d 3e
       0.21727547 0.052729413 -0.22231792 0.21671297
000180 ce 00 55 3e 3b 93 4c 3e f5 d4 ef bc 93 de 89 be
       0.20801088 0.19978039 -0.02927635 -0.26927623
000190 2e 76 0f 3e 29 da 14 be 4d c9 7a 3e 89 ee e0 bc
       0.14009926 -0.14536346 0.24490853 -0.027457492
0001a0 58 92 73 3e c5 93 0c 3e f9 aa e1 bd 9b c1 0c be
       0.23786294 0.13728245 -0.110189386 -0.1374573
0001b0 dd c7 66 be 34 ae aa 3d 5b c5 da 3d 7d a1 09 3e
       -0.2253718 0.08334008 0.10682174 0.13440509
0001c0 82 1d 50 be 5b 76 7b 3d cb df 6e bd b4 e2 1e 3d
       -0.20323756 0.06139217 -0.058318894 0.03879042
0001d0 a4 45 47 3d 19 87 e8 bc 75 c3 40 3e 3d 05 c3 3d
       0.0486504 -0.028384732 0.18824561 0.095224835
0001e0 f8 83 1f be 56 0c 85 3e e6 52 1f 3e 25 36 e3 bd
       -0.15577686 0.25985974 0.15558967 -0.110943116
0001f0 59 49 34 3c dc cf 62 be 12 36 10 bd 1a ec cc bd
       0.011003816 -0.22149605 -0.035207815 -0.1000597
000200 a5 94 27 bd 99 ba 2f be a4 26 2d be b6 b8 62 be
       -0.040913243 -0.17161025 -0.16909271 -0.22140774
000210 1e ad 30 be 35 73 8e 3d aa 7a 36 bd dc 15 30 be
       -0.17253539 0.06955568 -0.044550575 -0.17195839
000220 d8 6b 18 be 68 09 90 3d e3 3c 5c be 4e 13 7d 3e
       -0.14884889 0.07033044 -0.21507601 0.24714395
000230 e6 64 32 be 8e 3b ab bd 3c ff 19 be 06 58 69 3e
       -0.17421302 -0.083609685 -0.1503877 0.22787485
000240 35 0e d5 bc 66 a0 6b 3d 0d af a1 3d f2 48 f6 3d
       -0.026007751 0.057526015 0.078947164 0.12025632
000250 fa 88 6b 3e d3 5d 4d bd 9c 97 1e be 91 ec 5a 3e
       0.23001471 -0.050138306 -0.15487522 0.21379305
000260 c2 ae 77 bd eb a1 f9 bd c5 19 5d be 80 4f 8e bd
       -0.060469396 -0.121890865 -0.21591862 -0.06948757
000270 e4 bc 9f 3d 2b 5d 69 be 4c bf 65 be 50 6c 5e bb
       0.077997 -0.22789447 -0.22436255 -0.003393907
000280 4f 09 55 3e f2 35 0f 3e b9 b4 ba bd 72 cb 61 bd
       0.20804332 0.13985422 -0.09116501 -0.05512566
000290 ff fe cc 3c 1b 26 09 3e f7 c8 83 be 01 37 bb 3d
       0.025023935 0.13393442 -0.25739262 0.091413505
0002a0 46 ba 44 be 46 d9 30 be 84 3a 4f bd 39 cb 3b 3e
       -0.19211683 -0.17270383 -0.050592914 0.18339242
0002b0 e9 20 5d 3e 22 23 eb bc 9b 84 5c 3e 3d df e6 3d
       0.21594585 -0.028703276 0.2153496 0.11273048
0002c0 5a e3 c2 3d 04 77 88 3e 8d ab 88 3d 72 fe 8a 3d
       0.0951602 0.26653302 0.06673346 0.06786813
0002d0 8b 1f 90 bc f5 5b e6 bd 6d ec 29 be fb ed a9 bd
       -0.017593166 -0.11248008 -0.16594096 -0.08297344
0002e0 f9 91 46 3e 3e 5e 2b be a4 74 cb bd 88 1b 04 3e
       0.19391622 -0.1673517 -0.09934357 0.12901127
0002f0 f3 a6 db bc dd df 2f be 25 13 5d 3d 99 22 4e 3e
       -0.026813006 -0.17175241 0.053973336 0.20130385
000300 85 c8 3e be ca a3 2b 3e 18 d3 2b bd 20 18 5e be
       -0.1863118 0.167617 -0.04194936 -0.2168889
000310 a5 03 f2 3d d5 c5 6e 3e 16 6f 90 3d b2 a6 c3 bd
       0.118171014 0.23317654 0.07052438 -0.09553279
000320 cb 51 a2 3d 6b cc e7 3d 44 c3 15 3e 32 b8 90 bb
       0.07925757 0.113182865 0.14625269 -0.004416489
000330 5d ac 54 be b5 1b 76 3c 55 58 83 be 6d ff c4 3d
       -0.20768876 0.015021254 -0.2565333 0.09619031
000340 ef 0e 0d 3e 83 5d 80 3b 73 1e 12 be d3 62 ca bd
       0.13775228 0.0039173975 -0.14269428 -0.098821305
000350 12 66 a5 3d c0 da eb 3d 77 8e 77 3d bd a9 09 3e
       0.08076109 0.115163326 0.0604386 0.13443656
000360 41 78 f7 bd c4 f9 5f be 3d d6 5d be 62 9e d2 3d
       -0.120834835 -0.21872622 -0.21663757 0.102841154
000370 84 59 00 3e 46 a3 11 be d0 1c 1a be 3d 22 53 3e
       0.12534148 -0.1422244 -0.15050054 0.2061853
000380 d0 38 86 3d a0 db bf 3d 25 fd 55 be 02 09 d6 3d
       0.06553805 0.09368062 -0.20897348 0.10450937
000390 b0 31 df 3d 20 af 25 3d ce 99 32 bc 2e ea 25 bd
       0.10898149 0.040450215 -0.010900928 -0.040506534
0003a0 02 87 a5 bd 25 2c 39 be 6c ed 36 be 3c 52 68 3e
       -0.08082391 -0.18083246 -0.17864007 0.2268762
0003b0 67 c7 3f bd 4b a1 49 3e 89 be 85 3e 2c a2 03 3e
       -0.046821024 0.19690435 0.2612193 0.12854832
0003c0 81 0c e0 3d b6 3b 8d 3d 1a 93 43 be 6e e6 e2 bb
       0.10939885 0.068961546 -0.19099084 -0.006924442
0003d0 08 7c 73 3e 45 fd 2c 3d 1b f9 22 3e 05 85 60 3d
       0.23777783 0.042233724 0.15915339 0.054814357
0003e0 2e 03 ca 3b d2 21 c0 3d 2a e6 57 3e 59 fa 21 be
       0.00616493 0.09381451 0.21083894 -0.15818156
0003f0 54 3a 7d 3e 42 df 3a 3e be 01 e6 bc 36 d3 65 bd
       0.24729282 0.18249229 -0.028077003 -0.05610963

cnns.0.bias f4 [32]
000000 00 07 f7 3d c6 79 56 bd 31 4b af bc 8b 47 03 3e
       0.12061882 -0.052362226 -0.021398159 0.1282026
000010 43 85 39 bd 19 14 14 bd e8 1e f8 bd b4 50 69 bd
       -0.045293104 -0.03615198 -0.1211527 -0.05696173
000020 d2 97 5a be f5 1a 08 be 00 fd 46 3e ee 1f d1 bd
       -0.21346977 -0.13291533 0.1943245 -0.10211168
000030 a5 cd f0 bd e2 0c fd 3d 45 64 29 be c6 c0 12 bc
       -0.117579736 0.12355973 -0.16542156 -0.008957094
000040 64 d9 ff 3d 30 61 2d 3e be 32 55 3d 29 ce 21 3e
       0.12492636 0.16931605 0.052050345 0.158013
000050 04 ae 33 be 29 6e c1 bc 2b 93 9b bc 08 50 e8 bd
       -0.1754685 -0.023612099 -0.018991074 -0.1134339
000060 02 9b cb 3d 00 0c 8d bd f8 66 2e 3e ad 49 3d be
       0.09941675 -0.068870544 0.17031467 -0.18485136
000070 54 be 17 3e 20 9b 30 be 9b f1 7c bd 3e 27 23 3e
       0.14818698 -0.17246675 -0.06175385 0.15932938

cnns.2.weight f4 [64, 32, 3, 3]
000000 6c 84 21 3d bb e2 3b 3c e3 3e 31 3d f2 7a 7e 3c
       0.039432928 0.011467631 0.043272864 0.015532242
000010 10 1a ac 3c 02 77 b6 bc 20 d9 19 bc 52 46 ee 3b
       0.021008521 -0.022273544 -0.009390146 0.0072715664
000020 b3 66 1a 3c 53 a8 2f bc 33 72 47 bd db 0d 81 3d
       0.009423899 -0.010721284 -0.048692893 0.06301471
000030 b4 10 88 3c 41 ae 28 bd 36 87 81 bd a2 98 12 bd
       0.016609527 -0.041181806 -0.063246176 -0.035790093
000040 a8 fc 42 bc 05 28 32 3d a8 17 cf bc 70 de 91 bb
       -0.011901058 0.043495197 -0.025279835 -0.0044515654
000050 ea df 1e 3c 6a 71 b8 3b a1 a6 20 bd 5e 4a ed bc
       0.00969694 0.0056287544 -0.03922141 -0.028966125
000060 3c 23 15 bd 90 71 88 bc ba f6 42 3d 25 dd 38 bd
       -0.036410555 -0.016655713 0.047598578 -0.045132775
000070 00 c1 ff bc 92 3f 8c 3b 55 3f 80 bb 19 68 53 3d
       -0.03121996 0.004280039 -0.0039137998 0.051612947
000080 cd f7 38 3d 0a 8f 49 3d 33 e6 07 bd 1c a8 9c bd
       0.045158196 0.04920868 -0.03317852 -0.07649252
000090 74 79 ef bc 63 f3 e0 3c fc dd 15 bc 26 ee 8f bb
       -0.029232718 0.027459806 -0.0091471635 -0.004392403
0000a0 f9 40 8a bc 6a 78 49 bb 96 88 24 3d 71 4f 74 bd
       -0.016876685 -0.0030741938 0.04016932 -0.059646074
0000b0 ff 64 2c 3c f0 8d 77 3c a7 ea 88 3d 2d 80 d4 3c
       0.010522126 0.015109524 0.066853814 0.025940025
0000c0 d4 35 fb bc 19 d8 9f 3c 8a b7 d1 bc f1 64 0c 3d
       -0.030665316 0.019512223 -0.025600214 0.034275953
0000d0 8b 99 c0 bb a9 69 9c bc aa ee 8e 3d c4 6c d1 3c
       -0.0058776787 -0.019093351 0.06979115 0.025564559
0000e0 3e 39 2d bc 27 f5 86 3d 00 da 3d 3c 70 ab 55 bd
       -0.01057273 0.06589728 0.01158762 -0.05216545
0000f0 32 05 8d bd e9 dc 27 bd 08 54 85 3c 3c a7 8f 3d
       -0.068857566 -0.04098216 0.01627542 0.07014319
000100 c6 70 9a 3b d1 22 62 3d 1d d8 32 bd c6 8d 28 bc
       0.0047131507 0.055208985 -0.043663133 -0.010287708
000110 e3 1f 8a 3d 9d e7 a3 bd 6b 7c e4 3c f9 12 91 bc
       0.06744363 -0.08003161 0.027891358 -0.017709242
000120 be ce 3c 3d df 0f 03 3b 27 b2 ad bd 17 48 58 bd
       0.046095602 0.0019998474 -0.084812455 -0.052803125
000130 9d 73 13 bd b4 1e 88 3d 99 24 32 3d 40 bd 9e bc
       -0.03599893 0.06646481 0.043491933 -0.01937735
000140 32 e9 c1 bb 10 62 5d 3a db e8 35 3d 2c cb 08 bd
       -0.0059176916 0.00084450934 0.04441152 -0.033396885
000150 6d 11 01 3d e2 70 0d 3b 21 75 6c bd ea 7b d9 bc
       0.03151076 0.0021582176 -0.05772889 -0.026548345
000160 14 f2 e2 bc 86 e9 dc 3c 2c 8f 19 3d 56 7f 93 bd
       -0.027703322 0.026966821 0.037490055 -0.07202022
000170 7d c2 79 3c 31 ff a7 b8 3e 04 4d 3d 2c 94 aa 3c
       0.0152441235 -8.010714e-05 0.050052874 0.020822607
000180 82 30 b4 bb 61 0a a8 bb 8f 11 58 3c 8a 6d db 3c
       -0.0054989466 -0.0051281904 0.01318778 0.02678563
000190 6b 7f 43 bd de 5b e9 3c dd a0 19 3d bb 5e a2 3c
       -0.047728937 0.028486189 0.037506927 0.019820562
0001a0 04 ee 69 3c 6f 06 1e 3c 79 48 46 bd e7 1a c0 bb
       0.014277939 0.009645089 -0.04840896 -0.005862582
0001b0 1e 96 ed 3b e5 1c 9c bd 57 3d 9f bd 9c b9 67 bd
       0.0072505614 -0.07622699 -0.077753715 -0.056573495
0001c0 ef ed 12 bd f4 1a 3c 3d 77 6c f8 3c be b2 80 3c
       -0.035871442 0.045924142 0.030325158 0.01571023
0001d0 25 58 c6 bc 82 05 3e 3c 8d 11 7b bd a1 c6 ab 3c
       -0.024211952 0.011597993 -0.061296035 0.020968737
0001e0 e2 f3 b3 bb a6 aa b4 bc 8f a3 4d 3d 2a fc 09 3d
       -0.0054917196 -0.022054028 0.05020481 0.033687748
0001f0 68 98 81 bd ed 3c 98 bc 6c 18 9b 3d 15 c0 58 bd
       -0.06327897 -0.01858374 0.075730175 -0.05291756
000200 56 f8 34 3d 72 94 4b bd 76 86 43 bd 0d dc 12 3d
       0.044182144 -0.049702115 -0.047735654 0.035854388
000210 b2 7a 9a bd fb 75 d0 3b 0d 98 f9 3c d6 35 0a 3d
       -0.075429335 0.0063617206 0.030468011 0.03374275
000220 a0 ca ef 3a b7 c9 af 3c a8 fb c1 bb 9a 6f 9d bd
       0.001829464 0.02145849 -0.0059198923 -0.07687302
000230 0c dc 2a bd ec ae bb 3c 74 63 cc bb 9e 0f 3e bd
       -0.04171376 0.022910558 -0.0062374417 -0.046401612
000240 9d 42 5d bd ef 5b 51 bd 93 ab e0 3c 77 05 5a bd
       -0.054018606 -0.051113065 0.027425563 -0.053227868
000250 81 23 68 bd 99 a4 50 3d 92 1c 88 bd 9d 11 49 bd
       -0.056674484 0.050938223 -0.06646074 -0.049089063
000260 8d 2c 49 bd 4a 34 42 3d 53 25 59 bd 54 b9 35 bd
       -0.049114753 0.047413148 -0.05301411 -0.044366196
000270 ed a9 53 bd 5a 41 91 3b 8c 24 71 3d 3d bb cb bc
       -0.051675726 0.0044328393 0.058872744 -0.024869556
000280 b2 19 3f 3d d1 79 43 bc f8 8a c9 bb a5 dc 35 bd
       0.046655364 -0.011930899 -0.0061505996 -0.044399876
000290 3f 05 4d bd ba 40 3d 3d 77 a6 d8 bc df bc 9f bd
       -0.05005383 0.046204306 -0.026446564 -0.07799696
0002a0 c6 70 b4 3c 38 da 0d 3d 1c db 4c 3c da 81 32 3d
       0.02202643 0.034631938 0.012503412 0.043580867
0002b0 6b 32 47 bc 83 8f 15 3c bf bd af bd f7 79 b5 3c
       -0.012158017 0.009128454 -0.08581113 0.022152884
0002c0 5e b2 4f bd f4 ee a0 bb 7a e0 d2 3a a1 02 80 3c
       -0.050707214 -0.004911298 0.0016088628 0.015626254
0002d0 88 d7 bd 3c a6 26 3a 3c 6d 6b 09 bc 73 32 ef 3c
       0.023174062 0.011361754 -0.008387429 0.02919886
0002e0 02 61 6e 3c 08 81 47 bd 50 2b af bd d2 5d 31 3d
       0.014549496 -0.04870704 -0.08553183 0.043302365
0002f0 81 4a f0 bc d0 4d 27 bd af eb f8 3c 4b 83 1e 3d
       -0.029332401 -0.040845692 0.03038582 0.03869943
000300 b7 10 73 bd e9 1d a3 bd d8 2c 34 3d 26 9a ad 3c
       -0.059342112 -0.07964689 0.04398808 0.021191668
000310 34 96 54 3c f2 6f 6b bd fe 10 9b bd eb 31 ee 3b
       0.012975264 -0.057479806 -0.075716004 0.0072691343
000320 5c 06 3c 3d 00 93 1b bd c5 12 fa bc 6b 0e 1b bd
       0.045904502 -0.037981987 -0.030526528 -0.037855547
000330 46 c2 49 bd 5c 80 62 bc bf bf 45 bd 8d 5e 9b 3c
       -0.04925754 -0.013824549 -0.048278566 0.018965984
000340 c2 f3 1a bd a9 47 9c bc 8d 8f 31 bd 8f ac 25 bd
       -0.03783012 -0.019077139 -0.04334979 -0.040447768
000350 e2 44 97 3d 25 11 91 bd bf f8 a3 bd f0 c4 60 3d
       0.07386185 -0.07083348 -0.08006429 0.054875314
000360 6d 60 85 3c 71 07 0f bd 9c b6 00 bd cf 73 1f bc
       0.016281331 -0.034919206 -0.03142415 -0.009732201
000370 b0 fa a0 bb cb 1f 57 bd 43 38 d9 ba db c7 4b bc
       -0.004912697 -0.052520555 -0.0016572553 -0.012437786
000380 62 65 6d bd 7d 1c af 3d 18 11 29 bd 62 e3 2b bd
       -0.057958014 0.085503556 -0.041276067 -0.041964896
000390 94 cb a6 3c 18 11 19 3d 6a 99 83 bd e2 06 a8 3c
       0.020360745 0.037369817 -0.06425746 0.020511094
0003a0 e5 50 46 bd ad a1 e7 3c aa 3f f7 bb ca e0 f9 bb
       -0.04841699 0.028275335 -0.007545431 -0.007625674
0003b0 3d ed 0f 3c ef bf 0f 3c 85 63 c3 3b 1c 46 01 bd
       0.008784589 0.008773788 0.0059627914 -0.031561002
0003c0 d3 78 6d 3c d8 10 11 bd b7 e2 dc 3c 94 9c a9 bc
       0.014494139 -0.035416454 0.026963575 -0.020704545
0003d0 f8 06 d3 3c 47 03 94 3c a7 3b 97 bd 8a 86 d9 bb
       0.025760159 0.018067969 -0.07384425 -0.0066383528
0003e0 e1 a7 88 3d 2b c6 68 bb 6f bc 72 bb a2 71 a3 bc
       0.06672645 -0.0035518508 -0.0037038585 -0.019951645
0003f0 19 e8 65 3b f6 c5 0e 3c 6a 01 1d 3d fb 66 7e bd
       0.0035080968 0.00871419 0.038331427 -0.06210993

cnns.2.bias f4 [64]
000000 1d fd 1c 3c 63 cf 7f 3d c6 de 5a 3d ad f7 83 bc
       0.009581831 0.06245364 0.05343511 -0.016109312
000010 46 c3 3d 3d 5a ba 8f bd 4d 21 4a 3d e7 b4 9d 3c
       0.046328805 -0.070179656 0.049348164 0.0192513
000020 70 9e 53 3d 54 a9 2e 3a 35 3e 05 b8 ce 98 c1 bc
       0.05166477 0.0006662805 -3.1767606e-05 -0.023632433
000030 b6 ee f8 bc 40 9f 7b bc 51 5b 0d bd ee 1f 34 3d
       -0.030387264 -0.015357792 -0.034510914 0.043975763
000040 cc 37 f1 3c 71 93 b4 3c 7a 97 16 3d 4e 5e ff bc
       0.029445551 0.022042962 0.036765553 -0.031172898
000050 ff b1 e6 bc 5c a8 46 ba 46 32 ee 3c 82 59 a2 3c
       -0.028161047 -0.0007578188 0.029076707 0.019818071
000060 27 f4 7b bc 20 3f 7e 3b a1 9d 69 bb a6 d2 b1 3b
       -0.015378035 0.003879495 -0.0035646933 0.0054267226
000070 ce 02 23 bb c5 49 e8 bc d6 e7 73 39 6c 40 80 bd
       -0.0024873498 -0.028355489 0.00023260652 -0.062622875
000080 4d 8a 26 3d be d2 0b 3c 1b 10 47 bd 35 31 eb 3c
       0.040659238 0.008534132 -0.048599344 0.028709987
000090 f8 b7 2a 3d b8 ca 17 3d cd 29 4a bc ed 1a db 3c
       0.041679353 0.037058562 -0.012339068 0.026746238
0000a0 73 66 2d b9 36 2d 4f 3d b8 9d 77 bd 15 9a 83 bd
       -0.00016536731 0.050580226 -0.060453147 -0.06425873
0000b0 14 19 8a 3c 18 a2 75 3d 08 83 34 bd 04 0a 1c 3d
       0.016857661 0.059969038 -0.044070274 0.03809549
0000c0 33 93 4c 3d b2 e3 5a bd 27 8e 35 3d 44 11 4f bd
       0.049945068 -0.053439803 0.04432502 -0.050553575
0000d0 01 18 1f bd 07 17 9e bc 0f fd 00 bc 1c 2b 27 bd
       -0.03884125 -0.01929809 -0.007872834 -0.040812597
0000e0 1a e6 6e 3d 93 8f 29 bc 57 78 44 bd 5a bb 87 3c
       0.05832491 -0.010349172 -0.047966328 0.016568828
0000f0 6d ed 21 3d bc fe 0b bc cb 72 be bc a8 97 c1 bc
       0.039533067 -0.00854462 -0.023248097 -0.023631886

linear.0.weight f4 [16, 3328]
000000 72 18 ab bc 05 0f fb 39 cc a8 19 bb 3f 85 b2 bc
       -0.02088568 0.0004788564 -0.0023446558 -0.021792052
000010 fd 2d 34 3b 69 94 69 bc 2b 02 0e ba 47 bb 26 bc
       0.0027493231 -0.014256575 -0.0005417193 -0.010176486
000020 d3 c5 2d 3b 4a 48 fb 3b b3 41 98 bc 67 eb 87 bc
       0.0026515618 0.0076685296 -0.018586015 -0.01659174
000030 c0 2e 56 37 6c b7 75 bc 59 c7 31 bb 07 be fe bb
       1.2766279e-05 -0.014997344 -0.0027126877 -0.007774118
000040 70 e3 92 39 37 0b 22 3c f4 99 59 3a c7 2c 30 bc
       0.00028016744 0.009890369 0.0008300834 -0.010752863
000050 be 66 c3 3b 5f fd a9 3b 05 37 e8 bb 99 72 1f 3c
       0.0059631756 0.005187675 -0.007086637 0.009731912
000060 34 09 00 3c 7d 26 9b bc 80 17 57 bb e8 d7 99 3b
       0.007814694 -0.018939251 -0.0032820404 0.0046949275
000070 90 ea e4 ba d8 8f 48 3c cc af d6 3b cd 69 87 bc
       -0.0017464925 0.012241326 0.0065517183 -0.016529942
000080 f5 22 4d 3a 6d dc 26 bc 4a 98 08 3a c7 0b 7c bc
       0.00078253384 -0.01018439 0.0005210681 -0.015383667
000090 cf a0 5b bb ab 15 45 bc 17 b1 f4 3b 12 22 f7 bb
       -0.0033512597 -0.012029092 0.0074674 -0.0075419033
0000a0 e5 5d 25 bb f8 61 1c 3c 91 a1 39 3c 43 ab a2 bc
       -0.0025232967 0.009544842 0.011330024 -0.019857055
0000b0 6c 67 92 3a 79 a4 1a bb dd b8 a8 bb 97 90 bc bb
       0.0011169738 -0.0023596568 -0.0051489905 -0.005754541
0000c0 a8 8f 86 bc 67 eb a2 bc 05 e4 21 bc 33 cd 29 3c
       -0.016425923 -0.01988764 -0.009881024 0.010363865
0000d0 2f 59 d1 bb 0e bd 10 3c ae 90 49 3b 24 b2 c4 bc
       -0.0063888053 0.008834137 0.0030756402 -0.024010725
0000e0 32 b3 07 3c 76 51 13 bc 10 40 9d 3b f3 04 42 bb
       0.00828247 -0.00899159 0.0047988966 -0.0029605
0000f0 81 18 67 bc 2c 23 47 bc 61 6a 8e bb 39 81 71 bb
       -0.014104963 -0.012154382 -0.0043461774 -0.0036850704
000100 3f 10 6c 3b 8e cf 1d 3b 58 e7 0c 3c e9 0e 3a bc
       0.0036020426 0.002408001 0.0086000785 -0.011356094
000110 16 f5 5c 3b 98 09 a5 bc bb 07 94 bc 9e 95 16 3a
       0.0033715419 -0.020146176 -0.018070092 0.00057443406
000120 9e ad 39 bc d9 26 1f 3b 94 fa 5b bc c2 76 b2 bc
       -0.0113328975 0.002428463 -0.013426442 -0.021785144
000130 a0 2e 1f 3a 04 22 86 bb d3 76 19 ba 81 0d 7b bc
       0.00060723163 -0.0040934104 -0.0005854193 -0.015323044
000140 a3 59 61 3b ee a2 80 bc 0c b3 9c 3b ed ba b8 3b
       0.0034385703 -0.01570269 0.0047820862 0.0056375177
000150 48 91 66 bc 9c 09 e0 3b da 1f cd bb 2b d3 00 3c
       -0.014072724 0.006837083 -0.0062599005 0.007862846
000160 aa 18 da 3b f8 12 8b b9 8d a2 15 bc e6 d7 9b bc
       0.006655772 -0.0002652628 -0.009132993 -0.019023847
000170 8f 08 34 bc 70 f7 12 3b 28 6d 30 3c e3 9b 65 bc
       -0.010988369 0.0022425316 0.010768212 -0.014014217
000180 f7 a8 46 bb 11 7a 2f 3c d4 ba 76 bc 45 de a7 bb
       -0.0030313113 0.010710255 -0.015059192 -0.005122932
000190 7a 44 1c 3c bb 2e 53 bc 3e dc 2c 39 cc fa 20 ba
       0.00953781 -0.012889559 0.00016485245 -0.0006140887
0001a0 42 91 36 3c 57 79 cf bb ec c5 21 3a e9 81 e7 3a
       0.011143031 -0.0063316035 0.0006171155 0.0017662618
0001b0 5b 67 1b bc 50 f2 e9 3b f6 d2 1a 3c 28 e2 3b 3c
       -0.009485091 0.0071394816 0.009449711 0.011467494
0001c0 13 1b 51 bc 0d 6f 90 bc 01 2f d8 bc ca 5b ca bc
       -0.012762803 -0.017631078 -0.0263896 -0.024701972
0001d0 69 03 9e bc 8b 08 e7 ba 15 2b a1 bb d9 b4 fc 3a
       -0.019288735 -0.0017626447 -0.004918466 0.0019279971
0001e0 f9 d9 85 bb 35 9e 3a 3c a7 d3 4c bc dc c4 52 bb
       -0.0040848223 0.011390259 -0.012501634 -0.0032160794
0001f0 e7 8f 18 3b 72 84 a2 bc 87 3f 9e bb 8e cf 2d 3c
       0.0023279132 -0.019838545 -0.0048293504 0.010608567
000200 b5 2c 17 bc 51 b1 64 3b a0 82 a7 bc 84 c9 29 3c
       -0.009226968 0.0034895728 -0.020448029 0.0103629865
000210 16 8e 02 bb 61 9e bc 3b 97 88 ce 3a f6 6c 21 bc
       -0.0019921116 0.005756185 0.001575726 -0.0098526385
000220 a4 2c e1 bb b4 b5 1c bb 91 fb 1d bc d7 14 68 bc
       -0.0068717767 -0.0023912014 -0.009642498 -0.014165125
000230 3f de b0 bc 0c 00 30 3c e1 3e a7 bc 65 7c a5 3b
       -0.02159035 0.010742199 -0.020415725 0.0050502294
000240 85 97 d7 bb 8a 18 ab bc c3 b7 05 bc 54 88 b3 bc
       -0.006579342 -0.020885725 -0.008161488 -0.021915592
000250 5f 6b 86 bc 0a cd 0e 3c fc 8c 9e bc db 13 0d 3c
       -0.01640862 0.008715877 -0.019354336 0.008610691
000260 0d eb 61 bb 94 f5 58 bc 3a 8c 55 bc a7 40 a4 bc
       -0.0034472377 -0.013242144 -0.013033921 -0.02005036
000270 e4 a7 1b 3b 24 7c 56 3c 99 47 a9 bc e9 b7 ff bb
       0.0023751194 0.013091121 -0.020664023 -0.007803906
000280 61 b3 80 bc 03 08 d6 bb 28 f8 ea 3b 75 9f 75 b8
       -0.015710535 -0.006531717 0.007170696 -5.8561058e-05
000290 e8 41 dc 3b 9a 8e ca 3b d1 23 2c 3b ff fa e3 3b
       0.006721724 0.00618155 0.0026266465 0.0069574113
0002a0 d2 b0 07 bc 4b ad b8 bc 1c 0a 25 3c b8 68 50 3b
       -0.008281903 -0.02254357 0.010073211 0.0031800698
0002b0 58 7b 78 bc f0 66 d5 ba 8c 2f 1d 3c b0 55 ff 3b
       -0.015166126 -0.0016281288 0.009593856 0.007792197
0002c0 ea 42 6e 3c 62 5f 39 bc 06 d3 52 bc 43 17 6a bc
       0.014542321 -0.011314245 -0.012867695 -0.014287773
0002d0 14 88 8f 3b c0 c1 e6 3b 86 5b 87 bc f0 db b4 3b
       0.0043802354 0.00704214 -0.016523134 0.0055193827
0002e0 24 40 28 bc 7e 48 49 3c f4 03 a9 3b 37 eb 45 bc
       -0.010269199 0.01228535 0.005157942 -0.012080005
0002f0 36 e8 85 bb 7a 1f 6c 3c 99 47 48 bc aa e0 c5 bb
       -0.0040865196 0.0144118015 -0.012224101 -0.006038745
000300 5d c0 a3 bc 55 a6 47 bb da 55 09 bc 82 ed cb bb
       -0.019989187 -0.0030464132 -0.008382285 -0.0062233815
000310 29 dd 07 bb c0 58 b8 bb b4 73 ee 3b 60 65 32 3c
       -0.0020731187 -0.005625814 0.0072769765 0.0108884275
000320 a0 8e 63 ba 76 2b 3e 3c 30 a0 f5 3a c0 17 a1 3a
       -0.00086806156 0.011607042 0.0018739756 0.0012290403
000330 e3 61 8a 3c ab ff 21 bc 76 63 72 3c 8e 5d 30 3c
       0.01689238 -0.009887616 0.014794221 0.010764493
000340 80 c0 52 3a 24 ee 13 3c 34 2d 8e 3b a7 91 91 3b
       0.0008039549 0.009028945 0.0043388847 0.004442412
000350 e1 fa 9f bc 4f 2d b8 bc 9d 20 92 bc f7 83 fd ba
       -0.019528808 -0.022482542 -0.017837817 -0.0019341697
000360 6d cc b6 bc 36 c6 45 3b 83 fc 7a 3c 20 fa db bb
       -0.022314275 0.0030177957 0.015318993 -0.006713167
000370 19 0b 31 3c 7e 1b 9c bc 7b ed d0 3b b7 c6 9d 3a
       0.010805869 -0.019056078 0.006375966 0.0012037371
000380 72 27 ae bb 46 38 9d bc 70 c6 0f bc 9e 48 52 3c
       -0.005314761 -0.019191872 -0.0087753385 0.012834696
000390 03 69 a8 bc 47 98 85 3b 34 19 bb 3b 7c 5e 5f bc
       -0.020557886 0.0040769908 0.0057097916 -0.013633367
0003a0 7f 33 1a 3b 92 1a dc 3b db 5c 91 bb f9 e2 5f bc
       0.002352923 0.0067170346 -0.004436118 -0.013664954
0003b0 41 21 23 3c 64 04 bc 39 3d 58 0e bc 12 81 36 bc
       0.009956659 0.00035861426 -0.00868803 -0.011139171
0003c0 2e bb 46 3c cb 04 5f bc 4d 91 17 3c 4c c2 49 bc
       0.012129588 -0.013611983 0.009250951 -0.01231439
0003d0 71 07 73 bc c3 c2 8e bc 7c b6 79 bc d6 4d 02 bc
       -0.014833317 -0.017426854 -0.015241262 -0.007953128
0003e0 05 2b 58 bc 02 63 50 ba 68 7f 57 3b 31 9e 96 39
       -0.01319385 -0.00079493236 0.0032882337 0.0002872809
0003f0 65 14 39 bc a4 e8 bb bb c6 f7 8a 3b 5f 19 d9 bb
       -0.011296366 -0.00573452 0.0042409627 -0.006625339

linear.0.bias f4 [16]
000000 34 b1 5f bc 35 f4 39 3c 94 a8 37 ba e8 77 38 bc
       -0.013653088 0.011349727 -0.0007006016 -0.011259057
000010 1b 88 bd 3b 9b 06 f3 3b 29 38 f2 3b 1c e4 01 3b
       0.0057840473 0.007416559 0.0073919487 0.0019819802
000020 9f 61 00 3d 41 a2 97 bb af 5a 4b bb 3e f9 75 ba
       0.0313431 -0.0046274965 -0.0031029393 -0.0009383148
000030 ab a5 87 3a b5 d5 17 bc 5f c6 69 bb a0 17 35 bc
       0.0010349056 -0.00926726 -0.0035671217 -0.011052996

linear.2.weight f4 [1, 16]
000000 21 af 9f bd 34 58 a2 3d 69 2f 17 be 6c 4d 84 3d
       -0.07797075 0.0792698 -0.1476418 0.064600796
000010 02 ba 48 3c 15 bb 3f bc 4d b6 c5 bd 8a ee e9 3c
       0.012251379 -0.011702319 -0.09653912 0.028556127
000020 62 0a 58 3e a3 53 32 3e af 18 ef bd 65 02 01 be
       0.2109771 0.17414717 -0.1167463 -0.1259857
000030 9f c2 47 be ab 09 0c be 51 eb 63 bd aa 6d 50 3e
       -0.19507836 -0.13675563 -0.055644337 0.20354334
