models/trainingmodels/start_0.pth (torch, 337595 bytes, 12 tensors)

linear_relu_stack.0.weight f4 [64, 104]
000000 00 a3 1e 3a 78 11 10 bd a0 b9 1f bd 00 04 78 bb
       0.00060515106 -0.03517291 -0.038995385 -0.003784418
000010 08 53 78 bd c3 ca a4 bd b5 eb b3 3d c8 b9 98 3c
       -0.06062606 -0.08046486 0.08785192 0.018643275
000020 e1 4c 60 bd cc c6 2c bd ce f5 2a bd e1 7a 43 bd
       -0.054760817 -0.042181775 -0.041738324 -0.04772461
000030 79 2d a0 3d 44 01 dc 3c 3e 14 9c bd ce 0c 89 bd
       0.07821173 0.026856072 -0.076210484 -0.066918954
000040 83 df 9f 3d e4 7b ba bd 55 28 61 bd d3 ee 54 bd
       0.07806303 -0.091056615 -0.054970104 -0.051985573
000050 73 7d c8 bd 58 18 e6 bc 8a 28 0a 3d f7 47 93 3d
       -0.097895525 -0.02808778 0.033730067 0.071914606
000060 24 08 9a bd b0 fc 9c bc 40 ac 83 3c 96 9b 0c 3d
       -0.07521084 -0.01916346 0.016073346 0.034328066
000070 e4 5a 35 bd af a1 9f 3d 87 70 86 3d c2 cf 70 3d
       -0.044276133 0.077945106 0.06564432 0.058791883
000080 66 f6 30 bd 82 c7 74 3d 0c 6e 9f bd de a3 b8 bd
       -0.043203734 0.059760578 -0.07784662 -0.0901563
000090 5a 9b 60 3d f5 28 9b 3d 2c ee 8a bd cb d0 a0 3d
       0.054835655 0.07576171 -0.06783709 0.07852324
0000a0 a0 2a 8f 3c 22 73 13 bd 40 2b 91 3b 50 f2 c7 bb
       0.01747638 -0.03599847 0.0044302046 -0.006101884
0000b0 74 5d 9e bd 52 8e 25 3d 34 94 b0 3c 79 3b b8 bd
       -0.077326685 0.04041893 0.021555044 -0.089957185
0000c0 6b c7 a0 3d 25 6b af bd 4e 07 50 3d 12 d6 2e 3d
       0.07850536 -0.08565358 0.050788216 0.042684622
0000d0 3b 0f b2 bd f4 2b 99 bc b0 a8 4e 3c 65 45 c4 3d
       -0.08694311 -0.018697716 0.01261346 0.095835485
0000e0 9e fb 1b 3d 7f bb 81 bd 6b 90 5e bd 8c 69 94 3c
       0.038081758 -0.0633459 -0.054336946 0.018116735
0000f0 7a 1b 65 3d 42 a1 59 3d 21 1f 8b 3d 28 dd 43 3c
       0.055934407 0.053132303 0.06793047 0.011954583
000100 18 93 86 bd 30 b9 c2 3c 43 b9 b1 3d 9f 70 6c bd
       -0.06571025 0.023769945 0.08677914 -0.05772459
000110 6a 57 82 bd 3f df 74 bd 4c 2f af bc c1 4d 90 3d
       -0.06364329 -0.059783217 -0.021384858 0.070460804
000120 a0 56 d6 bb 4e 34 8b bd f0 35 b6 bb a1 f1 21 bd
       -0.006541088 -0.06797086 -0.005560629 -0.039537076
000130 61 33 b3 3d 05 e9 af 3d b6 66 10 3d 1c f7 99 bd
       0.08750034 0.08589367 0.035254203 -0.075178355
000140 a1 f4 a1 bd 69 63 88 3d 9d ed 5c bd f1 f6 7b bd
       -0.079079874 0.06659586 -0.053937543 -0.0615148
000150 f0 05 ae 3b de 33 50 bd 25 5c 8a 3d c4 81 bc bd
       0.0053107664 -0.050830714 0.067558564 -0.09204438
000160 98 0b 9b bd c0 f8 23 bc fd 69 80 3d 6c 63 ab bd
       -0.07570571 -0.010008037 0.06270216 -0.083685726
000170 c0 aa cf 3b e8 02 0f 3c 8a 40 17 3d 88 61 62 bd
       0.0063374937 0.00872872 0.036926784 -0.055268794
000180 4f 82 b1 bd a1 f1 ab 3d 38 13 77 bc b5 2c c2 3d
       -0.086674325 0.083956964 -0.015080266 0.094811834
000190 d3 98 b7 bd 5c d4 a2 bc 50 df dc 3b ed ed 8e bd
       -0.08964696 -0.019876651 0.006740488 -0.069789745
0001a0 0c 4d de bc 88 3a 7a bc 8d 0e 8d 3d f8 df d9 3c
       -0.027136348 -0.015272744 0.06887541 0.026596054
0001b0 00 24 b4 bb 4d 11 33 bd ed 8a 71 bd 0f fb a8 3d
       -0.0054974556 -0.04371767 -0.05897038 0.082510106
0001c0 bf 16 b9 3d 64 f8 b4 bc f4 b4 9a bd 20 df 46 3b
       0.090375416 -0.022091098 -0.07554045 0.0030345395
0001d0 64 ab 91 bc 04 32 b3 3c 93 55 ad bd 30 ce f3 bc
       -0.01778192 0.021874435 -0.084635876 -0.029761404
0001e0 39 ac 88 3d 0c 4c 9c bd 68 7d 75 3c 24 5d fb bc
       0.06673474 -0.07631692 0.014983512 -0.030684061
0001f0 c4 50 b6 bc b4 3e ac bd 64 f9 f6 3c 58 82 c4 bc
       -0.022255309 -0.08410397 0.030148216 -0.023987934
000200 fe b1 03 bd 4b bd 8c 3d 50 4d 93 bc 94 33 67 bd
       -0.03215217 0.06872042 -0.017981201 -0.056445673
000210 b0 8b 0f bc e3 33 aa bd 60 a4 50 3b c8 29 86 bd
       -0.008761331 -0.08310678 0.0031836256 -0.06550938
000220 30 17 03 bc 92 6c af bd 6e 2b 06 3d 80 dc 05 bb
       -0.008001134 -0.0856563 0.03275626 -0.0020425618
000230 3d a1 82 bd 98 6a 61 3c d8 57 cd 3c e9 6c 41 bd
       -0.0637841 0.013758324 0.025066301 -0.047223005
000240 b2 58 2a 3d 64 0c 02 bd b5 71 86 3d 82 6f 12 3d
       0.041588493 -0.031750098 0.06564657 0.035750873
000250 56 c3 0c 3d 63 8d ad bd 80 fd ba ba 6e 92 3d 3d
       0.034365974 -0.08474233 -0.0014266223 0.046282224
000260 35 04 24 bd e8 af 0e 3c fc ca b4 bd 00 c0 fa 36
       -0.040043075 0.0087089315 -0.08827779 7.4729323e-06
000270 52 66 63 3d 35 50 68 bd a6 27 a8 bd f9 7e a6 3d
       0.055517502 -0.056717116 -0.08210687 0.08129687
000280 00 94 50 3c 9e 5b 6c 3d 80 06 df bc c6 4e 37 3d
       0.012730598 0.05770456 -0.02722478 0.04475286
000290 e8 9a 5d 3c 80 e1 5b bd 99 57 c5 3d 82 db 59 bd
       0.013525702 -0.05368185 0.096358486 -0.053187855
0002a0 cc 6d d8 3c c7 ca b9 bd dc 85 e3 bc b1 d1 1b bd
       0.026419543 -0.0907188 -0.02777379 -0.038041774
0002b0 5e de 9b bd 07 1a bc 3d 30 ab 5a bc 5a 6b 1b 3d
       -0.076107726 0.09184652 -0.013346478 0.037944175
0002c0 ea 38 21 3d 58 ca f4 bc 42 49 4f 3d 3c ba a7 bc
       0.039360918 -0.029881641 0.050606973 -0.020474546
0002d0 cb 92 b4 3d 69 42 c4 3d 47 b5 68 bd 1d 1c 83 3d
       0.08817061 0.09582979 -0.056813505 0.064018466
0002e0 8c 0c a3 bd 0a c6 40 bd ef 81 ac 3d 4f fc 50 bd
       -0.079613775 -0.047063865 0.0842322 -0.05102187
0002f0 65 d9 a3 3d ec 7f 90 bd 68 74 bb bd f3 92 3d bd
       0.08000449 -0.07055649 -0.09153062 -0.04628272
000300 6a 8f 3d 3d 33 44 af 3d 21 ef 9d 3d e2 a1 36 3d
       0.04627935 0.0855793 0.07711626 0.044587977
000310 fc 35 2e bd ea ee a0 bd ae da 21 bd 9a 88 2b 3d
       -0.042531952 -0.07858069 -0.03951519 0.04187832
000320 6a c4 2e 3d 8b 26 57 bd ea 1d 8d bd 9f 1d c4 bd
       0.042667784 -0.05252699 -0.06890471 -0.09575962
000330 30 02 7e 3c 5a b6 53 3d eb 64 95 3d 98 59 63 3c
       0.015503451 0.051687576 0.07294639 0.013876341
000340 80 7e c7 bd 78 70 9f 3c 96 d3 53 3d e3 f2 86 bd
       -0.09740925 0.019462809 0.051715456 -0.06589296
000350 66 01 56 bd 4a da 0c bd f0 72 7a bc 78 5f ae 3c
       -0.052247427 -0.034387864 -0.015286192 0.021285757
000360 03 d5 93 3d 8a e6 5f 3d e6 d0 28 3d de 1f 86 bd
       0.07218363 0.05466322 0.041214846 -0.06549047
000370 a0 49 17 bb a1 a5 98 bd 94 31 b0 bc 35 57 86 bd
       -0.0023084655 -0.07453466 -0.021508016 -0.06559602
000380 b8 b2 d0 3c b8 9b 8c bc 94 04 38 bd 90 ed b9 3c
       0.025475845 -0.017164096 -0.04492624 0.022696286
000390 28 56 f9 bc 15 30 80 3d 28 33 28 bc 88 dd 22 bd
       -0.03043659 0.06259171 -0.010266103 -0.03976205
0003a0 03 dd c1 3d fd a9 92 3d 5a cb 6c bd 00 5f 32 bc
       0.09465983 0.07161329 -0.05781112 -0.010886908
0003b0 ba 3e 0c bd 60 d4 0d bb 6c ba 8d bd 40 06 be 3a
       -0.03423951 -0.0021641478 -0.06920323 0.0014497712
0003c0 02 10 02 bd 1d c1 b3 bd 16 b9 6e bd f0 45 82 3c
       -0.031753547 -0.08777068 -0.05828198 0.01590249
0003d0 00 69 e6 3a f7 0d 9d 3d 06 d5 14 3d 8a 3d 9e bd
       0.00175789 0.07668679 0.036335967 -0.077265814
0003e0 bf 82 b5 bd 78 0b ab 3c 56 17 85 bd 28 a5 6e bd
       -0.088628285 0.020879492 -0.064985916 -0.058262974
0003f0 86 e8 5b 3d ca 6e 5d 3d 01 5c 9f bd 81 84 97 3d
       0.05368855 0.054060735 -0.0778122 0.0739832

linear_relu_stack.0.bias f4 [64]
000000 26 f8 57 3d 83 70 92 bd 21 fe 2f bd 17 68 87 3d
       0.052726887 -0.07150366 -0.042966966 0.066116504
000010 f3 f8 1b bd e5 03 aa bd 0e 9d 1e 3d 30 e9 f8 3b
       -0.038079213 -0.08301524 0.038723998 0.0075961575
000020 22 b8 3b 3d b2 89 83 bd 3e ce 00 bd 74 40 e2 bc
       0.0458299 -0.06422748 -0.031446688 -0.027618624
000030 64 34 c5 3c fe 53 78 3d a3 ab b9 3d 33 df b8 3d
       0.024072833 0.060626976 0.0906594 0.09026947
000040 82 ef b8 bd 08 06 36 bc 28 d1 4f bc d0 1d f2 3b
       -0.090300575 -0.011109836 -0.012684144 0.007388808
000050 31 76 c2 3d c0 1b 08 3c 26 46 63 3d 40 74 a8 3a
       0.094951995 0.008307397 0.05548682 0.0012852028
000060 48 5e 34 3c 1b fd 63 bd ea 02 43 3d 6e aa 06 3d
       0.0110088065 -0.055661302 0.0476102 0.03287738
000070 55 4a 8b bd 60 4e e8 bb 55 f2 81 3d b8 fd dc bc
       -0.06801287 -0.007089421 0.06345049 -0.026976451
000080 c2 9a 04 bd e6 7b 73 3d 05 a7 96 3d 2f dd 7a bd
       -0.03237415 0.05944433 0.07356075 -0.061246093
000090 7c 2e e9 3c 80 7d 0b bd f0 8d 9a bc 1e 57 69 3d
       0.028464548 -0.034055233 -0.01886651 0.056967847
0000a0 91 ff a7 3d 00 9a 5b ba df ce 2c bd a0 e4 b1 bd
       0.08203042 -0.0008377135 -0.042189475 -0.08686185
0000b0 f2 5d 50 bd 20 82 0c bd 9e 48 2d 3d da 2c 36 3d
       -0.050870843 -0.034303784 0.04230558 0.044476368
0000c0 80 46 14 ba c0 89 88 3c 91 7a a9 3d 71 9c 93 3d
       -0.0005656257 0.016667247 0.08275331 0.07207573
0000d0 7d cc 8a 3d f5 8a a2 3d 18 8f 11 bd 83 56 51 bd
       0.06777284 0.0793666 -0.035536855 -0.051107895
0000e0 f9 50 78 bd f0 e8 c2 bb e0 8d 91 3c 10 25 99 bb
       -0.060624097 -0.0059481785 0.017767847 -0.0046736076
0000f0 d9 64 96 3d cd d8 63 bd 24 6e e5 3c 6a f3 a9 bd
       0.07343454 -0.05562668 0.02800662 -0.08298381

linear_relu_stack.2.weight f4 [64, 64]
000000 00 70 4f 38 78 4e 18 3d 8e 73 bb 3d e4 f2 ba 3d
       4.9456954e-05 0.03718421 0.091529 0.09128359
000010 c0 ca c2 bd 92 47 fa bd a4 d0 a3 bd 80 2d 7a 3b
       -0.09511328 -0.12220682 -0.079987794 0.0038174093
000020 a0 e7 1c 3d 80 31 db bb 00 93 aa bb 44 7e 80 bd
       0.038306832 -0.0066892505 -0.005205512 -0.06274083
000030 fc e0 bf bd a0 17 07 3c 78 1c 9f 3c a8 bb 1f bd
       -0.09369084 0.008245379 0.019422755 -0.038997322
000040 aa 67 f5 3d 30 db 9f bd 8e 5b ae bd 80 60 0a bb
       0.11982663 -0.078054786 -0.085135564 -0.0021114647
000050 1c c9 78 bd 2e 44 a7 3d 20 83 0a 3c 54 6f 93 3d
       -0.060738668 0.08167301 0.008454114 0.071989685
000060 e0 92 47 bc 98 88 a6 3d 2c be 8d 3d 86 30 a6 bd
       -0.012181014 0.08131522 0.06921038 -0.08114724
000070 00 7d 92 bc 26 13 f7 bd 4c d3 4e 3d 90 e9 82 bd
       -0.01788187 -0.12064199 0.050494477 -0.06392205
000080 a0 93 3f bc a0 d0 ed 3b b8 42 94 bd fc 26 24 bd
       -0.011692911 0.007257536 -0.07239288 -0.04007624
000090 9c 6a 9e 3d 58 9f 13 bd 30 cc 65 3d 40 82 12 3c
       0.07735178 -0.036040634 0.05610293 0.008942187
0000a0 2e cd ec 3d fa db f7 bd 10 cd f5 bd 92 28 d3 bd
       0.115625724 -0.12102504 -0.12002003 -0.103104725
0000b0 40 d2 97 3c 4a a8 e9 bd f0 40 39 bc cc c2 69 3d
       0.018532872 -0.11409052 -0.011306986 0.05707054
0000c0 2c b5 41 3d ac 9f d1 bd a0 b2 a9 bc e8 52 09 bd
       0.04729192 -0.10235533 -0.020715058 -0.03352633
0000d0 6e 14 ea 3d 80 b2 1a bb a0 a4 42 3d 4c 8f ba 3d
       0.11429678 -0.002360493 0.04752028 0.09109363
0000e0 48 f7 e3 3c 70 c7 56 bc 90 f9 ff bc be 12 a2 3d
       0.027827874 -0.013109073 -0.03124693 0.07913731
0000f0 50 67 50 3c c8 6b 01 3d f8 0b 8f bd 98 32 f1 bc
       0.012719944 0.03159693 -0.06984705 -0.02944307
000100 f0 9b bc bc d4 a9 70 3d 00 29 19 ba 40 2d 81 bd
       -0.023023576 0.05875571 -0.00058425963 -0.06307459
000110 f8 89 04 bd 78 14 21 bd 0e a9 fd 3d f0 1a 7a 3c
       -0.03235814 -0.03932616 0.1238576 0.015265211
000120 60 35 a8 bc 82 3b e7 3d 00 d1 ce 3d 96 1a ed bd
       -0.020533264 0.11290647 0.10098457 -0.115773365
000130 ec 01 7c 3d b8 59 49 3d b4 21 01 3d f8 73 d9 3d
       0.06152527 0.049157828 0.031526282 0.106178224
000140 04 d6 73 bd b8 0a 22 bd 7a 9a fb 3d 80 a6 61 3d
       -0.059530273 -0.039561003 0.122853234 0.055090427
000150 38 2c bd 3c 40 b8 57 bc dc 80 6e bd 84 1e 69 bd
       0.023092374 -0.013166487 -0.05822836 -0.056913868
000160 02 54 fd 3d 84 42 4a 3d 74 b1 98 3d 0c fd 5e bd
       0.12369539 0.04937984 0.074557215 -0.054440543
000170 28 2c b6 bd 80 41 66 3d 2a 8c fe bd c8 4f 5c bd
       -0.08895141 0.05621481 -0.12429078 -0.053787023
000180 30 06 e1 bc 64 dc 33 3d f8 89 4c 3d 14 99 80 bd
       -0.02746877 0.043911353 0.049936265 -0.06279197
000190 b8 5c 9b 3d 0c 94 a1 bd a2 3f 8b bd 30 c6 35 bd
       0.07586044 -0.07889566 -0.06799246 -0.04437846
0001a0 82 52 86 bd 92 36 88 3d 22 bc d4 bd fc 18 6f bd
       -0.06558706 0.066510335 -0.10387446 -0.058373436
0001b0 a0 53 8b bc 2c ff e5 3d a0 ce 24 3d 30 58 c7 3c
       -0.017007649 0.11230311 0.040236115 0.024334043
0001c0 00 f4 1e 3a b2 db ff bd 50 37 b6 3c 18 5e ba bd
       0.00060635805 -0.124930754 0.022243172 -0.09099978
0001d0 42 c9 82 bd 48 ac b6 3c ae d2 87 3d 00 30 ff b9
       -0.06386043 0.022298947 0.06631981 -0.00048673153
0001e0 de a0 b0 bd b8 61 42 bd e8 81 27 3d 20 7a 80 3c
       -0.08624433 -0.047456473 0.040895373 0.015683234
0001f0 30 25 a7 3c 4c d7 b9 bd 28 66 f7 3d 80 d4 82 bc
       0.020403475 -0.09074268 0.12080032 -0.015970469
000200 88 8b 43 bd 7e e5 b6 3d 78 63 3b bd d8 f7 a5 3c
       -0.04774049 0.08930491 -0.045749158 0.020259783
000210 ac 40 c4 3d ea 2a e1 3d 54 a4 a1 bd e0 3e e9 bd
       0.09582648 0.10994513 -0.07892671 -0.113889456
000220 d0 47 23 3c d6 4c eb 3d 60 0b 40 3d ea 0b c9 bd
       0.009965852 0.11489265 0.046885848 -0.098167256
000230 b6 81 bf 3d 7c dd 4f 3d 00 c8 dd b9 40 2d 55 bb
       0.09350912 0.050748333 -0.00042301416 -0.0032528192
000240 00 13 a8 bc e8 67 f4 3c b4 53 aa 3d 08 ed a5 bd
       -0.020516872 0.029834703 0.08316746 -0.08101851
000250 96 b0 c1 bd 98 e9 cf bd 56 88 a3 bd ce 46 df bd
       -0.09457509 -0.10151976 -0.079849884 -0.10902177
000260 3c 6a 97 bd 10 3e 7e bc 20 7c ba bc ec 7e 2d 3d
       -0.073933095 -0.015517727 -0.022764266 0.04235737
000270 78 57 9e 3d a0 9a 32 3d e4 1c 19 bd 94 a1 5a 3d
       0.07731527 0.043604493 -0.037381068 0.05337675
000280 94 e7 2a bd 00 9c c5 3b 60 cc ab bb b4 34 4c bd
       -0.041724756 0.0060305595 -0.0052428693 -0.04985495
000290 d4 69 3a 3d 24 45 38 bd 40 32 04 3d 40 5d a6 3d
       0.04551108 -0.044987813 0.032274485 0.08123255
0002a0 80 21 b9 ba 2c 93 3e bd a8 e4 a4 3c f0 a5 18 bc
       -0.0014124364 -0.046527073 0.020128563 -0.009316906
0002b0 54 cb 1d 3d 00 b4 23 bb e2 1d fc 3d 82 24 c1 bd
       0.038523987 -0.0024979115 0.12310387 -0.094307914
0002c0 64 61 af bd 52 99 9d bd 84 7b 07 bd 22 32 ab 3d
       -0.08563498 -0.07695259 -0.033076778 0.083591715
0002d0 40 bd d4 3c ee 52 d8 bd 86 8a b2 3d 8a 22 d1 bd
       0.025969148 -0.105626926 0.087178275 -0.10211666
0002e0 e0 ba e1 bd 42 7a d9 3d a2 5c f3 3d b0 e9 ad 3d
       -0.11021972 0.10619022 0.11882903 0.08491838
0002f0 22 04 a0 3d 1c d9 69 3d 90 be e1 3c 88 ed be 3c
       0.07813288 0.057091817 0.027556688 0.023306623
000300 14 21 6c bd f8 48 fa 3d be 5a d8 3d 0a da f7 3d
       -0.057648733 0.12220949 0.10564183 0.121021345
000310 68 3a 72 bd e4 f5 d2 3d 3c bd 91 3d 74 f2 41 bd
       -0.05913773 0.10300806 0.07116172 -0.047350362
000320 ec 23 9b 3d cc 1f a0 bd 32 82 c5 bd 88 40 85 bd
       0.07575211 -0.07818565 -0.096439734 -0.06506449
000330 a8 a3 86 bc 18 8a da bd 12 35 8f 3d 6c f2 7a 3d
       -0.01643546 -0.106708705 0.06992544 0.061266348
000340 f4 7e 8e 3d e8 63 2f 3d 40 72 78 bb 0e 7e f6 3d
       0.06957808 0.042819887 -0.0037909895 0.12035762
000350 90 67 45 3c a0 d9 95 bd 64 ce c4 bd 84 ef 6a 3d
       0.012048617 -0.07316899 -0.096096784 0.057357326
000360 00 a6 d9 b9 02 eb f3 bd 74 df 9e bd f6 65 f0 bd
       -0.00041513145 -0.119100586 -0.07757464 -0.117381975
000370 d0 e6 3b 3d 2e d8 b2 3d dc 4a fb bd ca b0 b9 3d
       0.045874417 0.08732639 -0.12270138 0.09066923
000380 72 bd 95 bd f4 24 3b 3d a2 e3 86 bd e8 ac cb 3d
       -0.073115245 0.045689538 -0.06586386 0.099450886
000390 7a f9 dd bd 90 be 3a bc d4 b0 f3 3d 4a eb eb 3d
       -0.108385995 -0.011397973 0.11898962 0.11519487
0003a0 80 32 fe bc 8c db 29 bd 90 72 5a 3c c0 5d ae bc
       -0.03102994 -0.04146914 0.013332978 -0.021284938
0003b0 04 fb 0a 3d be ff a3 3d 4c 85 da bd 64 d7 4e bd
       0.033930793 0.08007763 -0.106699556 -0.05049838
0003c0 da 1f e7 3d 00 fa a4 3b 64 3a a1 3d 84 5d 67 bd
       0.11285372 0.005034685 0.07872465 -0.056485668
0003d0 40 23 64 3c 08 7a 12 bd 98 83 a2 3c c8 2a cd 3c
       0.01392442 -0.03576091 0.01983814 0.025044814
0003e0 8a b3 87 3d 78 d0 12 3d 1c 08 a6 3d f0 e3 72 3c
       0.06626041 0.035843343 0.081070155 0.014824852
0003f0 f2 87 97 3d 64 d7 b1 3d be 36 93 bd a8 ea 31 bd
       0.073989764 0.086836606 -0.071881756 -0.043436676

linear_relu_stack.2.bias f4 [64]
000000 34 4d c0 3d 10 e4 5b 3d 72 59 b4 3d 34 be 63 3d
       0.09389725 0.053684294 0.08806123 0.055601314
000010 9c d3 73 bd 70 7e 4b 3c 88 0f 6b bd c0 29 42 3b
       -0.05952798 0.012420282 -0.05738786 0.0029626936
000020 5c 62 09 3d 7a e8 87 3d f8 80 eb bc 84 ce 6b bd
       0.03354107 0.06636138 -0.02874802 -0.057569996
000030 4e 59 ab bd 32 0f 80 3d 14 24 01 bd d0 73 ff 3d
       -0.08366643 0.06252898 -0.031528547 0.12473261
000040 7c 4e a5 3d b0 8e 23 3d e0 b9 c4 bc e0 78 a0 bb
       0.0807161 0.039931 -0.024014413 -0.004897222
000050 8e f3 8f bd 98 66 c1 3c 32 42 c7 bd 40 4f fc 3b
       -0.07028876 0.02360849 -0.09729423 0.007699877
000060 c0 45 15 3d c6 98 b5 bd f4 45 89 3d 0c f4 db bd
       0.036443472 -0.0886703 0.067027956 -0.107399076
000070 00 5e e1 3a dc 76 99 3d e6 d8 dd 3d 2a 20 8e 3d
       0.0017194152 0.07493374 0.10832386 0.069397286
000080 3a 44 ec bd 36 b5 cc bd 48 b2 c3 bc 70 dc 88 3d
       -0.11536451 -0.09995501 -0.023888722 0.0668267
000090 f4 25 8f 3d 8c bb 91 3d 74 3f 39 3d 8c 74 f2 bd
       0.06989661 0.0711585 0.04522653 -0.11838636
0000a0 96 cb e2 3d b8 3a 65 3d 54 49 05 3d 50 10 52 3d
       0.11073987 0.0559642 0.032540634 0.051285088
0000b0 70 95 a1 bd 70 27 ce bc 1a b5 c9 3d a0 4f d5 3c
       -0.07889831 -0.02516529 0.098489955 0.026038945
0000c0 a8 d6 9f 3d f8 86 a4 3d 50 de b9 bc f0 ec c4 bd
       0.07804614 0.08033556 -0.022689015 -0.09615505
0000d0 80 b9 36 3d 58 7f 59 bd a4 f0 aa bd 30 74 0c bd
       0.0446105 -0.05309996 -0.0834668 -0.034290493
0000e0 78 8c dc 3d 70 33 94 bd f2 b8 f2 bd c0 3c e4 3c
       0.1076898 -0.072363734 -0.11851682 0.027861
0000f0 36 a3 c6 bd 00 78 9f ba 50 8a 99 bc 92 10 d6 bd
       -0.09699099 -0.00121665 -0.01874271 -0.10452379

linear_relu_stack.4.weight f4 [1, 64]
000000 ec 81 18 bd 30 2c dd bd ee cd ae bd c8 59 88 bc
       -0.03723328 -0.10799444 -0.08535372 -0.016644374
000010 92 08 a9 bd 20 ac 2b bc 6e 96 cf bd 80 9b 7f 3b
       -0.08253588 -0.0104780495 -0.10136114 0.0039002597
000020 38 09 f0 bc 58 ea b3 3c d8 78 8d 3c 74 10 6a bd
       -0.02930127 0.02196233 0.017269537 -0.057144597
000030 40 54 7f bd 80 ab 34 bc 00 48 ef bd 6c 4b b6 bd
       -0.062336206 -0.011027217 -0.11683655 -0.08901104
000040 66 36 9f 3d 7c 5d a9 3d 76 ad 85 3d c0 68 64 bc
       0.077740476 0.08269784 0.06527226 -0.01394099
000050 46 2c dc 3d 7e 4e 96 bd 78 a1 e9 bc d8 55 97 bd
       0.10750632 -0.0733919 -0.028519377 -0.0738942
000060 14 31 24 bd 26 a8 9f 3d e8 2c 24 3d 04 1e b9 3d
       -0.040085867 0.07795744 0.04008189 0.09038928
000070 b0 85 66 3c 88 49 d1 bd 0e 40 da 3d f0 4e 9b 3d
       0.0140699595 -0.10219103 0.10656749 0.075834155
000080 fc 5d a3 3d 9c 12 67 bd 74 0c 35 bd dc 32 84 3d
       0.079769105 -0.05641423 -0.04420133 0.06455013
000090 38 aa af bd d0 63 d7 bc 68 67 94 bd b0 6c 88 3d
       -0.085773885 -0.026292711 -0.07246286 0.066613555
0000a0 74 93 61 3d 0c 14 23 3d 84 1e db 3d 7e 47 bf bd
       0.055072263 0.03981404 0.1069918 -0.09339808
0000b0 00 4c 2f bc d2 b4 8c bd 10 af b6 bc 90 3b a0 3c
       -0.010699272 -0.06870426 -0.022300273 0.019559652
0000c0 98 6f fc bd b0 9a 10 bc 20 d3 5d bc a8 1a 6c bd
       -0.12325972 -0.008825943 -0.013539106 -0.05764261
0000d0 34 e1 75 3d c6 0c e5 bd 54 65 2d 3d 18 fc ec 3d
       0.060029224 -0.11184077 0.042332962 0.115715206
0000e0 b4 38 81 bd 34 3a 21 bd 90 6e 5f 3c 8c d2 b4 3d
       -0.063096434 -0.039362147 0.0136372 0.08829221
0000f0 62 20 95 3d f0 24 ae 3c 38 2f 8f 3c e8 f0 2c 3d
       0.07281567 0.021257848 0.01747857 0.042221934

cnns.0.weight f4 [32, 2, 3, 3]
000000 6d 50 37 3e aa da 1e be 8b 8d 43 be 0f 94 fa 3c
       0.17901774 -0.15513101 -0.19096963 0.030588178
000010 c8 f0 ac bd 03 c9 5e 3d 69 a5 d0 3d 5c 61 df 3d
       -0.08444363 0.05439092 0.101877995 0.10907242
000020 b6 cd 94 bd a7 96 46 3e dd 77 52 be be 6f c5 bd
       -0.07265799 0.19393407 -0.20553537 -0.09640454
000030 d0 06 66 3c 70 07 60 3e b4 43 35 3d d0 e2 6b 3c
       0.01403971 0.21877837 0.04425402 0.014397338
000040 64 9b 0c be 1e 23 b3 3d c8 b6 00 be b3 52 a8 bd
       -0.13731152 0.087469324 -0.12569726 -0.082188986
000050 46 8e 3c bd 77 0e 4b 3e dc 99 5c bb 4d 59 b4 bd
       -0.04603412 0.19829737 -0.0033661043 -0.08806095
000060 8d 16 5e be ce fe 6e be 72 0f 42 3e a5 d5 2f be
       -0.2168829 -0.23339388 0.18951204 -0.17171343
000070 a3 85 9c bd c6 f1 29 3e c2 52 85 3d 5a c3 ba bd
       -0.07642677 0.16596135 0.065099254 -0.091192916
000080 68 56 88 3c 3b 0c 14 3e 9a 60 af bd 9d 7d 5b 3e
       0.016642764 0.1445779 -0.08563347 0.21434636
000090 a1 02 68 3e b8 bf 6b be 66 c2 42 be cb 8f 1d 3e
       0.22657253 -0.23022354 -0.1901947 0.15386884
0000a0 cd 3d 00 3d 22 d7 e3 bd 80 b9 10 3e 98 1c db 3d
       0.031308938 -0.11125018 0.14133263 0.10698813
0000b0 e1 7c 37 3d 1a 84 02 be 35 77 4c 3e 3d f8 a6 3d
       0.04479683 -0.12745705 0.19967349 0.081528164
0000c0 c7 88 03 3e 68 78 d2 bd 86 4f 95 3d 62 46 f7 3d
       0.12845145 -0.10276872 0.072905585 0.12073971
0000d0 ba ca 4a 3e f4 57 47 bd 21 2b f2 bd 4a 51 3b 3e
       0.19803897 -0.048667863 -0.118246324 0.18292728
0000e0 55 e4 87 3d 27 cc 25 3e 9c a6 6e 3e 98 7c 65 be
       0.06635348 0.16191159 0.23305744 -0.2241081
0000f0 b4 4d ad bd 58 9e 2c be c3 20 d5 bd f8 42 86 3c
       -0.08462086 -0.16857278 -0.104066394 0.016389355
000100 84 aa 85 bd b4 8c 4b bd 36 df ad bd 44 f6 27 3d
       -0.06526664 -0.04969473 -0.0848984 0.04100634
000110 e8 f2 a8 3c 2f 98 ef 3d 60 c8 a2 3d c8 f9 8d 3c
       0.02062364 0.116989486 0.07948375 0.017331019
000120 de 5c 6c 3e 0a 21 c1 3d 18 fa 47 3e f4 85 f7 bd
       0.23082301 0.0943013 0.19528997 -0.120860964
000130 c1 bf 8e bd 5f 9b e5 bd 1c 7b 49 3e 37 33 5a 3e
       -0.06970168 -0.11211275 0.19675869 0.213086
000140 8e cf 8b 3d 37 95 93 bd 14 ce 61 3e 7b cc 59 be
       0.06826697 -0.07206195 0.22051269 -0.2126941
000150 f6 d5 3a bd 64 3f 30 3e 52 4e 25 3e f2 6c ca 3d
       -0.045614205 0.17211682 0.16143158 0.09884061
000160 bb 33 3e 3e 56 56 b4 bd 0e 4f 23 3e 96 41 2b bd
       0.18574421 -0.0880553 0.15948126 -0.041810594
000170 e9 e3 38 3e 50 54 0c 3e f3 59 9f 3d 21 35 52 3e
       0.18055691 0.13704038 0.07780828 0.2052808
000180 b8 91 c7 bc 46 c2 ac bd d3 52 1b 3e 68 84 3f 3e
       -0.024361476 -0.08435492 0.15168314 0.18702853
000190 d4 f9 9e bd d9 1d a7 3d 91 b3 5a be cf 13 b8 3c
       -0.07762495 0.0815999 -0.21357562 0.022470383
0001a0 50 88 5b bd 3a 28 00 3c 78 1d 4f be 12 ef 50 bd
       -0.053596795 0.007822091 -0.20226085 -0.051009245
0001b0 c5 2b 1f bd ff 8d e6 bd 87 1a 2e be 9c 8e 5d be
       -0.0388601 -0.11257552 -0.17002307 -0.21636432
0001c0 44 dd 19 be 0c 29 66 3e b8 a5 e6 3d f8 b8 b6 3c
       -0.15025812 0.22476596 0.11262077 0.022304997
0001d0 b7 81 ee bd f4 ae 64 3e 63 ad 64 be 59 c8 6d be
       -0.11645835 0.22332364 -0.22331767 -0.23220958
0001e0 6e d7 c3 bd 39 43 4d 3e ef e4 5f be 9e 4f 9b 3d
       -0.09562574 0.20045175 -0.21864675 0.07583545
0001f0 bf 06 f3 bd 38 52 87 bd d1 f0 4f 3c 35 7e e6 3d
       -0.11866521 -0.06607479 0.012691692 0.11254541
000200 2f 2c f4 3d 21 f8 b8 bd 3a 65 31 be a5 5a 69 3d
       0.1192249 -0.09031702 -0.17323771 0.05697121
000210 6c cc e5 bd 61 28 09 bd 6e a8 28 3e d0 d4 50 3b
       -0.11220631 -0.033485774 0.16470501 0.0031865127
000220 20 ad a2 3d bf 40 79 3d 93 02 6b be ca a3 a5 3c
       0.07943177 0.060852762 -0.229502 0.020219702
000230 1b d5 50 bd 22 d0 f0 bd 49 37 e4 bd 26 c9 b5 bc
       -0.050984483 -0.11758448 -0.11143357 -0.022190642
000240 ae e3 b2 3c d3 b8 04 3e ce b8 54 be 20 16 ad bd
       0.021837082 0.1296113 -0.20773622 -0.08451486
000250 88 1a 9a 3a 57 34 1c be 9f 64 74 3e c1 5c 68 3e
       0.0011757175 -0.15254341 0.23866509 0.22691633
000260 ec 7f bd 3d cd b1 40 3e 08 fd d3 bd da fb 66 3c
       0.09252915 0.18817826 -0.10350996 0.014098132
000270 60 18 0d bd 4e 65 4d bc fc b8 99 3d 46 cf 35 be
       -0.034447074 -0.01253636 0.07505986 -0.1775485
000280 82 ca 92 3d 3c b2 4f 3d 75 d2 f8 bd 94 d0 08 3e
       0.071675315 0.050707087 -0.121495165 0.13360816
000290 3e 11 66 3e 63 ef 01 3e 8a e7 33 3e 9b 9c bd bd
       0.22467515 0.12688975 0.17568794 -0.09258386
0002a0 90 56 05 3d 25 cf d7 bd b1 38 50 be 4a 31 91 3c
       0.032553256 -0.105375566 -0.20334126 0.017723698
0002b0 2e ad de 3d 80 c6 0c be 87 e4 8c 3d 11 9b bc 3d
       0.10872875 -0.13747597 0.06879526 0.09209264
0002c0 07 5c 29 3d 68 fa 06 be f0 f5 e5 3d 98 46 d6 bd
       0.04134753 -0.1318146 0.112285495 -0.104626834
0002d0 fe 58 2e be 60 21 15 3c ee 09 00 3e d6 77 21 be
       -0.17026135 0.0091021955 0.12503788 -0.1576837
0002e0 cf 52 83 bb 56 23 cf 3d bc 68 21 3d 92 43 fe 3d
       -0.0040076743 0.10114162 0.039406523 0.12415232
0002f0 dc c7 d6 3d 90 be 17 be 60 68 df bd 4e 88 33 be
       0.10487339 -0.14818788 -0.1090858 -0.17532465
000300 9c 98 33 bd 1a dc 99 3d c4 df 29 be 83 33 ff bd
       -0.04384671 0.07512684 -0.16589266 -0.12460997
000310 d4 a9 5e bd ef 39 36 be 13 ae 29 3e 62 eb 65 be
       -0.05436118 -0.17795537 0.1657031 -0.22453073
000320 9c 88 3c 3c d8 16 b9 bb b7 d4 f7 3d 94 9e 44 bd
       0.01150718 -0.005648475 0.12101119 -0.048002794
000330 d6 1c 4f 3e 81 54 29 3e e6 3b 36 3e d0 e5 e2 bd
       0.20225844 0.16536142 0.17796287 -0.110789895
000340 1d f6 5d be 8e 95 ab 3d 90 25 99 bd a2 62 2d be
       -0.21675916 0.08378135 -0.074778676 -0.16932157
000350 8a 81 70 be f2 70 d2 bd 2a 2d 1c 3e ba 1c 36 be
       -0.23486915 -0.10275449 0.15251604 -0.17784396
000360 68 ff aa 3c 4c 8a 53 be 3f cd ba 3d 9a bd 16 3d
       0.02087374 -0.20658225 0.09121179 0.036801912
000370 e2 2d ac bc d6 bc 32 bc 0d 50 5e be b0 ad 50 be
       -0.021017972 -0.01090928 -0.21710224 -0.20378757
000380 37 3f e2 3d 81 aa 17 be 0e 76 82 3d ec f8 8d bd
       0.110472135 -0.14811136 0.063701734 -0.06932244
000390 c0 cf 25 3c cf 4f 35 be 0c 08 45 bd ea 84 1a be
       0.010120332 -0.17706226 -0.048103377 -0.15089765
0003a0 68 12 25 bd 1c 7b 2b be ea 56 ec 3c 65 11 2c 3e
       -0.040300757 -0.16746181 0.028850038 0.1680351
0003b0 61 c8 10 3e 2b 91 45 be 8c 85 3f be 64 2a 29 3e
       0.14138938 -0.19293658 -0.18703288 0.16520077
0003c0 4f 15 87 bd 94 f9 52 bd fe b9 44 be 77 1c 23 3e
       -0.06595861 -0.051507547 -0.19211575 0.15928827
0003d0 de ca 4d be 6d 79 62 3e cb 09 07 be 50 6f 37 be
       -0.20096919 0.22116633 -0.1318733 -0.17913556
0003e0 ff 09 a8 3d 02 7d ea 3d 20 bc 63 bd 23 e4 62 be
       0.082050316 0.114496246 -0.05559933 -0.2215734
0003f0 6a 36 fc 3d 5a 7a 46 be 5a d7 18 be 7f 7a 27 3e
       0.12315066 -0.19382611 -0.149259 0.16355322

cnns.0.bias f4 [32]
000000 da a2 09 be 97 6f eb 3d d0 5d c0 3d dd 5a 34 be
       -0.13441029 0.114958934 0.09392893 -0.17612787
000010 d8 f9 4d bc fa 4b a0 bd 8a 31 05 be 45 1c 45 3e
       -0.012571774 -0.078269914 -0.13007179 0.19249065
000020 99 c3 12 bd c9 7e 8f 3d 54 1c 1e be f2 f7 4e bd
       -0.035831068 0.07006604 -0.15440494 -0.050529428
000030 2b 3b 5c bc ee 25 59 3e 53 85 2d be 66 5e fa 3d
       -0.013441841 0.21205875 -0.1694539 0.12225036
000040 e8 cf f3 bc 44 1b 45 bd 24 ca 57 bd 8a 72 41 bd
       -0.029762223 -0.048121706 -0.05268301 -0.047228374
000050 05 23 97 3b 31 13 a5 bd db b1 d7 3c 9b 16 22 3e
       0.004612329 -0.08060301 0.026329925 0.15828936
000060 10 d0 84 bc 13 c1 72 3d 4c ec 3b bc db 12 e8 bd
       -0.016212493 0.05926616 -0.011469912 -0.113317214
000070 55 55 71 be 24 d9 33 bd 49 df 08 3e f5 a5 45 bd
       -0.23567708 -0.043908253 0.13366427 -0.048253972

cnns.2.weight f4 [64, 32, 3, 3]
000000 ac 38 33 bd 17 07 4d bd 1c 94 26 3d 1c e0 8b bc
       -0.04375522 -0.05005559 0.04066859 -0.017074637
000010 5e 9e 08 3d 7e 26 52 3b b1 92 d6 3c 83 00 a9 bc
       0.033354156 0.00320664 0.026192995 -0.020630127
000020 dc db 81 bc c6 fd b7 bc b2 89 b9 bc c5 ba bd bc
       -0.015851907 -0.022459876 -0.022648666 -0.023160348
000030 04 8c 20 bd 7e 2d 57 bd 70 db 17 bd 46 4a 2c bd
       -0.03919603 -0.05253362 -0.037074506 -0.04206302
000040 76 02 b8 bc 82 86 c0 3b 3b 83 2b 3d a3 21 ee 3c
       -0.022462111 0.0058754096 0.041873198 0.029068774
000050 fe 45 4f bd 58 43 d6 bc 83 04 15 bd 16 ec 82 3c
       -0.05060386 -0.026155159 -0.036381256 0.015981715
000060 9a 0c 7a bc 41 cb 0b 3d 91 ff d2 3b 2f b3 3f bd
       -0.0152617935 0.034129385 0.0064391573 -0.046801742
000070 5d b4 b7 3c 13 58 94 3c 4f 95 2d 3d 79 5e 28 bc
       0.022424871 0.018108403 0.04237872 -0.01027643
000080 5d 1e 36 3d 24 9e 4e 3c 28 b9 b0 bc 1c 53 21 bc
       0.04446255 0.012610946 -0.021572664 -0.009846475
000090 d4 48 bd bc 96 f0 47 bb 26 7e cb 3c 00 27 6c bc
       -0.023106016 -0.003050839 0.024840426 -0.014413595
0000a0 2f 9c 1d 3d 75 a7 34 3c 6f f0 f4 3c 72 ba 70 3b
       0.038479026 0.011026253 0.029899804 0.0036732224
0000b0 f4 d1 a2 3a a5 94 f7 bc fc c0 9e 3c 38 8e 4b 3d
       0.001242219 -0.030222246 0.019379131 0.049696177
0000c0 50 95 40 3d 40 96 29 bc b4 de 76 3d d2 7b 61 bc
       0.047017395 -0.010350764 0.06027098 -0.013762431
0000d0 f8 05 36 bd 06 f0 80 3d cc 5b 45 bd 1a d1 77 3d
       -0.044439286 0.06295781 -0.048183247 0.06050215
0000e0 74 3d 30 bc a9 70 63 3d b9 21 3d bd 86 78 84 bc
       -0.010756839 0.055527363 -0.04617474 -0.016170751
0000f0 e4 ed 65 3c e7 d6 bb bb da d4 e8 3c ba 94 2f bc
       0.014033768 -0.0057324055 0.028421808 -0.0107166115
000100 7f 9d 50 3d c8 ce 51 bd b0 5f 07 bd 14 52 27 bc
       0.05093145 -0.051222593 -0.03305024 -0.01021244
000110 6a 6b cb bb b4 a0 16 3c d4 8d 69 bd 3a 38 23 3d
       -0.006207873 0.009193588 -0.057020023 0.039848544
000120 7b a1 21 bd 12 79 f4 3c 58 71 f4 3c c7 2d d6 3b
       -0.03946064 0.029842887 0.029839203 0.006536219
000130 85 fc 73 bd 92 f1 3d bb 2e d0 4e bd 0a 29 f9 3c
       -0.059566993 -0.0028983098 -0.050491504 0.030415077
000140 00 d8 aa b9 6a d0 a3 bc 26 db 4c 3c 11 60 45 3d
       -0.0003258586 -0.01999684 0.012503421 0.04818732
000150 63 46 b0 bc e2 9c 48 bd 36 b6 a1 bc fd 9c 8c bc
       -0.021517938 -0.04897774 -0.019740205 -0.017164702
000160 b0 95 27 3c c7 f6 2f bd 9b 9d c5 bc ec 40 05 3d
       0.010228559 -0.042959955 -0.024123004 0.032532617
000170 28 e8 e1 3b e9 44 19 bd 38 c2 71 bc 5b ab 66 3d
       0.0068941303 -0.037419233 -0.014755778 0.05631576
000180 16 0f 32 3c 88 48 a8 3c 6e 8d 19 3c 70 87 51 3a
       0.010867855 0.020542398 0.009372098 0.0007992899
000190 82 14 c7 bc 84 4e 82 bd 93 72 ab 3c 14 09 80 3b
       -0.024301771 -0.06362632 0.020928657 0.003907332
0001a0 fc ad e2 3c c9 5f 5a bd ca 08 3b 3d 8a 44 ee bc
       0.027670853 -0.053314004 0.04566268 -0.029085416
0001b0 ef 13 6a bd f9 11 43 3d 40 40 11 3d 72 42 09 bc
       -0.057147916 0.047624562 0.035461664 -0.008377658
0001c0 f8 0f 93 3c 9e 9e 07 bb 82 34 57 3d 21 c7 2a 3c
       0.01795195 -0.0020693908 0.05254031 0.010423453
0001d0 40 19 a5 bb b9 56 17 3c 22 b7 6b bc 8e fb 7d bc
       -0.0050384104 0.009236985 -0.014386924 -0.01550187
0001e0 0d f8 42 3c 8d c6 1c bd 55 4e 8c 3c 23 4e 73 bd
       0.01189996 -0.03827529 0.017127195 -0.05940069
0001f0 7e b1 2a 3d 69 04 5e 3d 44 44 18 bd 81 1f 1b 3d
       0.041673176 0.054203425 -0.03717448 0.03787184
000200 e0 01 e5 bb 40 34 2d 3a 99 51 4c 3d 0e 35 fe 3c
       -0.006988749 0.0006607212 0.049882505 0.031031158
000210 ef 94 37 3d 76 4c 2f bd 43 0d 0e 3d ee af 6a bc
       0.04481977 -0.04279753 0.034680616 -0.0143241715
000220 4a a4 9a bc 03 3a 1f 3d 1f 04 7c bd 24 c0 33 bc
       -0.018877167 0.038873684 -0.061527368 -0.010971103
000230 40 a8 99 bc 4b b9 10 3d 85 58 84 3b 18 86 68 bd
       -0.018756986 0.03533296 0.0040388727 -0.056768507
000240 6b 61 06 bd 71 c1 29 bd f6 d3 86 3c 76 17 15 3d
       -0.03280775 -0.041444246 0.016458493 0.036399327
000250 48 86 6c 3d e4 4d 72 bb 3e 48 ff bc c8 5c 6b bd
       0.057745248 -0.0036972696 -0.031162377 -0.05746153
000260 84 8e ed 3c b4 98 cc bc a2 93 39 3d 12 7c 03 3d
       0.02899862 -0.024975158 0.04530681 0.032100745
000270 81 d5 2d bd 41 de c5 bc ae 41 6d bd dc 73 12 3d
       -0.04243994 -0.02415383 -0.057923965 0.035755023
000280 d8 88 15 bc f0 44 44 3d 56 da 30 3d 93 3e 60 bd
       -0.009126864 0.047917306 0.04317697 -0.054747175
000290 70 c6 72 bd ad 06 43 3d 4e 3b 46 3d a8 b2 6e 3c
       -0.059271276 0.04761379 0.0483964 0.014568962
0002a0 2c 38 2c bd 26 a7 70 3b 75 47 29 3c a4 ed 92 3c
       -0.042045757 0.0036720722 0.010331978 0.017935582
0002b0 20 7f 13 3d ec e7 55 3b c7 58 35 3d bc f3 0d 3d
       0.036009908 0.0032639457 0.044274118 0.03465627
0002c0 6c ce e6 3c 60 c6 42 3c a0 63 f1 39 2f 76 58 bd
       0.028174601 0.011888117 0.00046041328 -0.052847084
0002d0 03 c1 3c bd 5d 15 a3 3b bf b4 a8 3c f6 59 48 3d
       -0.046082508 0.004976912 0.020593999 0.04891392
0002e0 74 63 1e 3d a9 ba 14 3d fe 51 e7 bc 30 eb c6 bc
       0.038669065 0.036310825 -0.02823734 -0.024282068
0002f0 a5 35 11 3d cc f0 71 bc 10 78 67 bd dc f8 3c 3d
       0.03545155 -0.014766883 -0.056510985 0.04613577
000300 fb 06 9f bc d4 43 46 bd b0 09 2f bc 87 b4 a8 3c
       -0.019412508 -0.04840453 -0.010683462 0.020593895
000310 0e c8 7c bc a0 f1 e0 3c 3e d3 de bc 82 39 65 bd
       -0.015428556 0.027458966 -0.027200337 -0.055963047
000320 d2 b7 80 bd 7e 9e 49 3d c4 fb 37 bc 02 d3 3c 3d
       -0.06285061 0.049223416 -0.011229459 0.04609967
000330 c0 15 a0 b8 1f fd ca 3b a2 21 55 3c 7e 84 4c bc
       -7.633446e-05 0.006194725 0.013008507 -0.0124827605
000340 e8 05 ef 3c 5b c1 95 3b 3a ca 6c 3d 54 52 47 bd
       0.029177621 0.004570169 0.057810046 -0.0486625
000350 ba 04 c3 bb b2 e9 32 3d b4 2e 19 3d 78 d1 3a bc
       -0.005951491 0.0436799 0.037398055 -0.01140248
000360 a7 72 0a 3d 42 ed e0 bc ee 24 51 bd 96 6a 13 bd
       0.033800747 -0.027456883 -0.05106061 -0.03599032
000370 a3 ed 4a bd 9e 61 d9 3c f8 eb 19 3d 8a ff 6d bd
       -0.049543034 0.026535805 0.037578553 -0.05810503
000380 86 ee 70 bd 76 41 14 3c cf 31 02 bd f6 6d 24 3d
       -0.058821224 0.00904881 -0.031785782 0.04014393
000390 7e 19 e2 bc 5f 46 b1 bb 38 90 bc 3c f6 ac 19 3d
       -0.027600046 -0.00541 0.023017988 0.037518464
0003a0 c8 13 5d 3d b0 46 48 bd f1 07 3b 3d 42 5b d7 bc
       0.053973943 -0.048895538 0.04566187 -0.026288632
0003b0 5e e3 00 bd 7c a1 89 3c ce 69 7e bd 66 44 43 3d
       -0.031466834 0.016800635 -0.062112622 0.04767265
0003c0 40 93 02 bb 9d b1 23 3c 8e a9 69 3d 26 d0 f1 bc
       -0.0019924194 0.009991077 0.057046466 -0.029518198
0003d0 e2 17 8e bc 4d 0d ec bc ee 99 f7 3c e8 d0 e5 3b
       -0.017345373 -0.028814936 0.030224767 0.007013429
0003e0 a1 0c dc 3c 3d 24 24 3d a4 d3 9c 3c 2e f6 63 bd
       0.02686149 0.040073622 0.019143887 -0.055654697
0003f0 8c 21 60 3c ee fd f9 3c 7e e1 f7 3c 73 4b 0c bd
       0.013679873 0.03051659 0.03025889 -0.03425164

cnns.2.bias f4 [64]
000000 c4 a7 35 3c 3c 66 33 3d d9 d3 af bc e3 a6 71 3c
       0.011087362 0.04379867 -0.021463322 0.014749262
000010 52 78 08 3d c0 9e da ba 30 03 77 3d a4 cd cc 3a
       0.03331787 -0.0016679391 0.060305774 0.001562525
000020 e0 16 28 bd ce 1c bd 3c 1b 90 9c bb dc 3b f2 3c
       -0.04103744 0.023085024 -0.004777921 0.029569559
000030 f4 55 a3 bc 92 12 aa 3c 46 31 a4 bc e4 f3 9f 3c
       -0.019938447 0.020760808 -0.020043027 0.019525476
000040 7c a0 6c 3d 08 9f 09 3b cd 68 74 3d 93 bb 1b 3d
       0.057770237 0.002099933 0.05967026 0.03802068
000050 0b 9f 4e bd b1 8b 05 bd ff fb 63 3d 9c 81 52 bd
       -0.050444644 -0.032603923 0.055660244 -0.051393136
000060 64 c0 4c 3b 54 23 79 3d 04 c0 67 bd d6 62 78 3c
       0.0031242603 0.060824707 -0.056579605 0.015160283
000070 8b a6 5d 3d 8a d2 1e 3d 9b 92 f0 bb 53 f9 f7 3c
       0.054113906 0.038775004 -0.0073416955 0.030270254
000080 d0 9c 28 bd 5b 6f 31 3d 43 15 eb bc 07 1e 24 bd
       -0.041165173 0.043319087 -0.028696662 -0.0400677
000090 5a 43 2a 3c 01 a8 1e 3c 1d 0b 1c 3d d2 81 ba bc
       0.010392034 0.00968361 0.038096536 -0.022766981
0000a0 46 b2 e4 bb 7a 82 ed bc c0 57 71 3c 18 13 07 bb
       -0.0069792597 -0.02899288 0.014730394 -0.0020610746
0000b0 39 d4 e3 3c 95 51 39 bd d8 45 9e 3c e8 ce 1e bc
       0.027811157 -0.04524382 0.019320413 -0.009692885
0000c0 a2 dd 55 3d 88 a6 60 bd e6 cd 77 bd fc e4 5d bd
       0.05221332 -0.054846317 -0.060499094 -0.054173455
0000d0 90 c1 9f bc c3 3d 27 bd f1 b4 89 3c 19 0a 25 bd
       -0.019501477 -0.040830385 0.016809912 -0.040292833
0000e0 de bb a0 bc af 1a 03 3d 1a a2 b3 bc 58 ba 4c bb
       -0.019620832 0.03200787 -0.021927882 -0.0031239
0000f0 cd 22 0f bd f6 e8 6c bd 08 24 b6 bb fb 94 ec 3c
       -0.034945298 -0.057839356 -0.0055584945 0.028879633

linear.0.weight f4 [16, 3328]
000000 5e 18 7f 3c 80 1b c3 b9 7b 97 00 bc 2e 2d a2 bb
       0.015569774 -0.00037213787 -0.007848616 -0.0049492335
000010 6f 09 c6 3b c0 01 56 ba 6e 02 86 bc e4 c6 f4 3b
       0.006043605 -0.0008163713 -0.01635858 0.0074699987
000020 f0 8b f7 ba cd 24 bb bb b6 79 f7 bb bc ed 25 bb
       -0.0018886309 -0.005711174 -0.007552351 -0.0025318703
000030 d6 6b 76 bc 94 4b de 3b 47 6d 81 3c 70 80 e3 bb
       -0.0150403585 0.006783912 0.015799178 -0.006942801
000040 c0 39 05 bb 20 ea 07 bc d4 87 28 3c e4 18 f5 3b
       -0.002032861 -0.008295566 0.01028629 0.007479774
000050 40 6e 88 3b aa b7 2d 3c d4 d9 e3 3b 00 18 3d 37
       0.0041635334 0.010602871 0.0069534574 1.1270866e-05
000060 42 b1 db bb 2c 3e 54 3c 60 7c 00 3a e1 a7 63 bc
       -0.0067044804 0.012954276 0.0004901346 -0.013895006
000070 f0 41 86 3a 3c 2f d4 3a d8 9c 99 3b c4 e2 ac bb
       0.001024304 0.0016188393 0.0046878867 -0.005276056
000080 be 55 64 3c 78 eb 1a bc d0 a3 71 bb 40 cb 29 bc
       0.013936458 -0.009455554 -0.0036871321 -0.0103634
000090 f2 7d 6d 3c 58 36 86 bc 56 81 6d 3c 00 0c cd 3b
       0.01449536 -0.016383335 0.014496168 0.006257534
0000a0 ec 5c d8 3b 65 f6 50 bc 80 2d 13 3b 66 ca 8f bc
       0.006602874 -0.0127540575 0.002245754 -0.017552566
0000b0 5c d6 1e bc 16 16 0d bc 6e 74 5d bc ad d6 87 bc
       -0.009694662 -0.008611223 -0.0135165285 -0.016581858
0000c0 de 89 23 bc 40 59 8c 3b 8e 51 63 bc 90 20 f2 3a
       -0.009981601 0.0042831004 -0.013874425 0.0018472839
0000d0 14 4d 3f 3c cc 1f d2 3b 6c 29 d3 3b 47 cf 88 3c
       0.011676092 0.006412482 0.006444147 0.0167004
0000e0 30 1d 39 3b 24 bb 8b bc 0a 56 7a 3c ec 1b c5 3b
       0.0028246157 -0.017057009 0.015279302 0.0060152914
0000f0 01 7c 8e bc 50 e5 15 3c 14 42 9c ba 25 01 62 bc
       -0.017393114 0.009148911 -0.0011921548 -0.013794218
000100 0a 3d 55 bc b0 13 91 39 41 20 39 3c 2a e4 06 3c
       -0.013015041 0.00027671224 0.011299194 0.0082331095
000110 6c 57 45 bb 70 54 bf 3a ad 73 4a bc c2 5a 65 bb
       -0.0030111922 0.0014597308 -0.012356681 -0.0034996723
000120 a6 83 0d 3c 61 8d 1a bc 74 f0 b3 bc b9 b9 7c bc
       0.008637344 -0.009433121 -0.021965243 -0.015425139
000130 36 1d 76 3c d5 5b b7 3b 85 45 a5 bc 5c 36 68 3b
       0.015021613 0.005595664 -0.020174751 0.0035432791
000140 55 11 83 3c 66 da 6f bb 74 58 30 bb e0 99 29 3c
       0.015999475 -0.0036598681 -0.002690819 0.010351628
000150 60 02 0e bc da 83 23 bc 63 ba 82 bc c4 d9 10 bc
       -0.008667558 -0.009980166 -0.015958017 -0.008840982
000160 c8 76 bf bb 9b 03 e8 3b e4 ee 9c bc 0c 36 3b 3c
       -0.0058430173 0.007080508 -0.01915688 0.01142646
000170 76 77 7c 3c 7c 48 c5 bb 94 89 ac bc 80 29 32 3c
       0.015409341 -0.0060206037 -0.021061696 0.010874152
000180 78 2d 94 bb 68 9c 51 bc f0 0a 10 bb b9 c9 8d bc
       -0.004522022 -0.012793638 -0.0021979176 -0.017308103
000190 a0 b4 b6 bc 88 05 45 ba d2 da 0b bc 32 52 44 bc
       -0.022302926 -0.0007515778 -0.008536058 -0.0119824875
0001a0 a4 7b 95 bb 4c f2 f6 3b d0 a0 f6 3b f8 40 a8 ba
       -0.0045618583 0.0075362083 0.0075264946 -0.0012836745
0001b0 40 75 6d bc 91 1b a6 bc f2 71 d8 bb 08 e8 7d bb
       -0.014493287 -0.020276817 -0.00660538 -0.0038743038
0001c0 60 b0 63 39 1f 1d 0a 3c 06 18 c4 3b 78 bc c1 bb
       0.00021714112 0.008429795 0.005984309 -0.00591236
0001d0 15 83 aa 3b f2 d4 33 3c 60 5b 75 ba 3a fd 59 3c
       0.0052036145 0.010976063 -0.0009359624 0.013305003
0001e0 9c 0a 3a bc 1d 7c 77 bc 86 3b 3e 3c da 53 88 bc
       -0.011355069 -0.0151052745 0.011610871 -0.016641546
0001f0 8c a6 53 3c 70 03 75 3b c8 a5 fe 3b ec a2 89 3b
       0.012918126 0.0037386082 0.0077712275 0.00420033
000200 4c c8 3a bb 21 a3 84 bc 48 4a 28 bb 1e 32 da bb
       -0.0028500734 -0.016191067 -0.002567904 -0.0066588065
000210 28 48 c5 ba 54 62 86 3b d6 6f 39 3c cc 0b 02 bc
       -0.0015051411 0.004101077 0.011318168 -0.007937383
000220 b7 99 06 bc 41 c7 82 3c f6 0d 69 3c 38 7f 97 3b
       -0.008215359 0.015964152 0.01422452 0.00462332
000230 92 ca 4f 3c 2b ba 5d bc 58 34 30 bc a1 ac 83 3c
       0.012682574 -0.013533155 -0.010754667 0.016073527
000240 30 f6 45 3c 5c d5 31 bb d8 fb 14 bc aa 22 82 bc
       0.012082621 -0.0027135229 -0.009093247 -0.01588567
000250 78 f5 0a 3c 0e 3d 40 bc f7 00 89 3c 0c 9e d1 bb
       0.008481376 -0.011733307 0.016724093 -0.0063970145
000260 a8 0b 35 bb 1a 64 76 3c 6a a7 2d bc 20 ce 7a bb
       -0.0027625356 0.0150385145 -0.010598997 -0.0038269833
000270 12 0b 93 bc 47 ec 9b bb f2 22 90 bb e3 0b 62 bc
       -0.017949615 -0.004758391 -0.004398697 -0.013796779
000280 07 06 61 bc cf d6 49 3c 26 6d 21 3c 36 92 30 3b
       -0.013734347 0.012319281 0.009852683 0.0026942617
000290 e2 84 da bb ff 3d b6 3b 70 cd a7 39 18 fa 73 bb
       -0.006668673 0.0055615897 0.00032005785 -0.0037227925
0002a0 dc 4d 72 3b 18 c4 85 bb 9a 69 47 bc f1 e4 83 bc
       0.0036972677 -0.004082214 -0.0121711735 -0.016100379
0002b0 8c 70 25 3b b6 d5 d2 3b 28 67 16 bc 2e c1 7a 3c
       0.0025244085 0.0064341677 -0.009179868 0.015304847
0002c0 12 44 33 3c fc e5 72 bc 46 00 4e 3b 4f 7a 03 3c
       0.010941522 -0.01482534 0.0031433268 0.008024766
0002d0 0c 29 d1 bb 1a 16 2d 3b e8 50 0d 3c 20 69 64 bc
       -0.006383067 0.0026410879 0.008625247 -0.013941079
0002e0 14 62 3b bc 5a 65 24 3c 46 c9 8d bc e1 8e 19 3c
       -0.011436958 0.01003393 -0.017307889 0.009372444
0002f0 52 d9 36 3c b3 af 31 3c 1e f2 07 3c 9a eb 32 bc
       0.011160212 0.010845113 0.008297471 -0.01092043
000300 aa c8 13 bb 72 e4 09 bc 39 fd f8 3b 00 ed 2a b9
       -0.0022550025 -0.008416282 0.007598546 -0.00016300753
000310 21 ec 89 3c 18 e9 1c 3c 98 1e a4 3b 18 5e 65 bc
       0.016836228 0.009577058 0.00500853 -0.0139994845
000320 dc a8 1b 3c a4 1c a5 bb 64 bf d2 3a d1 42 f8 bb
       0.009500708 -0.0050388146 0.0016078767 -0.0075763245
000330 90 cf 21 3b f0 22 a9 3b b0 7a 27 bc c0 88 55 ba
       0.0024690367 0.0051616356 -0.010222122 -0.00081456825
000340 58 3c 8f bc fe 82 2e 3b 80 69 25 3c 53 2c ac bc
       -0.017484829 0.002662837 0.010095954 -0.02101723
000350 2f 5d b0 bc b2 2d 1a bc 9a d9 2e 3b 60 80 56 3c
       -0.021528808 -0.009410309 0.0026679994 0.01309213
000360 10 ce 61 bc 42 37 60 3c 00 06 79 bc c6 d6 33 bc
       -0.013782039 0.0136850495 -0.015199184 -0.010976499
000370 94 ec 20 3c b6 34 a4 bc b4 c6 0c bc c0 a2 34 bb
       0.00982203 -0.020044666 -0.008592296 -0.0027562827
000380 00 0d 00 3c 84 a4 fb bb e8 89 36 bc fc 8a 6a bc
       0.007815599 -0.007679524 -0.011141278 -0.014315363
000390 80 cb dc 39 00 e8 ad 38 58 ab 82 ba cf fd 52 bc
       0.0004211329 8.292496e-05 -0.0009969277 -0.0128778955
0003a0 b0 4a ae 39 ae 6e 6c 3c f7 16 bc bb 58 d9 58 bc
       0.00033243513 0.014430685 -0.0057400423 -0.013235413
0003b0 52 10 17 3c 33 93 8b bb 00 e2 9c ba d4 f0 a7 bb
       0.0092202 -0.004259491 -0.0011969209 -0.0051251445
0003c0 51 e3 13 bc 62 9e 20 bc 18 49 54 bc 7e 16 29 bc
       -0.009026364 -0.009803386 -0.01295688 -0.010320304
0003d0 b6 f1 c0 bb a2 c0 1e 3b c0 6d a4 b9 bf 3c 98 bc
       -0.005888189 0.0024223705 -0.00031362288 -0.018583653
0003e0 0a ed 9c bc 7d 39 82 3c 6e 5c 7c bc 85 57 d7 bb
       -0.019155998 0.015896553 -0.015402896 -0.0065717124
0003f0 3d 79 a6 bc 48 79 a1 bc cc 3f a7 bb 26 e5 41 3c
       -0.020321483 -0.019711152 -0.0051040407 0.011834418

linear.0.bias f4 [16]
000000 01 1c a8 bb aa 07 90 3c f4 88 31 bc ae 88 4f 3c
       -0.0051302915 0.01758178 -0.010835875 0.012666864
000010 00 03 f6 bb 9a e7 d4 3b 08 a2 21 3b e0 f9 b2 3b
       -0.007507682 0.0064973356 0.0024663229 0.0054619163
000020 de 88 86 bc f8 9d 06 3b ba 5b 31 bc 0d f5 16 bc
       -0.016422685 0.0020540934 -0.010825092 -0.009213698
000030 22 68 48 3c 42 ad 2e bc 00 23 b0 38 a0 54 1e 3b
       0.012231858 -0.010661425 8.398853e-05 0.0024159327

linear.2.weight f4 [1, 16]
000000 a8 ab 0e 3e 6b 4f 92 bd ac 4a 20 be ef 37 33 be
       0.13932669 -0.07144054 -0.15653485 -0.17501806
000010 a0 61 3a bc 68 3d 98 bd 1f 7d 81 be aa 08 3b be
       -0.011375815 -0.07433587 -0.25290772 -0.18265024
000020 7c ed 90 3d ec e6 bf bd 80 88 58 bb 10 c6 44 3e
       0.070765465 -0.09370217 -0.0033040345 0.1921618
000030 04 dd 76 be 7a 43 28 3e 7c bb 65 be 48 64 6e 3e
       -0.24107748 0.1643199 -0.22434801 0.23280442
