models/trainingmodels/start_backup.pth (torch, 337595 bytes, 12 tensors)

linear_relu_stack.0.weight f4 [64, 104]
00000000: 6379 b93d e788 b3bd 2865 c8bc 464d 6b3d
00000010: eed6 9ebd f1f3 25bd 0c09 d93c e282 143d
00000020: 119f a2bd 3cbd a6bd 0a5d 733d f03c d3bc
00000030: 711b bbbd c413 8dbd 6e67 4e3d a2ff 2b3d
00000040: 78d8 c4bd 805e 19bc 9d80 c6bd 46ca 703d
00000050: 20b2 1d3c 3786 c43d f3bd a43d 05e7 b93d
00000060: f077 123c c87f 5dbd ea5a 063d eb7c c83d
00000070: a2fd b1bd 0cb6 de3c 4ff2 6dbd 4999 b13d
00000080: 99ca c43d 8dca a63d 873f a63d 63ec 863d
00000090: 8fd9 ab3d c066 93bd d923 bc3d 0f18 a53d
000000a0: ba40 3c3d 019f 1fbd 4640 4ebd 1db5 9d3d
000000b0: eef1 bebd 1a50 5a3d c0bd baba f1d4 903d
000000c0: 64d2 98bd aefb b1bd 8531 c23d 329a 503d
000000d0: 98bf 37bd 206d 64bb 800f 9ebd 1c21 b93c
000000e0: 4023 4abc 34bc e63c 9098 983c 9859 a3bd
000000f0: af84 adbd 771c c1bd 38a6 08bd cccf 8abc
00000100: d477 aabc d691 453d 9fc0 8d3d ba65 0c3d
00000110: 4586 8e3d d154 b53d d040 c5bc 634e 9fbd
00000120: 1bbd 923d d6c6 01bd 4082 873a a88a cbbc
00000130: e926 a23d 00f9 bbba 7aa8 193d f8de b5bd
00000140: e0e5 143c 0c06 e9bc 4008 8ebd 1f25 c23d
00000150: 5873 5b3c facb 1c3d bc26 a33c 046a 30bd
00000160: 0428 82bc 49a6 a5bd 2622 7cbd 601c 363c
00000170: 8824 26bc 30ef 963b f5bd 853d e248 253d
00000180: 34b6 d5bc 007e 3bbb 40bc ee3b 35da 98bd
00000190: 5e5a 6b3d c8df d6bc 90f4 ddbb 8219 6a3d
000001a0: 2297 683d 87ae a93d a42f 853c 49d5 923d
000001b0: 6d3f 8b3d e8b5 bebc f071 593c b162 66bd
000001c0: d434 b8bd 3144 b6bd 12b3 053d 0311 a53d
000001d0: 6ed4 293d 84b3 9e3c 8a04 85bd b008 f43b
000001e0: 2382 b03d 5532 bb3d 9763 40bd 0d7d 9f3d
000001f0: 9251 373d 99b1 b0bd 2082 48bd f939 1ebd
00000200: da81 9dbd 090f a4bd a0f7 c0bb fac1 7c3d
00000210: 4e3a 58bd 8459 e5bc 6dba c03d f0bd 34bc
00000220: 0f61 b63d 704c c13c 9876 63bd dfc6 4ebd
00000230: c212 71bd e751 84bd 8237 243d 9039 cb3b
00000240: 0c4a 0bbd 84c1 e23c 1f54 a6bd 26d4 3f3d
00000250: 60a4 6abb fe17 4c3d ae15 6c3d 6509 863d
00000260: 42c5 73bd 60e1 3fbb 1baa 853d aea5 0bbd
00000270: 02d9 723d 853e a6bd f02d f43b 4da1 be3d
00000280: 205f 09bb 3abb 1c3d 3825 b93c c06c 703c
00000290: c1f5 bebd 92be 303d a6d5 033d 6f75 8f3d
000002a0: 5a09 3e3d 7cdc 9a3c e795 49bd 8893 5ebd
000002b0: 2cc7 c7bd 7b90 883d 603b 513c 38c1 8ebd
000002c0: ac0b c13c 22e6 9abd 23fc 9dbd bc36 93bd
000002d0: 87af 9a3d 64b0 d53c fbbb 943d 6802 60bc
000002e0: 2e5b 5e3d bc4c b5bd bac6 6ebd 183a d73c
000002f0: 8530 9b3d 3bf0 43bd 4a39 69bd 3260 343d
00000300: cced cc3c 6852 cdbc 8011 38bc d867 9b3c
00000310: 79ab c73d 361b 4abd e71d 93bd 0b1f a0bd
00000320: 9786 a63d 412d 823d 3c26 9fbd 1e7a babd
00000330: 104b b23c f010 cabc a045 59bc 21ee 63bd
00000340: 801b 29bb ac18 843c 75b3 bbbd c3ed a23d
00000350: f7be 93bd eb08 adbd 3824 4abd 70fb d83c
00000360: bf30 b73d 5010 c73c 1c29 aebc c09b 9a3a
00000370: 62bf 8bbd 40d2 cd3b 633c 7ebd e55e 26bd
00000380: 17ed 2dbd 807f 503b ce23 203d 9f4f a73d
00000390: fb0b a9bd a862 12bd dc7e dc3c b408 ec3c
000003a0: fe06 38bd a104 933d 9486 57bd cc5f 9abc
000003b0: d0c0 fbbc 6c50 88bc 760a 7f3d 12ce 82bd
000003c0: fcae fa3c 613b b43d 3cc8 94bd c242 b4bd
000003d0: 1db8 b03d b517 813d 8005 533c fab6 1d3d
000003e0: d8cf 793c 4002 ba3b c269 6d3d 12f9 4e3d
000003f0: 6001 8f3b a67c 0c3d 1613 a1bd ca00 233d
0.09056356 -0.087663464 -0.024462298 0.05744674 -0.07755838 -0.040515844 0.026493572 0.036257632
-0.07940496 -0.08141562 0.0594149 -0.025785893 -0.091360934 -0.068885356 0.050391607 0.041991837
-0.09611601 -0.009360909 -0.096925 0.058786653 0.009624988 0.09595912 0.080440424 0.090772666
0.008939728 -0.05407694 0.032801546 0.09789451 -0.08690955 0.027186416 -0.05809241 0.08671815
0.09608955 0.08144102 0.08117586 0.06588056 0.083911054 -0.071973324 0.09186525 0.080612294
0.045960166 -0.038969997 -0.050354265 0.0770056 -0.09323488 0.053299047 -0.0014247224 0.07071865
-0.07462004 -0.08690582 0.09482101 0.050928302 -0.044860452 -0.0034855083 -0.077178 0.022598796
-0.012337506 0.028165914 0.018627435 -0.07976073 -0.08472573 -0.09429257 -0.033361644 -0.016944788
-0.020809092 0.048234783 0.06921505 0.0342767 0.06959204 0.08854068 -0.024078757 -0.07778623
0.07164975 -0.031683765 0.00103385 -0.02484639 0.07917578 -0.0014341176 0.037514187 -0.088804185
0.00908801 -0.028445266 -0.06935167 0.094797365 0.013394199 0.038280465 0.01991593 -0.043069854
-0.015888222 -0.08088357 -0.061556004 0.011115164 -0.010140546 0.00460615 0.06530372 0.04035271
-0.026087858 -0.0028609037 0.0072856247 -0.07463495 0.057459228 -0.026229754 -0.006773539 0.057153232
0.056784756 0.082852416 0.016258068 0.07169587 0.06799207 -0.023280099 0.013271794 -0.056246463
-0.08994451 -0.08899725 0.032641478 0.08059885 0.041462354 0.01937271 -0.064950064 0.0074473247
0.086185716 0.091404594 -0.046969976 0.077875234 0.044755526 -0.08627624 -0.048952222 -0.038629506
-0.07690783 -0.0801068 -0.005888894 0.061708428 -0.05278998 -0.027996786 0.09410558 -0.011031613
0.08905231 0.023596019 -0.05553302 -0.050482627 -0.05885578 -0.06460934 0.040092 0.0062019303
-0.034006163 0.027680166 -0.081215136 0.04683318 -0.0035803542 0.04982757 0.057637863 0.065447606
-0.05951429 -0.002927862 0.06526586 -0.03409355 0.059288986 -0.081173934 0.0074517652 0.093081094
-0.002096124 0.03826449 0.022600755 0.0146743655 -0.093242176 0.043150492 0.032186173 0.070048206
0.046395637 0.018903963 -0.049215224 -0.054339916 -0.09754786 0.066681825 0.012770504 -0.06970447
0.023565136 -0.075634256 -0.07714107 -0.07188174 0.075530104 0.026085086 0.07262417 -0.013672449
0.054286174 -0.088525265 -0.05829499 0.026272818 0.07577614 -0.047836524 -0.0569394 0.04403705
0.025015734 -0.025063708 -0.011234641 0.018970415 0.09749503 -0.049342357 -0.07183438 -0.07818421
0.0813114 0.06356288 -0.077709645 -0.09105323 0.021764308 -0.02466628 -0.013261229 -0.05564702
-0.0025803745 0.016125046 -0.09165088 0.07955506 -0.07214158 -0.084489666 -0.049350947 0.026487082
0.089448445 0.02429977 -0.021259837 0.0011795685 -0.06823613 0.0062811673 -0.062069308 -0.040617842
-0.042462435 0.0031814277 0.039096646 0.081694834 -0.08254238 -0.035738617 0.02691596 0.028812744
-0.044928543 0.07178617 -0.052618578 -0.018844508 -0.030731589 -0.01663991 0.062265836 -0.06386961
0.030601017 0.08800388 -0.07264754 -0.088017955 0.08628867 0.0630335 0.012879729 0.03850458
0.015247308 0.0056765378 0.057962187 0.0505305 0.0043641776 0.03429856 -0.078649685 0.039795674

linear_relu_stack.0.bias f4 [64]
00000000: 7f93 24bd 6345 bbbd 32c8 9fbd 9595 b53d
00000010: 936a a13d d5ca 1abd 0fb5 933d 12b0 713d
00000020: 3d04 69bd d09c 1ebc 8087 403b 0aa0 0c3d
00000030: 297b 8a3d 6037 853c 8e92 733d eb5c 61bd
00000040: 5ed0 90bd 6c8a a7bc 9300 9ebd 646a adbd
00000050: 7f91 bf3d 6dfb c33d 54f8 a33c f8f3 7abd
00000060: 88cc 1dbc 781a 8f3c 98a9 41bd aa9b 073d
00000070: 81be 923d 84a0 9a3c 585d a83c 6070 8f3c
00000080: 8001 a0bd 8b18 a9bd d595 4cbd 4507 9bbd
00000090: 00d9 92b9 3918 b13d 2cc7 943c 1e17 533d
000000a0: f6be 253d 6121 a23d bd8b 2cbd a6d1 683d
000000b0: d0a0 77bd 237a a93d b2da 2d3d 1351 6fbd
000000c0: 54c2 d43c 209d 7abd c88f 193c be42 183d
000000d0: 7dde a93d 5252 06bd 1508 ba3d 0671 c1bd
000000e0: d8c8 b7bd 9887 af3c 14d8 63bd 1098 9a3c
000000f0: adae 9dbd 6b0b 833d 34d7 d2bc 5a9f 9fbd
-0.040179726 -0.09144094 -0.07801856 0.08866421 0.078816555 -0.037791092 0.072122686 0.059005804
-0.056888808 -0.009680942 0.002937764 0.034332313 0.06761772 0.016261756 0.059465937 -0.055020254
-0.07070993 -0.020451747 -0.07714953 -0.08467558 0.09353923 0.0956944 0.020015873 -0.061267823
-0.009631284 0.017468676 -0.047280878 0.033107437 0.07165242 0.018875368 0.020552322 0.01750964
-0.07812786 -0.08256634 -0.04994758 -0.07569746 -0.00028008968 0.08647198 0.018161379 0.05153572
0.040465318 0.07916523 -0.042125452 0.05684056 -0.060456097 0.08275249 0.042444892 -0.058426928
0.02597157 -0.061185002 0.009372659 0.037173025 0.082943894 -0.03279335 0.09083573 -0.09445386
-0.08973855 0.02142696 -0.05562599 0.018871337 -0.076993324 0.06398662 -0.025737382 -0.07794066

linear_relu_stack.2.weight f4 [64, 64]
00000000: 3a17 c93d 2094 67bc 0cb7 7b3d c03c b0bc
00000010: 9cc1 73bd c2ae c4bd 50af d63d c687 833d
00000020: 7079 023d c002 143b 787b b83c 6836 bfbd
00000030: bc04 a73d fa54 e3bd 00c3 ba3c 08f8 f43c
00000040: 549c 3e3d 2054 2e3d 625b 96bd e072 753d
00000050: 1884 af3c 08de a53c 3047 313d b09b d8bc
00000060: 6040 6ebd 8435 6f3d ec08 9c3d 90a2 c83c
00000070: 0878 c23d 28e4 89bc 864a c5bd d8d1 a7bd
00000080: be05 8bbd 8800 ad3c 908a 5f3d 403a fd3c
00000090: 68da febc ecc0 cb3d 9032 f7bc c8be 803c
000000a0: 361a d13d c62a d4bd 7858 8b3c a2fe 91bd
000000b0: b266 f13d d0d7 563c d478 e73d c02f b43c
000000c0: c44c b8bd 008a a2b9 283a e2bd 1099 9e3d
000000d0: 0e4c 843d bcdb 8ebd 0672 ca3d f68f a53d
000000e0: 1e3e ec3d fabe b2bd 5c59 57bd 20a5 773d
000000f0: f02c bcbd 1cbf 863d 885b 57bd 5818 17bd
00000100: a002 d23d ac38 403d a886 9fbd 2e06 f03d
00000110: 5059 023c fc7b 123d d679 c83d 5c34 a3bd
00000120: f088 abbc 8a31 84bd f0bb adbc 1c75 603d
00000130: 8000 c8ba 803e 013b a896 b03c b2de b33d
00000140: 28b8 f4bd f845 60bd a094 413c 32b0 fbbd
00000150: 70ec f9bd bc6b 2f3d b8bf 7bbd 2882 f5bd
00000160: 80cf 8b3c d01b febc a011 8bbb f0e1 ad3d
00000170: b8e9 9a3d a460 42bd fef0 b3bd 88ee 8dbc
00000180: c452 d13d 1616 843d 68e7 3bbd 58f0 b63d
00000190: 9c9b 273d f041 14bc 0479 223d a87f 06bd
000001a0: 38ff 37bd 50f9 87bc 9a98 f6bd 9257 a9bd
000001b0: f871 23bd c00f ad3c a2c8 d23d 3461 633d
000001c0: de26 dd3d 96a9 adbd 46f9 c4bd 129c e33d
000001d0: 2c93 2cbd 36ed efbd 7ebd a23d 624b 863d
000001e0: e833 ca3d 2049 113d c22f ed3d c0c5 2abd
000001f0: c0e8 513b a0d4 793c a4fa 983d 90d4 3c3c
00000200: 7041 cbbd 109d b6bd 38dc c43c 2cc7 103d
00000210: 48a4 82bc 1cf6 223d 143b 3f3d ca4e c43d
00000220: c87d d23d 6cea c5bd 702f 5cbc a831 b83c
00000230: 82e2 bb3d bc37 30bd 140f 1c3d 8c9e 5e3d
00000240: c497 c6bd d045 06bd c0cf 75bd 6492 debd
00000250: ec8a bb3d 3831 d3bc f0b2 d23d c8ce bd3d
00000260: 38e1 883c 5080 9ebd 6e28 d43d 62a5 a43d
00000270: 70cc 673c 9eec b9bd 32bd f3bd 7ec7 8f3d
00000280: 1059 2fbc c06a d93b cc4d e33d 206a 64bc
00000290: aa8e b73d 0093 063c fc51 d3bd 4425 053d
000002a0: 4802 3f3d 6065 983c 0005 0a3b 50bd 613d
000002b0: f04e 96bc c03c 003c 1cfd ea3d 9266 acbd
000002c0: 4c95 753d 4237 cbbd 406b a0bd 4a9b e43d
000002d0: e00c 9bbb 1849 a7bd 6607 ca3d 0c24 1b3d
000002e0: c0bf 743b 7c42 2abd c27f a5bd 0002 7fbc
000002f0: d6ef e4bd d8d1 bebc 806f e8ba d0d2 f7bd
00000300: 4215 cf3d e484 93bd 7464 183d 2689 a6bd
00000310: c2ea e2bd 7427 5abd 0c96 5fbd c415 28bd
00000320: a03f 32bc 0051 8c3b ec5b 53bd 1860 693d
00000330: 607e 3dbd 5ca7 c6bd 60f8 bbbc 1889 ea3d
00000340: e06d b93d 8ac6 ecbd 4cc9 4b3d aa3b fb3d
00000350: 981e ebbc 8ae7 ba3d 005e 77bc 126a c13d
00000360: 340f 493d f0d5 2ebc 8873 b9bc e082 abbd
00000370: 7a2c f7bd 585c 2dbd c8b6 28bd 1866 8f3c
00000380: bcfb f1bd 40b3 ebbb e4bc d33d 5688 bb3d
00000390: 20c9 bd3c d841 b23d c0c7 a23b 1099 9fbc
000003a0: 68ce c43d 7039 fc3d ac79 84bd c8f1 32bd
000003b0: c870 ddbc 30b3 563d 0817 d1bc 229a b73d
000003c0: ace7 153d d847 88bd 7cfb 94bd bcc7 80bd
000003d0: a092 073d 8024 7dbb fe05 843d f07a ed3c
000003e0: 0a99 94bd ae1d d03d 7082 413c 3ace e1bd
000003f0: 0ee2 953d 54b0 2a3d 7a10 c4bd 8c13 20bd
0.09818883 -0.014134437 0.061453864 -0.021513343 -0.059510812 -0.09603645 0.10482657 0.06422381
0.031854093 0.0022584647 0.022519812 -0.09336549 0.081552 -0.11100192 0.022798061 0.029903427
0.046535805 0.042560697 -0.07341649 0.059924006 0.021425292 0.020247474 0.04328078 -0.026441425
-0.05816686 0.058400646 0.07618889 0.024491578 0.094955504 -0.016832426 -0.09633355 -0.081943214
-0.067882046 0.021118417 0.054575503 0.030911565 -0.031110004 0.09948906 -0.030175477 0.015715972
0.102100775 -0.10359721 0.017009959 -0.071286455 0.11787166 0.013112977 0.11302343 0.021995425
-0.08999017 -0.00031001866 -0.11046249 0.07744038 0.06459819 -0.06975505 0.098850295 0.08084099
0.115352854 -0.08727832 -0.052575454 0.06046021 -0.09188259 0.0657942 -0.052577525 -0.03688845
0.10254407 0.046929047 -0.077893555 0.11719929 0.007955864 0.035762772 0.09788863 -0.07968971
-0.02093932 -0.06454761 -0.02120778 0.054799184 -0.0015258938 0.001972109 0.021556213 0.0878271
-0.119491875 -0.054754227 0.01181522 -0.12289466 -0.122033 0.042827353 -0.061462134 -0.11987716
0.017066717 -0.031019121 -0.0042440444 0.0849036 0.075641096 -0.047455445 -0.087862 -0.017325655
0.102208644 0.06449525 -0.045874983 0.08932561 0.040919885 -0.009048924 0.03966619 -0.032836586
-0.04492113 -0.016598374 -0.12040825 -0.08268656 -0.03990361 0.021125674 0.10292174 0.055512622
0.10798429 -0.084796116 -0.09617858 0.111137524 -0.04213254 -0.11715166 0.07946299 0.06557347
0.098731816 0.035470128 0.11581375 -0.041692495 0.00320296 0.015248448 0.07469681 0.011525288
-0.099245906 -0.08916676 0.02403079 0.035346195 -0.015947476 0.03978549 0.0466872 0.0958534
0.10277897 -0.09663853 -0.013439044 0.022484615 0.09174062 -0.043021902 0.038100317 0.05435042
-0.09696916 -0.032781422 -0.06001258 -0.108677655 0.091573566 -0.025780305 0.10288036 0.09267956
0.016708955 -0.077393174 0.10359274 0.08039357 0.014147863 -0.09078334 -0.119013205 0.07020472
-0.0107023865 0.00663504 0.11098823 -0.013941318 0.08962758 0.0082137585 -0.10318372 0.032506242
0.046633035 0.018603027 0.002106011 0.055112183 -0.018348187 0.007826984 0.11474058 -0.08418001
0.059956834 -0.09922649 -0.07832956 0.111624315 -0.0047317594 -0.081682384 0.098646924 0.037876174
0.0037345737 -0.04156731 -0.080810085 -0.015564442 -0.111785576 -0.02329342 -0.0017733425 -0.12100756
0.101114765 -0.07203081 0.037205175 -0.08131628 -0.11079933 -0.05326028 -0.054586455 -0.041036382
-0.010879427 0.004282117 -0.051601335 0.056976408 -0.0462631 -0.0969989 -0.022945583 0.1145193
0.0905416 -0.11561306 0.04975252 0.122672394 -0.028701112 0.09126194 -0.015098095 0.094440594
0.049086764 -0.010671124 -0.022638097 -0.08374572 -0.1206903 -0.042324394 -0.04118994 0.017504737
-0.11815593 -0.007192999 0.103387624 0.091568634 0.023167193 0.08703965 0.0049676597 -0.019482166
0.09609681 0.12315643 -0.064685196 -0.04368761 -0.027031317 0.05241698 -0.025523677 0.089649454
0.036597893 -0.06654328 -0.07274529 -0.06288096 0.033098817 -0.0038626492 0.064464554 0.028989285
-0.072557524 0.10161911 0.011810884 -0.11025663 0.07318507 0.041672066 -0.09573455 -0.03908114

linear_relu_stack.2.bias f4 [64]
00000000: 0ad1 ba3d e053 e4bc 2898 913c 0c10 4fbd
00000010: 4ea7 b33d 58bf 483d 0a48 b63d 20c0 6f3c
00000020: 0003 ca3d 0012 54bb 7827 fe3c 94bd 713d
00000030: 18e1 c43c 28ae ac3d 5cd4 7abd 4cff 76bd
00000040: 3683 edbd 1059 253c 8a95 8b3d c0d2 0fbc
00000050: 8060 45bc 4006 a5bc 206a a0bc 0408 3e3d
00000060: a0c0 6e3c 4a47 cc3d b6dc a33d 3836 d33d
00000070: 4ab5 b43d ccb7 663d d07d 14bd 8ec3 cbbd
00000080: 404c c2bb a0b2 a3bc 9e96 a4bd f4bc a0bd
00000090: c0d6 473c a63e f73d d827 30bd a0e9 353d
000000a0: dcea 833d b03a 11bd 5893 ed3d 60a1 e33b
000000b0: 9c4b 78bd 644c 9bbd c852 163d f024 123c
000000c0: c889 2e3d 9857 873c 08fc 893d 7877 0fbd
000000d0: f86b 40bd 0868 e1bd 4c04 b33d 10ef e2bd
000000e0: 0621 c23d 6065 5b3d 90f3 09bd 08a7 cb3c
000000f0: d8f6 f3bd 0012 a13c 8482 793d 80f0 77bd
0.09121902 -0.027872026 0.017772749 -0.050552413 0.08772145 0.049010605 0.08900459 0.0146332085
0.098638535 -0.0032359362 0.03102468 0.059018686 0.024033114 0.08431655 -0.061237678 -0.060302064
-0.11597292 0.010092035 0.06815632 -0.008778274 -0.012046933 -0.020144582 -0.019581854 0.046394363
0.014572293 0.09974535 0.08001082 0.10313076 0.08823641 0.056327626 -0.036252797 -0.099494085
-0.0059295 -0.019982636 -0.080365404 -0.0784854 0.0121971965 0.12072496 -0.043006748 0.044412255
0.0644128 -0.03545636 0.11600369 0.0069467276 -0.06061898 -0.0758293 0.03670004 0.008919939
0.042611867 0.01652126 0.06737524 -0.035026044 -0.046977967 -0.110061705 0.08741054 -0.11080754
0.09478955 0.053563476 -0.033679545 0.02485992 -0.11912316 0.019661903 0.060915485 -0.060532093

linear_relu_stack.4.weight f4 [1, 64]
00000000: 94bf 67bd e07d 553c 2011 edbd 0455 68bd
00000010: 1082 0ebd 5efe e63d c8e7 a43d 7c73 583d
00000020: b0ac fe3d b0f0 65bd 3815 c3bd e889 aabc
00000030: 6cc9 bbbd 0697 973d 98bd 623d f8b7 0a3d
00000040: b82d ae3d f01a 823c 40e0 96bd 0010 cc3c
00000050: e0fc 083d 7824 b53d 6086 33bd 18f9 f0bd
00000060: c09e b73c d4e5 51bd 146c dcbd 28c2 09bd
00000070: a0a8 793c 50bd 843c a472 bbbd 42d6 b1bd
00000080: e851 bc3d 383f 503d 3c6f e8bd 907e a23c
00000090: 8cc6 43bd 0012 e33c 1092 133c 5049 b13d
000000a0: 0057 783c 50be 9e3d 581e 60bd 60fe e03b
000000b0: fca2 f5bd d851 6abd 7ce1 ecbd 5a78 a8bd
000000c0: 2ee2 aebd 8c97 e73d fc5e 95bd 908c 8bbd
000000d0: d656 953d bafd abbd 6000 b83c 36ad d83d
000000e0: 2801 c0bc 7ead 98bd 60f1 a5bb 0668 d3bd
000000f0: 06ef d7bd c07d d33d e630 e8bd f86c 163d
-0.056579188 0.013030499 -0.11575532 -0.056721702 -0.034792006 0.112789854 0.08052021 0.05284451
0.12435281 -0.05613774 -0.095255315 -0.020817712 -0.091692775 0.07401852 0.055356592 0.033866853
0.08504814 0.015881985 -0.07366991 0.024909973 0.033444285 0.088448465 -0.04382932 -0.11766261
0.022414565 -0.05124457 -0.10762802 -0.033632427 0.015237957 0.016203552 -0.09152725 -0.086834446
0.0919531 0.05084154 -0.11349341 0.01983574 -0.04779677 0.027718544 0.009006992 0.086565614
0.015157461 0.07751143 -0.054716438 0.0068662614 -0.119939774 -0.05720696 -0.11566445 -0.0822608
-0.08539234 0.11308202 -0.072935075 -0.068139195 0.07291953 -0.08398004 0.022461116 0.10579912
-0.023438051 -0.07454966 -0.0050641745 -0.10322575 -0.10543637 0.10326719 -0.11337452 0.036725014

cnns.0.weight f4 [32, 2, 3, 3]
00000000: e58f 0d3e 811c 6b3d 31b4 5cbe bcde 11be
00000010: 31bb 563e caf8 933d a7dc 96be 3fc1 23be
00000020: 399c 35be d73b 3fbe 0f16 093d 6b3a 23be
00000030: 7b84 4bbd 5bf1 5d3e e67a 57be 4bf4 8e3e
00000040: 305c 043e 2801 5dbd c29e 593e 03fd f13d
00000050: 65ae 30bb 1d0a 9d3d 5326 ba3c 6ea7 523e
00000060: 8bc0 7a3e e7f1 1b3e 530c 84be 46cb 14bd
00000070: 90b4 f33d 1458 253e 4a70 843e f669 08be
00000080: bd42 4e3d e575 653d 53f8 dbbd 9ed2 6ebe
00000090: 6f86 70be 7e00 4ebe 094a 7dbe 6273 bc3d
000000a0: 3c23 9ebd 230d 72be 9fc4 443d 1326 b5bd
000000b0: 0fd5 c7bd d70d 8b3c cebd 833c de4f de3d
000000c0: f0cb 543c 3968 27bd 39c6 463e 8b92 653d
000000d0: 48a4 1dbe 0218 28be d236 03bd 1f30 843d
000000e0: ce6d 543e 453a 1bbe 24ea 3d3d 70bf a1bd
000000f0: 6560 48be e51d 80be a923 543d fb87 22b8
00000100: ef96 5ebc 6042 1ebe 34d5 6f3e 952f 113e
00000110: fa90 20be 98a2 afbd 8c17 423d e7af f83b
00000120: d0d4 e9bb c3e0 bcbd 29d6 063e 0fda 0d3e
00000130: 1939 09be eabf bdbd 6f74 28ba d30e 573e
00000140: bf50 67be 3948 843d 56b8 d0bd 0794 e4bc
00000150: 0713 59be 252d 1fbd e3ff 523d 9b72 dd3d
00000160: 53af 273e 3f28 033e d49e 003e 242b e5bd
00000170: 5220 10be ee8b 2b3e 4b0c c93d ff3a 92bc
00000180: d74d 723d a5a7 293e 6bd7 50be 415a 603d
00000190: 4bc0 72be 8c00 b3bd 5721 3c3d 60f1 a1bc
000001a0: 5900 00be a3fc 80bd de05 403e 1a97 64bd
000001b0: ed02 283e 224b 2fbd 22fe 44bd d6e5 4a3e
000001c0: cfe3 a4bd 9557 dbbd 8a6b 6ebe 967d 1e3d
000001d0: 006a f33c b4be 0e3e d31c 9bbc 1eda 283e
000001e0: 57f1 fcbd 4cb3 06bc 75a3 053e b3f8 bf3d
000001f0: 50f9 083e 113a e6bd d0bb 0e3e 82db ed3d
00000200: f58d c4bc d5f5 443e 8445 20be 45f7 1a3d
00000210: 8e3e 013e a7df 92be 8cae 00be 9cf7 313e
00000220: 84f1 bd3d 9355 123d 3ade 33ba 211c 87be
00000230: f779 3e3e da77 253e 5c94 1abe 6115 013e
00000240: c594 363e 2ab4 513e 66f3 d03d 096d 61be
00000250: 6b18 82be 0576 ffbd 169f dc3c 2d9e 5a3d
00000260: 4248 40be 5630 413e c369 323e 6901 32bd
00000270: 12f9 7b3e 0fc1 9d3e 0024 23be e0a1 ec3b
00000280: 0aef 26be 5a5f aa3d 34ff 3ebd d55d 4cbe
00000290: 52f7 173e 201b ccbd be67 0bbe 49dc 413d
000002a0: fa2a 023e 3943 11bd be5a 813e feed 6d3e
000002b0: 5e61 debd cf1c 923e 612b 22be ad43 5ebe
000002c0: dfc4 16be c32e 143e e8d5 5e3e 0000 18b8
000002d0: f669 83bb 42af e0bb 39e0 1d3e eaec c4bd
000002e0: a7be 2bbe 882e 47be a9ab bcbd f2a0 1d3e
000002f0: cad0 4d3e 0006 793e ab02 c93d e83c 913d
00000300: 8e72 203e 5e49 8e3e 507a a63d f278 4fbd
00000310: 46a5 d6bd 5598 c5bd b73f a73d 43e3 bd3d
00000320: 068b 1fbd 7d03 363d 5d43 61bd a113 55be
00000330: 5f5e 643e e047 1c3d b032 8b3d e86d a53d
00000340: 2c10 3dbe 3789 7a3e 165e 223e ec8a 6d3e
00000350: c5b3 22be 76ba 743d 082e ccbd 8e50 ac3d
00000360: 2f37 7bbe b3a7 053e 6128 563e fd5c 4c3d
00000370: a132 a2bd 5944 443e 9314 423d 9d79 f2bd
00000380: 9726 1b3d 8d5b a5bd 843f 57be d629 29be
00000390: b370 f4bd 3bbf 543e 8dac 023d 93d9 46bb
000003a0: ad71 e83d 883b 2dbe 498a 243e 783d 4b3e
000003b0: 58b8 a3bd bf08 62be c0e8 953c 99e5 18be
000003c0: 5ef2 0cbe 93d7 1a3d 3596 403e 4ff0 8d3e
000003d0: 7f5b 803e c8a8 21bd a86f 863e fa7f 2abd
000003e0: 457a 22be 26bc 283e 2cce 133e ae36 753c
000003f0: 1cec 55be 2981 38be f45e 55be aa60 04be
0.13824423 0.05740023 -0.21553113 -0.14245123 0.20969845 0.07225187 -0.2946522 -0.15991686
-0.17735375 -0.18675171 0.033468302 -0.15940253 -0.04968689 0.21674101 -0.21042976 0.27920756
0.12925792 -0.05395618 0.21251968 0.11815836 -0.0026959416 0.076679446 0.022723353 0.20571682
0.24487512 0.15228997 -0.25790653 -0.03632667 0.11899674 0.1614688 0.2586692 -0.13321671
0.050356615 0.056020636 -0.107407235 -0.23322532 -0.23488782 -0.20117375 -0.24735273 0.09201695
-0.07721564 -0.23637824 0.048039075 -0.08845153 -0.097574346 0.016974373 0.016081717 0.10855077
0.012988076 -0.04087088 0.19411553 0.056047957 -0.153947 -0.16415408 -0.032034703 0.06454491
0.20745012 -0.15158947 0.046365872 -0.07897842 -0.19568022 -0.25022808 0.05179182 -3.875045e-05
-0.01358579 -0.15455008 0.23421174 0.14178307 -0.15680304 -0.08575934 0.047385737 0.0075893286
-0.007135965 -0.092225574 0.13167633 0.13852714 -0.13400687 -0.0926512 -0.00064260414 0.21001749
-0.22589396 0.06459088 -0.10191409 -0.027902616 -0.21198665 -0.038861413 0.051513564 0.10812875
0.16375475 0.12808321 0.12560588 -0.11189869 -0.14074829 0.16752598 0.09816798 -0.017850397
0.059156265 0.16567858 -0.20394675 0.054773573 -0.23706166 -0.08740339 0.045930233 -0.019768417
-0.12500133 -0.06298187 0.18752238 -0.055808164 0.16407366 -0.04279626 -0.048093922 0.19814238
-0.080512635 -0.10710064 -0.2328321 0.038693987 0.02971363 0.13939935 -0.018934643 0.16489455
-0.123507194 -0.008221459 0.13050635 0.093736075 0.13376355 -0.11241544 0.13938832 0.116141334
-0.023993472 0.19234402 -0.15651518 0.03783347 0.12621519 -0.28686258 -0.12566584 0.17379612
0.09274581 0.03572614 -0.00068614224 -0.26388648 0.18601213 0.16159001 -0.15095657 0.12605812
0.17830189 0.20478883 0.102026746 -0.2201425 -0.25409254 -0.12473682 0.026931327 0.053373504
-0.18777564 0.18866095 0.17423157 -0.043458376 0.24606732 0.30811355 -0.15931702 0.0072214454
-0.16302124 0.08318968 -0.0466301 -0.19957669 0.14840439 -0.09966111 -0.13613793 0.04732922
0.12711707 -0.0354645 0.25264543 0.23235318 -0.10858415 0.28537604 -0.1583686 -0.21705504
-0.14723538 0.14470963 0.21761286 -3.6239624e-05 -0.0040104343 -0.00685683 0.15417565 -0.096155
-0.16771947 -0.19451344 -0.09212429 0.15393427 0.20099178 0.24318695 0.09814962 0.07091695
0.15668699 0.2779035 0.08128798 -0.05065245 -0.10480742 -0.09648196 0.081664495 0.09271862
-0.038950942 0.04443692 -0.054995883 -0.20808269 0.22301625 0.038154483 0.06796777 0.080776036
-0.184632 0.24466406 0.15856203 0.23197526 -0.15888889 0.059748136 -0.09969717 0.08413802
-0.2453277 0.13052253 0.20913841 0.049893368 -0.07919813 0.19166698 0.047382902 -0.11839602
0.0378786 -0.080741026 -0.21020323 -0.16519865 -0.11935558 0.20776074 0.03190284 -0.0030342087
0.11349807 -0.1691724 0.16068377 0.19847667 -0.07994145 -0.22073649 0.01829946 -0.14931335
-0.1376433 0.037803244 0.188073 0.27722403 0.25069806 -0.039467603 0.26257062 -0.041625954
-0.15866955 0.16478023 0.14434117 0.01496665 -0.2089085 -0.1801802 -0.20837003 -0.129275

cnns.0.bias f4 [32]
00000000: 7d21 1b3e 88d8 ccbc 4211 003e d092 163e
00000010: f661 00bd 1f3c 52bc a45e babc 0712 e83d
00000020: 2974 f9bd 7e15 5dbe 61ab 64bd 6035 ffbd
00000030: 1d78 40be 4e8c 51bd ee0e 2f3e 178d aabd
00000040: 7ce5 7a3d dda9 61bc 2bc8 a73b 5d34 5e3d
00000050: 7e85 ea3c 764c ecbd c87b f5bc cbb2 4abe
00000060: ec6a 5dbe 9207 e338 22a8 343e 7d04 91bc
00000070: 28fb 983d 5a5a 19be fed5 b43c 71fd 29bc
0.15149494 -0.025005594 0.12506583 0.14704442 -0.031343423 -0.012831717 -0.022750206 0.113315634
-0.12180359 -0.2159023 -0.055827502 -0.12461352 -0.1879582 -0.051159196 0.17095539 -0.08327692
0.06125401 -0.013773409 0.0051202974 0.054249156 0.028628107 -0.11538021 -0.02996625 -0.19794767
-0.21622819 0.000108256136 0.17642263 -0.017702335 0.07469779 -0.14975873 0.022074696 -0.010375367

cnns.2.weight f4 [64, 32, 3, 3]
00000000: 36ea 19bd 1729 b3bc b290 10bd 5f7c a1bc
00000010: 623c cf3c 1125 07bd 9f58 2abd e38b 373d
00000020: 39c5 44bd 66c8 4ebb cd89 01bd b1cf 20bd
00000030: 6e18 39bc 4b6f 22bd 4552 783c 436f de3b
00000040: ff2b 78bd 51fb df3b acaa e73c ed7e 2fbc
00000050: f825 46bc 830a 013d 26ff c6bc 4d85 223d
00000060: ce56 26bd 33cd 52bc 22fc cdbc c0e1 393d
00000070: 91ea cbbc 3c4c 2bbd a31b adba 8111 023d
00000080: e46e 45bd 6fa5 d23c 85bd 41bd b48f 6c3b
00000090: 0908 6dbd 22e3 3ebc 4d98 16bd 3c1c 123d
000000a0: 58ce 41bc 991b 443d c43b 603b 5cb2 4bbd
000000b0: a416 f6bb 84d9 d0bc 6b61 78bd 505d 0a3b
000000c0: 64f7 cb3c 970e 4c3c 13be 223d 6f4e 37bd
000000d0: 8b19 333d b7d0 033d d9f4 5dbd e5c3 53bc
000000e0: f9f2 a53c 0dbf 283d 4fce 7fbd 99e7 24bd
000000f0: a92d b23c ccd8 543c e167 adbb 2e74 893c
00000100: 1648 82bd d791 62ba d6fb 67bd f38a 87bd
00000110: 3842 11bd d01a fe3b fc69 db3c 0d15 2a3c
00000120: c2ba dd3c d7f2 1a3d c617 0dbd c62d 0fbd
00000130: 9975 fb3c 9c52 143c 2e9d 20bd 49cd 313d
00000140: 1b5f f4bc d8fe 99bb b685 11bd 9052 55bc
00000150: 1adb b03c ba88 a83c 0544 0f3d 9e0a 0fbd
00000160: a803 c3bc 849b 1b3d fdeb 533d 02f7 e83c
00000170: 7c17 c7bb d944 da3b 911b eb3b 2928 093d
00000180: 9d88 813d a0dc 3abc d90a 14bc b8f2 85bc
00000190: b840 a63b d5c0 4c3c 273b 423d a58f 65bd
000001a0: 2937 18bd e4fb 663d efed 69bd b4cf 0cbd
000001b0: b709 6f3d 4836 903c 1380 5fbc ecbb 373c
000001c0: c32c 6bbd ec9b 023c 7487 673c 2d96 723c
000001d0: 87a6 01bc b67d 36bd 1a06 bcbc 8c83 8f3b
000001e0: d468 08bc 5ec6 43bc d719 30bd 07b7 303c
000001f0: 6080 a9bc 531a 9c3c e257 8b3b 3200 c83c
00000200: 9a1d 0d3b f9ac 2e3d 8e55 7cbd 26a0 b7bb
00000210: b0ae fc3b d638 fcbc ca54 283c 9432 6fbd
00000220: f42d d8bb dabe c93c 3b45 b8bb 36e3 19bd
00000230: 6dbd 0b3d 4655 3dbc 745a 2ebd fc93 82bd
00000240: cb21 e4ba 2fe7 df3c 4648 2cbc 9bf8 493d
00000250: 1eb4 5e3c daf0 4c3d 6035 4bbd 5ff2 023c
00000260: e559 7abd de5a b6bb a99f ad3c 2e03 2b3d
00000270: 55eb f7bc 79e7 313d e9c2 60bd 4e68 78bd
00000280: e0e0 84bd 95b4 433d 1ff5 543d 604e 30bb
00000290: 30e9 853c f8cc 443b d6e5 adbc 40c0 bfba
000002a0: 295d 853c 73e7 073d 10c5 30bd 592a 41bd
000002b0: 8dff ab3c 5b4d 4dbd 626e 833b a71b 1c3d
000002c0: 62ea c43c d7a4 a23a ee8d cdbc 14ab a63a
000002d0: 7903 263d 8083 29bd d21c 303d b62e db3c
000002e0: 44d4 8d3c e42a 453d 891c 4e3d 4a5d b3bb
000002f0: c0b8 173d 78fc c43b 8b02 6e3d f77c 4b3d
00000300: ae0a bc3c 59fb 213d d93b 69bd cf4d 713d
00000310: f481 8e3c 2c14 7c3c 3c60 53bd c211 24bc
00000320: 4cb0 383d 9c67 413d d167 b4bc f03a 30bd
00000330: b037 1c3d 6fd0 bc3c db40 a53b d388 cd3b
00000340: 101a 94bc 9366 5a3d a23a e53c e41f 98bc
00000350: 499a 2fbd 0ee3 3bbb 16b6 a23c ed45 3f3d
00000360: 5fd2 58bd ae24 64bd e29d 2dbd b5a2 6a3d
00000370: c94a 2e3d fe38 f93c c9af 023d c866 ab3b
00000380: 7ed1 e03c 5ba8 0d3d 6106 0fbd 7e04 b1bb
00000390: 10aa 04bd 7cc5 013d 15f9 62bd 282c 0cbd
000003a0: feee 25bd 5b69 59bd 80af d43c 9ca6 ce3c
000003b0: 4ea0 bdbc dd05 893c 8e99 fc3c 3bdd fd3b
000003c0: e954 f3bb d18e 11bb d22a 19bd a8a5 7abd
000003d0: 98cc a7bc 9d54 a83c 9db4 32bd d965 113d
000003e0: dba8 62bd d5dc 7cbc 72df 733c 24f0 63bd
000003f0: 2453 fabc 924e 223c 60b9 eb3c d51a 85bd
-0.037576877 -0.02187018 -0.035294242 -0.019712625 0.025297347 -0.032994334 -0.041588422 0.04481114
-0.04803965 -0.0031552552 -0.031625558 -0.03926057 -0.011297328 -0.03965692 0.015156333 0.006788166
-0.060588833 0.006835379 0.028279625 -0.010711414 -0.012094013 0.031504165 -0.024291586 0.039677907
-0.040610127 -0.012866306 -0.02514464 0.045381308 -0.024892123 -0.04182075 -0.0013207089 0.031754974
-0.048201457 0.02571365 -0.04729988 0.0036096396 -0.05786899 -0.011650832 -0.03676634 0.035671458
-0.011828981 0.04787788 0.003421531 -0.049730644 -0.007510023 -0.025494345 -0.06063978 0.0021112747
0.024898238 0.01245465 0.03973205 -0.044752534 0.04372553 0.032181468 -0.054188583 -0.012925123
0.02025746 0.041197825 -0.06245261 -0.04025993 0.021750288 0.0129911415 -0.0052919243 0.016779032
-0.063614056 -0.00086429477 -0.056636654 -0.06618299 -0.03546354 0.007754661 0.026783936 0.010380995
0.027066592 0.037829246 -0.0344465 -0.034955762 0.030695723 0.009052899 -0.0392124 0.043408666
-0.029830506 -0.004699569 -0.035527907 -0.013020173 0.02158885 0.020573009 0.034976978 -0.034922235
-0.023805454 0.037990108 0.051738728 0.028438095 -0.0060757976 0.0066610393 0.007174917 0.033485565
0.06324885 -0.01140514 -0.009035789 -0.016351089 0.005073633 0.012497147 0.047419693 -0.056045193
-0.03716198 0.056392565 -0.057111677 -0.03437777 0.058358874 0.017604008 -0.013641375 0.011214238
-0.057415735 0.007971745 0.014131416 0.0148063125 -0.007913238 -0.04455348 -0.022952128 0.0043796953
-0.008325774 -0.01194915 -0.042993393 0.010785825 -0.020691097 0.019055521 0.00425242 0.024414156
0.0021532536 0.04264543 -0.06160503 -0.005603808 0.007711254 -0.03078882 0.010274122 -0.058397844
-0.006597275 0.024627138 -0.0056234873 -0.0375702 0.034116197 -0.011555975 -0.04256673 -0.06375882
-0.0017405091 0.027331917 -0.010515278 0.049309354 0.013592748 0.05003438 -0.04961145 0.007992356
-0.061120886 -0.0055650314 0.021194296 0.04175108 -0.030263582 0.04343364 -0.05487338 -0.060646348
-0.06488204 0.04777964 0.05199158 -0.0026902184 0.016346544 0.0030029397 -0.021227758 -0.0014629439
0.016279774 0.03317971 -0.043156683 -0.047159526 0.02099588 -0.0501226 0.0040109614 0.03811231
0.024037544 0.0012408745 -0.025092091 0.001271578 0.040530656 -0.041385174 0.042996235 0.026755672
0.01731313 0.048136607 0.050320182 -0.0054737674 0.037041426 0.006011542 0.058107894 0.049679723
0.022954311 0.039546344 -0.05694184 0.058912095 0.01739595 0.015385669 -0.051605448 -0.010013999
0.045090005 0.04721795 -0.02202216 -0.043024957 0.038139045 0.023048608 0.0050431318 0.0062724142
-0.018078834 0.05332048 0.02798206 -0.018569894 -0.042871747 -0.002866927 0.019862216 0.046697546
-0.052935 -0.055699043 -0.042386897 0.057284076 0.04255179 0.030422684 0.031905923 0.0052307583
0.027443644 0.034584384 -0.034918193 -0.005402147 -0.032388747 0.031682476 -0.055413324 -0.0342218
-0.040511124 -0.05307899 0.025962591 0.02522593 -0.023147728 0.016726429 0.03083494 0.00774732
-0.0074258936 -0.002221037 -0.037394352 -0.06119314 -0.0204833 0.02054816 -0.043629277 0.03549752
-0.055336814 -0.01543351 0.0148848165 -0.055648938 -0.030557223 0.009906428 0.028774917 -0.064992584

cnns.2.bias f4 [64]
00000000: 4d4c 81bd 0103 5bbd a6f9 92bb 59ea 2bbd
00000010: 1b37 583c fcbc 703d b3d7 023b 74d1 3fbd
00000020: 23e0 ebbc fe68 2cbd 56d0 63bd df9a 29bd
00000030: a170 a03c 8a47 14bd dae7 26bc 768b 1a3d
00000040: bbc4 153d 6a98 b63c 5df9 b23c 1dfb bebc
00000050: b1d1 32bd 0bd4 39bd 7c45 b83c ae27 60bd
00000060: ea5f 03bc 8064 b4bc ac7b fabc ab44 b33b
00000070: 61e0 71bd d8c9 333b 1b1b 58bd 66e1 3b3d
00000080: 614b 883c b0c3 7abc 1731 e8bc c38b 3d3d
00000090: a9a9 a0bc 3dbb fb3c dcaf 1fbd 3fbe de3c
000000a0: bafc 13bd 4e03 a3bc 458c 2cbd 901f a0bb
000000b0: 7f3a b4bc 1d09 2abd 1270 c3bc 94e3 003d
000000c0: 8abe 48bd 76e2 74bd 47f2 b8bc 2458 67bd
000000d0: af87 2bbd dc37 9d3a 50eb 1fbd 3d28 84bd
000000e0: 305c 44bd 823f 0abd 459d 19bc 6f76 89bd
000000f0: 91fe 35bd ffaf 04bd 168f 5fbc b896 d33c
-0.06313381 -0.05346966 -0.004485327 -0.04197154 0.013196732 0.05877398 0.0019964993 -0.04683061
-0.0287934 -0.042092316 -0.055618607 -0.041407462 0.019584956 -0.036201037 -0.010187114 0.037730657
0.03656457 0.022289474 0.021847421 -0.0233131 -0.04365701 -0.045368236 0.02249407 -0.05472534
-0.008018473 -0.022020578 -0.03057655 0.0054708323 -0.059051875 0.002743354 -0.052760225 0.045869254
0.016637506 -0.015305445 -0.02834372 0.046275865 -0.01961215 0.03072893 -0.038986072 0.027190326
-0.03612969 -0.019899037 -0.04212596 -0.004886575 -0.02200055 -0.041512597 -0.02385715 0.031467035
-0.049009837 -0.059786282 -0.022576464 -0.05648054 -0.041877445 0.0011994797 -0.03904277 -0.06452987
-0.04793948 -0.033751972 -0.009375875 -0.067120425 -0.044432227 -0.032394405 -0.013644954 0.025828704

linear.0.weight f4 [16, 3328]
00000000: 2a0a 383c 3ac4 463c 3899 c43b ea8d 63bc
00000010: 2c76 5a3c 6c7a 31bb 123b 40bc d849 353c
00000020: 0072 5e38 ac40 1fbc f0a3 283c f499 b83b
00000030: 7809 043c 6657 64bc 4a19 0b3c 025f 6b3c
00000040: eb0d 843c cc9b c7bb 69ea 63bc 80db f53a
00000050: 88ad 64bc 8e2c 93bb fc89 42bb 18fa c4bb
00000060: d66b 6b3c 58fd c3bb 90a3 d5ba 8c94 3fbc
00000070: 3c47 6abc 0035 253b ce87 4f3c ae50 6a3c
00000080: 5c47 0fbc 2a64 393c 229d 653c 98d6 acbb
00000090: 4e17 55bc e0cb bb3a 493f 88bc 8467 2abc
000000a0: 102e 3e3b 5140 54bc 20da e73a 874d 8bbc
000000b0: 7483 c43b de6b 323c dbb5 8b3c 5d14 893c
000000c0: 9684 6f3c 965b e8bb fec4 2cbc b4bb 5bbb
000000d0: 7037 e4bb 3e59 c6bb 528c bebc a7e6 103c
000000e0: a043 2d3c 0210 bcbc d9b3 e039 0153 07bc
000000f0: 8d2f ed3b bcdc 093c 7d2e 983a 3f76 c13b
00000100: 210f 24bc beea 3a3c 54c4 b9bc 6e0c 313c
00000110: 333a 03bb e6fd 52bc 2ec9 d5bb 315d 15bc
00000120: 169b 123c acfb 28bb a1ea 003c a34b 4eb8
00000130: 9981 84bc bea1 bbbc ae2f 29bc 8219 53bc
00000140: 8ff4 89bc 2210 d43b 6080 0d3c d2fa 113b
00000150: a254 b0ba 2fa4 b2bc 2089 09bc 4ff7 0b3c
00000160: ff0b 92bc 7164 b3bc e237 313c 10bd 7bbc
00000170: dbcd 36bc d3ef 81bc 06ec 873b f7ff b9bb
00000180: 835b c53b 56d8 98bc 9e9f aabc e9fa cc3b
00000190: ba87 b53b 687e a7bb 981d a2bc 0ef3 003c
000001a0: 3af2 44bc eac0 32bc 3f10 373a 4d41 3cbc
000001b0: f256 323c c76c a8bc 8ad2 bebc 1fe0 373b
000001c0: fcff 57bc eb2f 11bc 4269 363c 1192 78bc
000001d0: 9545 85bc 1670 a0ba d5b3 833b f317 2f3c
000001e0: a0e7 ba3b bca5 283c 66b7 86bc e057 5cbc
000001f0: 3ee9 90bc ffba 2b3c d2a7 ce3b 9438 7abb
00000200: fb23 90bc a8ce 04bc 68ec 63bc 59b6 fc3b
00000210: a221 653b 2c78 ec3b 80ea 043c a9da 3bbc
00000220: 3ce1 5dbc cd10 babb 365d 9c3b e0a1 bfbb
00000230: 4270 e1bb 931f 02bc a0c9 66ba ee3b 9abc
00000240: 6ba0 053c 3c46 fb3b d08c ca3b 7e86 43bc
00000250: ef5d 313c bf5e 8abc 0a46 143a b3f2 e73b
00000260: 21ff 823c 7878 093c 69c8 bcbc 5c29 a93b
00000270: beb2 bc3a c807 2cbc f0ac 2fbb 4f90 e53a
00000280: 50e9 91bc 09a6 89bc 8b74 8d3b a545 e13b
00000290: b6d8 78bc a982 8b3c 861a aebb 70cd 6dbc
000002a0: 50e6 d1ba 88fc 19bb d6c4 7c3c 3302 43bc
000002b0: 7f9a dd3a f4ff 6ebc d3eb 08bc 7c04 b3bc
000002c0: 0e42 3c3c 4e7d 683c 894f c53b cc6c 333c
000002d0: 9d96 68bc d6ef 733c 2743 17bc d51a 92bc
000002e0: 9275 e33b 253d 86bb 5d92 66bb c635 223b
000002f0: 51f4 a4b9 2006 9a3b 9c50 13bb c3f8 8c3b
00000300: 4a37 87bc 3aa3 8abc a02c baba 049e b2bb
00000310: 1cb1 22bc d98b 68bc 5a18 1cbc aa5f 53bc
00000320: 0a13 6dbc e41b 01bc 402f 73ba 0864 033c
00000330: c7e7 17bc b3fa f9bb 2cc4 1dbb 98d6 6e3b
00000340: 8ce1 cabb 06e1 bcbb 4c4b 003c 481c db3b
00000350: 4b0d 67bc d0a5 c6bb b488 84bc c718 acbc
00000360: 1e11 41bb ab7e eb3b ddd1 06bb 78e7 db3b
00000370: 46fd b3bc fee8 91bb 08ae 3ebc 3230 6cbc
00000380: 34cb e83b e8d4 dc3b 1756 90bc 0082 1e39
00000390: c479 fdbb 2a83 bcbc 0414 a6bb d1b9 fd3b
000003a0: 0ee2 80bc 4c5e 233c 4cad f7bb 0cbb 51bc
000003b0: a05e 34bc a7cb 08bc 8029 453b 7351 66bc
000003c0: 1c2c d4bb 80fc 03ba 70e2 233c 4eaa 44bc
000003d0: b7c2 57bb 734f 8fbb cacc 2dbc 8623 963b
000003e0: 770c 8a3c 4038 303b 4c33 0d3c dcb0 043c
000003f0: 9a98 7d3c a0bb 303b 90a1 08bb 7a0c 663c
0.011232892 0.012131745 0.0059997104 -0.013888815 0.013333838 -0.0027081026 -0.011732833 0.011064969
5.3035095e-05 -0.009720009 0.010292992 0.005633587 0.008058898 -0.013936853 0.008489916 0.014365913
0.016119918 -0.0060915705 -0.013910868 0.0018757433 -0.013957389 -0.0044913953 -0.0029684296 -0.006011259
0.014368972 -0.0059811287 -0.0016299356 -0.011693131 -0.01429921 0.0025208592 0.012666656 0.014301462
-0.008745041 0.011315385 0.014014514 -0.005274605 -0.013006045 0.0014327727 -0.01663174 -0.010400657
0.0029019155 -0.012954787 0.0017688908 -0.017004741 0.0059971157 0.010889975 0.017054489 0.016733343
0.014619013 -0.007090996 -0.0105450135 -0.0033528628 -0.0069646165 -0.006053119 -0.02326027 0.008844054
0.010575205 -0.022956852 0.00042858606 -0.008259536 0.0072383345 0.008414444 0.0011610534 0.0059039886
-0.010013373 0.011408506 -0.022676624 0.010806186 -0.0020023703 -0.012877917 -0.0065242266 -0.009116457
0.008948108 -0.0025784774 0.00786844 -4.918467e-05 -0.016175078 -0.022904273 -0.010326309 -0.0128844995
-0.016840247 0.0064716497 0.008636564 0.0022274745 -0.0013452957 -0.021806804 -0.00839451 0.00854285
-0.017827986 -0.02189848 0.010816546 -0.0153649 -0.011157478 -0.015861427 0.0041480092 -0.0056762653
0.006022872 -0.018657845 -0.020828065 0.0062554968 0.0055398615 -0.0051115043 -0.019789502 0.007870449
-0.012020642 -0.010910252 0.0006983317 -0.011490178 0.010884987 -0.020559682 -0.023293752 0.002805717
-0.01318359 -0.008861522 0.011133494 -0.015171544 -0.01626853 -0.0012240435 0.0040192404 0.010686862
0.0057038814 0.01029342 -0.016444873 -0.013448685 -0.017689344 0.010481595 0.006306627 -0.0038180696
-0.017595282 -0.008105911 -0.013911344 0.007712167 0.0034962674 0.007216474 0.00811255 -0.011465707
-0.01354247 -0.0056782723 0.004771854 -0.0058481544 -0.0068798373 -0.007942098 -0.0008803848 -0.018827405
0.008155922 0.0076682847 0.006181337 -0.011933921 0.010825618 -0.016890882 0.00056561886 0.0070784925
0.015990796 0.008390538 -0.023044782 0.005162401 0.0014396531 -0.010499902 -0.002680596 0.0017514321
-0.017811447 -0.016802805 0.0043168715 0.0068747574 -0.015188387 0.017030077 -0.0053132204 -0.014514312
-0.0016014073 -0.0023496468 0.015427789 -0.01190238 0.0016907005 -0.014587391 -0.008357006 -0.021852724
0.011490358 0.014190031 0.006021444 0.010951232 -0.014196065 0.014888724 -0.009232319 -0.01783506
0.0069415057 -0.0040966445 -0.0035182454 0.002475129 -0.00031462547 0.004700437 -0.0022478467 0.0043021156
-0.016505856 -0.016923536 -0.0014203973 -0.005450966 -0.0099299215 -0.0141934985 -0.00952729 -0.012901226
-0.014469871 -0.007880185 -0.0009276755 0.008019455 -0.009271569 -0.0076287626 -0.0024073226 0.0036443826
-0.006191438 -0.0057641296 0.007830452 0.006686721 -0.01410229 -0.006062247 -0.016178466 -0.021007909
-0.0029459666 0.007186731 -0.0020571866 0.006710943 -0.021971356 -0.0044528237 -0.011638172 -0.0144157875
0.007104302 0.0067392476 -0.017619176 0.00015116483 -0.007735463 -0.023011763 -0.005068304 0.0077430983
-0.015732791 0.009971213 -0.0075585004 -0.012800943 -0.0110088885 -0.008349336 0.003008455 -0.014057505
-0.006474985 -0.0005034879 0.010002717 -0.012003494 -0.0032922456 -0.0043734848 -0.010607908 0.0045818714
0.016851647 0.0026888996 0.008618187 0.008098807 0.015478278 0.0026967302 -0.0020848252 0.014041061

linear.0.bias f4 [16]
00000000: 9709 73ba 7eae 0b3c 9c52 69bc 40c0 59bc
00000010: 2617 de3c 4f13 6aba 3b0f 22bc 94e4 eebb
00000020: 180d b13b 4c94 3cbc 109a afbc 735e 2f3c
00000030: 6af9 abbc 16da 3bbc 28ad 29bc 46d8 64bc
-0.00092711434 0.008525489 -0.014240887 -0.013290465 0.027110647 -0.0008929269 -0.009891327 -0.007290432
0.005403172 -0.011509966 -0.021435767 0.010703671 -0.020992953 -0.01146557 -0.010356225 -0.013967579

linear.2.weight f4 [1, 16]
00000000: 198c 4dbe b4b0 44bd e5fb 963d e96e e1bd
00000010: ab07 5f3e efea 1a3e 92b0 9fbd e605 e33c
00000020: c19d d53d 9b48 afbc 73c7 9bbd 3344 6fbe
00000030: dea7 3cbe 8f86 a43c 7775 20be 1688 04be
-0.20072974 -0.04802008 0.07372264 -0.110074826 0.21780269 0.15128683 -0.0779735 0.027712774
0.1043048 -0.021396926 -0.07606401 -0.2336586 -0.18423411 0.020083694 -0.1566981 -0.12942538
