models/trainingmodels/start_1.pth (torch, 337595 bytes, 12 tensors)

linear_relu_stack.0.weight f4 [64, 104]
0	0xbd78eedf	-0.06077468
1	0x3cb2ae34	0.021811582
2	0x3d859bfb	0.065238915
3	0xbcd36fa8	-0.025810078
4	0xbd836c96	-0.064171955
5	0xbc8b1270	-0.016976565
6	0xbca25198	-0.019814298
7	0xbd762835	-0.06009694
8	0x3db0b003	0.086273216
9	0x3d12031e	0.035647504
10	0x3d50820e	0.05090528
11	0xbd341452	-0.04396469
12	0x3d0c0dea	0.034192957
13	0x3d56ffb2	0.052489944
14	0xbc827118	-0.015923068
15	0xbd8d1760	-0.06889224
16	0xbc864e2c	-0.016394697
17	0x3ca117d8	0.01966469
18	0x3c8949e8	0.016758874
19	0xbd9f17b5	-0.07768194
20	0x3d24852e	0.040166073
21	0xbd9265a1	-0.071482904
22	0xbd3e3944	-0.04644133
23	0xba89dac0	-0.0010517463
24	0x3da4b5ef	0.080425136
25	0x3a3f8980	0.0007306561
26	0x3d633c4e	0.055477433
27	0x3d01d48e	0.03169685
28	0xbc9cb0a8	-0.019127205
29	0xbd0c993e	-0.03432583
30	0x3c9bba78	0.019009814
31	0xbda452da	-0.08023615
32	0xbdc1754d	-0.094462015
33	0xbce37ea4	-0.027770348
34	0xbcb98514	-0.022646464
35	0x3bffce00	0.0078065395
36	0x3bd234b0	0.0064149722
37	0xbd80e104	-0.06292918
38	0x3db82893	0.08992114
39	0x3d2c9852	0.04213745
40	0xbc8ce2d4	-0.017198004
41	0x3cfadfb4	0.030624248
42	0x3d3c427e	0.04596185
43	0xbd6c1ec1	-0.057646517
44	0xbdae65c1	-0.08515502
45	0xbd48ea9b	-0.049051862
46	0x3d1edef6	0.03878685
47	0x3ccc2084	0.024917848
48	0xb8a44c00	-7.8342855e-05
49	0xbd31ee02	-0.043439873
50	0x3dc81d37	0.09771197
51	0x3ca194e4	0.019724317
52	0xbd987f18	-0.07446116
53	0x3dc1bbf7	0.094596796
54	0xbc384a48	-0.011248179
55	0xbd51b97a	-0.051202275
56	0xbdb5482e	-0.08851658
57	0x3cc20800	0.023685455
58	0x3d9fdc9b	0.07805749
59	0xbdafadc0	-0.08578062
60	0x3cf4da2c	0.029889189
61	0xbd96557a	-0.07340522
62	0xbd006700	-0.03134823
63	0xbd91f464	-0.07126692
64	0xbd7ea094	-0.062164858
65	0xbd773963	-0.060357463
66	0x3bae16d0	0.005312778
67	0x3d61b806	0.05510714
68	0x39ff1c00	0.00048658252
69	0xbdbf0dcc	-0.093288034
70	0xbd99cb10	-0.07509434
71	0x3d9dc3cf	0.07703363
72	0xbc82671c	-0.015918307
73	0x3dae2509	0.08503158
74	0x3ca47ed8	0.020080015
75	0xbd262e36	-0.040571414
76	0x3c59eb68	0.013300754
77	0x3c621ea8	0.013801254
78	0xbdb5fbb0	-0.08885896
79	0x3d60488e	0.054756694
80	0xbd0efc6a	-0.03490869
81	0xbd1732a2	-0.03691352
82	0x3d675ff2	0.056487985
83	0x3d498dbe	0.04920744
84	0xbd9f564e	-0.07780133
85	0xbc5d4b08	-0.013506658
86	0xbdbd8014	-0.092529446
87	0x3ba2f990	0.004973598
88	0xbda10e24	-0.07864025
89	0xbd88b639	-0.06675381
90	0xbcf37dcc	-0.02972307
91	0x3c246d08	0.010035761
92	0xbbf7f5b0	-0.00756713
93	0x3c7301a8	0.014831938
94	0xbd01a72a	-0.03165356
95	0xbd397962	-0.045281775
96	0x3d4c0eee	0.049818926
97	0xbc088658	-0.008332811
98	0x3d0b5576	0.03401705
99	0xbd79ae2c	-0.06095712
100	0x3d887ee5	0.06664828
101	0xbdbfd968	-0.09367639
102	0x3d5cca5a	0.053903915
103	0x3b8a62f0	0.00422322
104	0xbd9b3ada	-0.075795844
105	0x3cbe546c	0.023233615
106	0xbcd45bd0	-0.025922686
107	0xbdaba81c	-0.08381674
108	0xbd457426	-0.04820647
109	0x3d77e686	0.06052258
110	0xbc9d2148	-0.019180909
111	0xbcf52474	-0.029924609
112	0x3dab3757	0.083601646
113	0xbc50f060	-0.012752622
114	0xbcdc2ba0	-0.02687627
115	0x3c9d1f38	0.019179925
116	0x3d7f3506	0.062306426
117	0x3d1b7fa6	0.037963532
118	0x3cb1e344	0.021714814
119	0xbd7ac405	-0.061222095
120	0xbcfaee68	-0.03063126
121	0x3d61fc56	0.055172287
122	0xbc02c498	-0.007981442
123	0xbdab4889	-0.08363444
124	0xbd6d868e	-0.05798965
125	0x3dc55cc5	0.09636835
126	0xbdb4e8ae	-0.08833443
127	0x3d41070e	0.04712587
128	0x3abe8ec0	0.0014538392
129	0xbcb6adf8	-0.022299752
130	0xbd02b95a	-0.031915046
131	0xbcc41f78	-0.023940787
132	0xbd94b9e8	-0.07262021
133	0x3d8e4147	0.069460444
134	0xbd423917	-0.047417726
135	0x3d3efec2	0.046629675
136	0x3da8777d	0.082259156
137	0x3dc4cc73	0.09609308
138	0x3d62ed1a	0.0554019
139	0xbda898ef	-0.08232295
140	0xbd33ef67	-0.043929484
141	0x3d964d47	0.07338958
142	0x3cb0e014	0.021591224
143	0xbd3ff634	-0.046865657
144	0x3d73d892	0.05953271
145	0xbce33280	-0.027734041
146	0x3c85c5ac	0.016329609
147	0xbb65f760	-0.0035090074
148	0xbd345eb9	-0.044035647
149	0x3da8f7ef	0.082504146
150	0xba7a4800	-0.0009547472
151	0x3cb195c0	0.021677852
152	0xbd971c74	-0.07378474
153	0xbd4bd2af	-0.04976147
154	0x3c070b18	0.008242391
155	0xbbafcdd0	-0.005365111
156	0xbd7c037b	-0.061526757
157	0x3d1fc93e	0.03901028
158	0xbc4b0c78	-0.0123931095
159	0x3d9093d3	0.07059445
160	0x3ca02bb8	0.019552097
161	0xbd60608d	-0.054779578
162	0xbc24ddc0	-0.010062635
163	0x3d43737a	0.04771755
164	0x3db5b461	0.08872295
165	0x3dc4ecd1	0.09615482
166	0x3d0c8cee	0.03431409
167	0x3da81d93	0.08208766
168	0x3d66d762	0.05635775
169	0xbad983c0	-0.0016595051
170	0xba727180	-0.000924848
171	0x3b38b440	0.002818361
172	0x3da7aba1	0.081870325
173	0xbd0cd424	-0.034382
174	0x3dc3074d	0.09522877
175	0x3cac7c28	0.021055296
176	0x3db89287	0.09012323
177	0x3c9936b8	0.01870285
178	0x3d9be483	0.076119445
179	0x3d3d48d6	0.04621204
180	0x3d1d5e8a	0.038420238
181	0x3d869075	0.06570522
182	0xbce6b920	-0.028164446
183	0xbd42a28d	-0.0475183
184	0x3d393586	0.04521706
185	0x3dacc60f	0.08436214
186	0xbbe2d850	-0.006922759
187	0xbd975568	-0.07389337
188	0x3d670cda	0.05640874
189	0xbcd45af4	-0.025922276
190	0x3d6ea666	0.05826416
191	0x3c0aa5c0	0.008462369
192	0xbd8e38e6	-0.06944446
193	0x3cc941a0	0.024567425
194	0xbd02de24	-0.03195013
195	0x3d3a1b6e	0.045436315
196	0x3ca03c88	0.019560114
197	0xbd870c89	-0.06594188
198	0xbd274b96	-0.04084357
199	0x3dbccccb	0.09218749
200	0x3cfff6bc	0.031245582
201	0x3dc82b75	0.09773914
202	0xbd6ad0f1	-0.05732817
203	0xbdbd34ba	-0.092385724
204	0xbd5145fd	-0.051092137
205	0xbceb5890	-0.028728753
206	0xbda9b433	-0.082863234
207	0xbcc4c2d4	-0.024018683
208	0xbda6b203	-0.08139422
209	0xbbc4e6e0	-0.0060089678
210	0xbd1668ed	-0.03672116
211	0x3b7b69a0	0.0038362518
212	0xbda48964	-0.08034018
213	0x3db0c477	0.08631223
214	0xbbfb3990	-0.007666774
215	0x3dc00f25	0.093778886
216	0xbd32916f	-0.043595728
217	0x3bee4de0	0.007272467
218	0xbd985267	-0.07437592
219	0xbc8fe69c	-0.017566018
220	0x3d6665ae	0.056249313
221	0xbd8a5ddc	-0.067561835
222	0xbdbc7e66	-0.09203796
223	0x3b9f53d0	0.004862286
224	0xbd8541a2	-0.06506659
225	0xbdb55a26	-0.08855085
226	0x3daa3a09	0.083118506
227	0xbc993570	-0.018702239
228	0xbc89e698	-0.016833588
229	0xbdb45dc4	-0.08806947
230	0x3dc654b5	0.09684125
231	0xbd4e327c	-0.050341114
232	0xbcb39864	-0.021923251
233	0x3d9f3917	0.07774561
234	0xbcf1f6dc	-0.029536657
235	0x3c979838	0.0185052
236	0x3c59ca00	0.013292789
237	0xbdc3faa5	-0.09569291
238	0xbd2deb4a	-0.042460717
239	0xbc352248	-0.011055537
240	0x3cbcc0a8	0.023041084
241	0xbdb70ef5	-0.089384
242	0xbc77c7f0	-0.015123352
243	0xbbbbd700	-0.005732417
244	0x3d77439a	0.060367204
245	0xbd8e5757	-0.069502525
246	0xbd8934c3	-0.066995166
247	0x3d61e49e	0.055149667
248	0xbd2d4ac8	-0.042307645
249	0x3cc16aac	0.023610435
250	0x3d3b5baa	0.045741715
251	0xbc808f8c	-0.015693448
252	0xbdc7471c	-0.0973036
253	0x3d22e542	0.03976942
254	0xbc465e78	-0.012107484
255	0xbc852d90	-0.016257077

linear_relu_stack.0.bias f4 [64]
0	0x3d89c1a9	0.06726391
1	0x3dc60a35	0.096699156
2	0xbbada250	-0.00529889
3	0x3bfbacc0	0.0076805055
4	0x3b042540	0.0020163804
5	0xbd4d90ec	-0.050187036
6	0x3d90590d	0.07048235
7	0x3c8b768c	0.017024301
8	0x3d860825	0.06544522
9	0x3d803fa3	0.06262138
10	0xbcb3a56c	-0.021929465
11	0x3da1b131	0.07895125
12	0xbd8b223c	-0.06793639
13	0x3d80587b	0.06266876
14	0xbdae8332	-0.08521117
15	0xbd5aca5d	-0.053415645
16	0xbd89785e	-0.06712411
17	0x3d42f11a	0.047593214
18	0x3c929150	0.017891556
19	0xbcfb7dbc	-0.030699603
20	0xbd05314e	-0.032517724
21	0xbd12ba4f	-0.03582221
22	0xbc2baeb8	-0.010478668
23	0xbd5b4b27	-0.053538468
24	0xbc540ed8	-0.012942992
25	0xbd473bec	-0.04864113
26	0xbcc6e064	-0.02427692
27	0xbd1df8c1	-0.03856731
28	0x3da0350b	0.07822617
29	0x3bdb2950	0.0066882744
30	0xbdc121d9	-0.09430284
31	0xbdb65815	-0.08903519
32	0xbd5dc149	-0.05413941
33	0x3d9f6fc9	0.07784993
34	0x3d179922	0.037011273
35	0xbc5d88d0	-0.013521388
36	0xbd386494	-0.045017794
37	0x3a9bf740	0.0011899248
38	0x3d145bbe	0.036220305
39	0xbdac9b11	-0.08428014
40	0xbba8b210	-0.00514818
41	0x3d7d1c56	0.0617946
42	0x3c0157d0	0.007894471
43	0xbd7ba94d	-0.061440755
44	0xbd837518	-0.06418818
45	0xbd2f684b	-0.04282407
46	0xbd6a1fef	-0.05715936
47	0xbcf705d0	-0.030154139
48	0xbd100cc2	-0.035168417
49	0xbc870c08	-0.01648523
50	0xbce49a94	-0.02790574
51	0x3d02ecb2	0.03196401
52	0xbb657f20	-0.00350184
53	0x3d7c0aae	0.061533622
54	0xbc232230	-0.009956881
55	0x3d192092	0.037384577
56	0x3d8e635d	0.06952546
57	0x3cddcf94	0.02707652
58	0x3b3d6960	0.002890192
59	0x3c576500	0.013146639
60	0x3ce5f47c	0.02807068
61	0x3dc85837	0.09782451
62	0x3d3065ba	0.043065764
63	0x3d9f1e7b	0.077694856

linear_relu_stack.2.weight f4 [64, 64]
0	0xbdb5995e	-0.08867143
1	0xbddf27c6	-0.10896258
2	0xbc80f8e0	-0.015743673
3	0x3dd1be0e	0.10241328
4	0xbd881d16	-0.06646173
5	0xbd934eea	-0.07192786
6	0x3def6ff2	0.11691274
7	0x3d8626d0	0.06550372
8	0x3dae2b22	0.08504321
9	0x3c863d40	0.016386628
10	0x3dbe8802	0.09303285
11	0xbd8be484	-0.06830695
12	0xbdfa684e	-0.12226926
13	0xbcf68270	-0.030091494
14	0x3dc8a0f4	0.09796324
15	0xbcd26c68	-0.025686458
16	0xbdb64f56	-0.08901851
17	0x3cd05c10	0.025434524
18	0xbd30c9b4	-0.04316111
19	0x3dd1ca92	0.10243715
20	0x3d8833b2	0.06650485
21	0x3dbc532a	0.0919555
22	0x3d11a810	0.035560668
23	0x3d36a25c	0.04458843
24	0xbdac38a6	-0.08409242
25	0x3da9d51e	0.08292602
26	0x3d4c4d94	0.04987867
27	0xbd5cc2b8	-0.053896636
28	0x3cc871d8	0.024468347
29	0x3d083044	0.033249155
30	0xbdd97dd2	-0.106197014
31	0x3be962e0	0.0071223825
32	0x3dbb6682	0.09150411
33	0xb8e5d000	-0.00010958314
34	0xbdbab5f4	-0.09116736
35	0xbdbe3f2e	-0.09289394
36	0x3df6444e	0.12024747
37	0x3c805fd0	0.015670687
38	0xbd03e374	-0.032199338
39	0xbd2ae0c4	-0.04171826
40	0x3ca04bb8	0.019567356
41	0xbce84eb8	-0.028357849
42	0xbc1805c0	-0.009278715
43	0xbdac1ba4	-0.084037095
44	0xbdad2384	-0.0845404
45	0xbdbe1aca	-0.09282453
46	0xbdfd44de	-0.12366651
47	0x3d252f08	0.040328056
48	0xbdfe9df0	-0.12432468
49	0x3daa8328	0.08325797
50	0x3c04f760	0.008115619
51	0x3d69af40	0.057051897
52	0xbc633c00	-0.013869286
53	0x3d876f40	0.06613016
54	0xbcf710a8	-0.03015931
55	0x3d3a2f50	0.045455277
56	0xbd62f2ec	-0.05540745
57	0x3df320e6	0.11871509
58	0xbd87d4be	-0.06632374
59	0x3de15ddc	0.110042304
60	0xbd7b117c	-0.06129597
61	0x3dfad3e4	0.12247446
62	0xbddab426	-0.10678892
63	0x3df40ed6	0.11916892
64	0x3cdb2e50	0.026755482
65	0x3c15d170	0.009144172
66	0x3da8368e	0.082135305
67	0xbd47057c	-0.048589215
68	0x3b53a7c0	0.0032296032
69	0x3d410b10	0.04712969
70	0xbd682d54	-0.056683853
71	0xbcaeb5d8	-0.021326944
72	0x3d805238	0.06265682
73	0xbd045d90	-0.03231579
74	0xbd7f8ee4	-0.06239213
75	0xbdb3d6ca	-0.08781202
76	0x3d1bad7c	0.038007244
77	0xbd05c6c8	-0.032660276
78	0x3dbdaefc	0.09261891
79	0xbdc4553a	-0.09586568
80	0x3d753344	0.059863344
81	0xbd9ae2f8	-0.07562822
82	0xbdffc18a	-0.124880865
83	0x3dc757d0	0.09733546
84	0xbcdba060	-0.026809871
85	0x3d2f7ec4	0.042845502
86	0x3dca2d1e	0.09871887
87	0x3d7a2770	0.061072767
88	0xbb920280	-0.0044558644
89	0x3d31eac0	0.043436766
90	0x3c7cc0c0	0.015426815
91	0x3d8066dc	0.06269619
92	0x3d65a1bc	0.056062445
93	0x3dc8b30a	0.09799774
94	0x3d564458	0.05231127
95	0xbd9328d8	-0.07185525
96	0x3d9131a4	0.07089546
97	0xbd0cc674	-0.034368947
98	0xbd20a0e8	-0.039215952
99	0xbcd03188	-0.025414243
100	0x3d979ae4	0.0740259
101	0x3df8a29e	0.12140392
102	0x3d84c5ae	0.06483017
103	0xbc9e3bc8	-0.019315615
104	0xbdcc6f62	-0.09982182
105	0x3d072d20	0.03300202
106	0xbcb6be18	-0.02230744
107	0xbdc3d900	-0.09562874
108	0xbd9d3734	-0.07676545
109	0x3dd31f80	0.103087425
110	0x3dc56162	0.09637715
111	0xbdc4209a	-0.09576531
112	0x3d80f028	0.06295806
113	0x3d580b40	0.052745104
114	0xbd475a60	-0.048670173
115	0x3da93332	0.08261718
116	0xbdb3ffb6	-0.08789007
117	0x3d324c14	0.043529585
118	0xbd88d4f6	-0.06681244
119	0xbd0565d8	-0.03256783
120	0xbc9098e8	-0.017651036
121	0xbc5ab540	-0.013348877
122	0x3cec69c8	0.028859034
123	0xbd8d7b14	-0.06908241
124	0xbde4f9b8	-0.111804426
125	0xbdf4548c	-0.119301885
126	0x3c9fb220	0.019494116
127	0x3dd3febc	0.10351321
128	0xbde8757c	-0.11350533
129	0xbd8f46ba	-0.06995912
130	0xbc82bcc0	-0.015959144
131	0xbd85f5f4	-0.065410525
132	0x3dc8a628	0.09797317
133	0x3d7c3794	0.06157644
134	0xbddf331a	-0.10898419
135	0xbdb6ff1e	-0.089353785
136	0x3d8889a4	0.06666878
137	0xbc4b33b0	-0.01240246
138	0x3df50a86	0.11964898
139	0xbddf52d4	-0.1090447
140	0x3d45b2b0	0.048266113
141	0x3d9662b6	0.07343046
142	0x3dcaac9a	0.098962024
143	0x3db8b312	0.0901853
144	0xbdc0785e	-0.09397958
145	0x3c4ae830	0.012384459
146	0xbd94be4c	-0.07262859
147	0x3bdab780	0.006674707
148	0xbdfd4c40	-0.12368059
149	0xbdd0bbea	-0.10192092
150	0x3dce3f16	0.100706264
151	0xbd8bc434	-0.06824532
152	0xbd079ca8	-0.033108383
153	0x3cf4d440	0.029886365
154	0xbbc6aca0	-0.006063059
155	0x3cb62d08	0.02223827
156	0x3d45c55c	0.04828392
157	0x3c9b1c10	0.01893428
158	0xbd9a5306	-0.07535367
159	0xbdb0ef0e	-0.08639346
160	0xbd815c62	-0.06316449
161	0xbd172f90	-0.036910594
162	0xbd6e8378	-0.058230847
163	0x3dc2edd6	0.0951802
164	0x3dcab1ac	0.098971695
165	0x3d9f2824	0.07771328
166	0xbd3f80ec	-0.04675381
167	0x3df7abd0	0.120933175
168	0x3d2ffccc	0.042965695
169	0xbdff3756	-0.12461726
170	0xbc4dd450	-0.012562826
171	0xbcb6a0b0	-0.022293419
172	0xbdc93d26	-0.09826116
173	0x3dd2ce24	0.102932245
174	0xbd83e266	-0.064396665
175	0x3ac5ca00	0.0015090108
176	0xbda37f4c	-0.07983264
177	0xbdf2b5cc	-0.11851081
178	0xbd95f60e	-0.07322322
179	0xbd1092e8	-0.03529635
180	0x3d3a2018	0.045440763
181	0x3dcd915c	0.10037491
182	0x3b4fa980	0.0031686723
183	0x3da96d02	0.08272745
184	0xbd673aac	-0.05645244
185	0x3d6374ac	0.05553119
186	0xbd48f038	-0.049057215
187	0x3d2bcd1c	0.041943654
188	0xbdb4073e	-0.08790444
189	0xbb327600	-0.0027230978
190	0xbde91232	-0.113804236
191	0x3d9599a0	0.07304692
192	0xbdd151ec	-0.102207035
193	0xbd0aebb4	-0.03391619
194	0x3d1ee66c	0.038793966
195	0xbc0e6280	-0.008690476
196	0x3c12c440	0.008957922
197	0x3db11ff4	0.08648673
198	0x3d2faab4	0.042887405
199	0xbd9965e8	-0.0749014
200	0x3d75fbf0	0.06005472
201	0xbdd73a86	-0.10509209
202	0x3d28d26c	0.0412163
203	0xbc925418	-0.017862365
204	0xbd3745c4	-0.044744268
205	0xbc45ed30	-0.012080476
206	0x3dec4cb8	0.115380704
207	0xbdae618c	-0.08514699
208	0x3cfc3490	0.030786783
209	0x3db55848	0.08854729
210	0xbdac46a6	-0.084119126
211	0x3d38096c	0.04493086
212	0xbde99884	-0.11406043
213	0xbd4d2658	-0.050085396
214	0xbdc732c2	-0.09726478
215	0x3df79e26	0.12090711
216	0xbd38013c	-0.044923052
217	0xbdc3eef0	-0.09567058
218	0xbcc10330	-0.02356109
219	0x3c827890	0.01592663
220	0xbcec5b68	-0.02885218
221	0xbd5dd464	-0.05415763
222	0x3c940540	0.01806891
223	0xbc901310	-0.017587215
224	0xbda98f54	-0.08279291
225	0xbdbe659c	-0.09296724
226	0xbc9f4208	-0.019440666
227	0xbdcf4d4a	-0.101221636
228	0x3c40b1b0	0.011761114
229	0xbd8bf51a	-0.06833859
230	0x3b982080	0.004642546
231	0x3b4e6640	0.0031494051
232	0x3bb38740	0.0054787695
233	0xbde784fc	-0.11304662
234	0x3da8d358	0.082434356
235	0x3cb9ee68	0.022696689
236	0xbde37a30	-0.1110729
237	0xbdedf96c	-0.11619839
238	0x3d6e2a08	0.058145553
239	0xbdc4cebe	-0.096097454
240	0x3da6d88a	0.0814677
241	0xbdf5f8ba	-0.120103315
242	0xbdf2a022	-0.11846949
243	0x3d2505a0	0.040288568
244	0x3db807e8	0.08985883
245	0xbdbe7eb6	-0.09301512
246	0x3b93b9a0	0.004508212
247	0xbdf93eea	-0.12170203
248	0x3df7a3e6	0.12091808
249	0xbd8abcde	-0.06774305
250	0xbdb628a8	-0.08894473
251	0xbdea3108	-0.11435133
252	0x3d50e5dc	0.05100046
253	0xbdd0fbe2	-0.10204293
254	0x3d3d64c8	0.04623869
255	0xbd8a23c2	-0.067451015

linear_relu_stack.2.bias f4 [64]
0	0x3d1bd4a4	0.038044587
1	0x3d52d92c	0.051476642
2	0x3da004e4	0.07813433
3	0x3cf64e00	0.03006649
4	0xbd105e9c	-0.035246477
5	0x3c86f068	0.016472057
6	0xbd107d44	-0.035275713
7	0x3db2bb78	0.08727163
8	0xbdb9b90e	-0.090684995
9	0xbdeb747c	-0.11496827
10	0xbdd62610	-0.104564786
11	0x3d0be9a8	0.03415838
12	0x3dd5333e	0.10410164
13	0x3dfab628	0.12241775
14	0x3cfd1bb0	0.030896991
15	0xbdadfdec	-0.084956974
16	0xbdc4cc0a	-0.0960923
17	0x3d7d61d4	0.061860874
18	0xbdb5974e	-0.0886675
19	0x3de31f56	0.11089961
20	0xbd400a50	-0.046884835
21	0xbd32e0a0	-0.04367125
22	0x3cb8b548	0.02254738
23	0x3df94f74	0.121733576
24	0xbd8637d0	-0.06553614
25	0xbd49fa24	-0.04931082
26	0xbd9b62c6	-0.07587199
27	0x3c684800	0.014177322
28	0xbd737aa4	-0.05944313
29	0x3df9bed2	0.12194599
30	0x3d330bac	0.043712303
31	0xbd24cae0	-0.04023254
32	0x3df4b962	0.119494215
33	0xbb49e640	-0.0030807406
34	0x3d02ebd0	0.03196317
35	0x3d857b94	0.06517711
36	0xbc9de538	-0.01927434
37	0xbd967704	-0.07346919
38	0xbd4f6d4c	-0.050641343
39	0x3d555b68	0.052089125
40	0x3df18bae	0.1179422
41	0xbce7ea18	-0.028309867
42	0xbd759320	-0.059954762
43	0x3daee174	0.085390955
44	0xbdadbfea	-0.0848387
45	0xbdce6082	-0.10077001
46	0xbd42d074	-0.047562078
47	0x3d07f200	0.033189774
48	0x3d4bbe54	0.049742058
49	0xbd2ca2a4	-0.042147294
50	0xbda7286e	-0.08162008
51	0x3db8a04c	0.09014949
52	0xbc282a30	-0.0102639645
53	0x3c5611c0	0.013065755
54	0x3d3aaec8	0.04557684
55	0x3dccdec2	0.10003425
56	0x3dbd2b5a	0.09236784
57	0x3dc778b2	0.09739818
58	0x3d1f9838	0.038963526
59	0xbdb615a2	-0.08890845
60	0xbdba5fc2	-0.091002956
61	0x3dab412e	0.083620414
62	0xbdc056a0	-0.093915224
63	0x3dc03ee6	0.09386997

linear_relu_stack.4.weight f4 [1, 64]
0	0xbd615580	-0.05501318
1	0x3d8dbc66	0.069207
2	0xbc697800	-0.014249802
3	0x3dc02502	0.09382059
4	0x3cd11d78	0.025526747
5	0x3cf9e388	0.030504003
6	0xbda7e6ce	-0.081983194
7	0xbd32c648	-0.043646127
8	0x3d1af354	0.037829712
9	0x3d96cf4a	0.07363756
10	0xbd38f9d4	-0.04516013
11	0xbd9ad784	-0.075606376
12	0x3c340a50	0.010988787
13	0x3c544a10	0.012957111
14	0x3caf2838	0.021381482
15	0x3dbe7b7a	0.09300895
16	0xbd0d6114	-0.03451641
17	0x3bf84860	0.007576987
18	0x3d9b0a28	0.075702965
19	0xbde290d8	-0.11062783
20	0x3db981ea	0.09057982
21	0xbcd95a20	-0.026532233
22	0x3d981370	0.074255824
23	0xbd9c8f7c	-0.07644555
24	0xbcf70b88	-0.030156866
25	0xbd648a4c	-0.055795953
26	0xbdf1e6da	-0.118116096
27	0x3d45d644	0.048300043
28	0xbda214f0	-0.0791415
29	0x3d332b60	0.043742537
30	0xbc5e22f0	-0.013558134
31	0x3d3c4ce0	0.04597175
32	0x3dd2e91e	0.1029837
33	0xbd9106d0	-0.070813775
34	0xbc96e3e0	-0.018419206
35	0xbb7dc9c0	-0.0038724989
36	0x3d86f764	0.06590155
37	0xbdca7fb8	-0.09887642
38	0x3df5fe5a	0.12011404
39	0xbc9a9f98	-0.018874928
40	0xbcdaff58	-0.026733086
41	0x3dbaf620	0.09128976
42	0xbdea15ce	-0.1142994
43	0xbde5d44a	-0.112221316
44	0xbd98e618	-0.07465762
45	0x3dbb904e	0.09158383
46	0x3d852d3e	0.0650277
47	0xbd621100	-0.055191994
48	0xbdcbd6e6	-0.09953098
49	0xbdb8eb24	-0.090292245
50	0x3db65ffa	0.08905025
51	0x3d76eac8	0.0602825
52	0x3da55914	0.08073631
53	0xbdb486d2	-0.088147774
54	0x3c40fd90	0.011779204
55	0x3c0a3b70	0.008437023
56	0x3dcb7236	0.099338934
57	0xbd9aef18	-0.07565135
58	0x3dda2f60	0.10653567
59	0xbdecec78	-0.1156854
60	0x3d23a7cc	0.039954945
61	0xbdc7d534	-0.09757462
62	0x3d936b64	0.071982175
63	0x3d09cc54	0.033642128

cnns.0.weight f4 [32, 2, 3, 3]
0	0xbe51ed59	-0.20500697
1	0xbd44d013	-0.048049998
2	0xbe265352	-0.16242722
3	0xbe139896	-0.14413676
4	0x3df9d538	0.121988714
5	0x3e03bb0f	0.12864326
6	0x3e77bc79	0.2419299
7	0x3dda9e24	0.10674694
8	0x3adef218	0.0017009405
9	0x3e220bf5	0.15824874
10	0xbc7a8d1e	-0.015292434
11	0xbe2a9b71	-0.16660859
12	0xbd5a596b	-0.053307932
13	0xbe2da636	-0.16957936
14	0x3d85d986	0.0653563
15	0xbdf1a5fe	-0.117992386
16	0x3e1af70f	0.15133308
17	0xbd4fae7c	-0.05070351
18	0xbe4be71b	-0.19912378
19	0x3e70cd58	0.23515832
20	0x3e0c2e20	0.1368947
21	0xbe773c0b	-0.24143998
22	0xbe22d475	-0.15901358
23	0xbd85b5a9	-0.065287896
24	0xbdd36b12	-0.103231564
25	0xbe2e22d8	-0.1700548
26	0xbcfacf70	-0.030616492
27	0xbe30d446	-0.17268476
28	0x3e21b3a5	0.15791185
29	0xbdc23523	-0.09482791
30	0xbe062d0a	-0.13103119
31	0x3db58757	0.08863705
32	0xbdb90516	-0.09034173
33	0x3e1f542b	0.15559451
34	0x3e0f359c	0.13985294
35	0xbe3a0148	-0.18164551
36	0x3de6a6da	0.11262293
37	0x3ddd3e56	0.10802905
38	0xbe5954da	-0.21223775
39	0xbdbef05d	-0.093231894
40	0xbd032046	-0.0320132
41	0xbd913808	-0.07090765
42	0x3d2a356f	0.041554864
43	0x3e58107e	0.21100041
44	0xbe29eb8f	-0.16593765
45	0xbd010df3	-0.031507444
46	0xbe6d2654	-0.23159152
47	0xbdf19a66	-0.11797027
48	0x3e5542e7	0.20826302
49	0xbde0925b	-0.10965415
50	0xbe6a8f36	-0.22906193
51	0x3d5ff826	0.054680012
52	0xbd165f53	-0.036712002
53	0xbdca4d55	-0.09878031
54	0xbd8ea81f	-0.0696566
55	0xbe8e33a1	-0.27773765
56	0x3e0a9e55	0.13536961
57	0x3e3cfe56	0.18456396
58	0xbe30e580	-0.17275047
59	0x3daa4e1b	0.08315679
60	0x3de9478f	0.11390602
61	0x3dcdc268	0.10046846
62	0x3c878df5	0.016547183
63	0x3d0ea8e4	0.034829035
64	0x3e646d6d	0.22307368
65	0x3defa3ff	0.11701202
66	0xbe3944a2	-0.18092588
67	0xbcc0c68e	-0.023532178
68	0xbe0e979f	-0.13925026
69	0xbe74425d	-0.2385344
70	0x3dc6f3dc	0.09714481
71	0xbdb0e745	-0.08637861
72	0x3d839ff2	0.064269915
73	0xbd72a3e6	-0.059238337
74	0xbd9e89d3	-0.07741132
75	0xbe6c6468	-0.23085177
76	0xbe520278	-0.20508754
77	0x3db50586	0.08838944
78	0x3e7af3ee	0.24507114
79	0xbdfbd49d	-0.12296412
80	0x3d27c393	0.040958
81	0xbe1efc92	-0.15526035
82	0xbdd869b6	-0.10567038
83	0xbe0cd76c	-0.13754052
84	0xbe7795b5	-0.24178202
85	0xbe6eeca5	-0.2333246
86	0xbe589189	-0.21149267
87	0x3e6e37d2	0.23263481
88	0x3e50d280	0.203928
89	0xbe4362bd	-0.19080634
90	0xbe68bc8d	-0.22728176
91	0x3e04273b	0.1290559
92	0xbd8468a0	-0.06465268
93	0x3e02082c	0.1269843
94	0x3e6de97d	0.232336
95	0x3e9026dc	0.28154647
96	0x3cb71a97	0.022351546
97	0x3b7802fe	0.003784358
98	0xbe3a0f94	-0.18170005
99	0x3e410f6a	0.18853536
100	0xbdf68d2b	-0.120386444
101	0xbd9bf134	-0.07614365
102	0xbdfe578c	-0.12419042
103	0xbdcff466	-0.10154037
104	0x3e88bb82	0.26705557
105	0x3e56201b	0.20910685
106	0x3e7e26d4	0.24819499
107	0xbe0ca943	-0.13736443
108	0xbe1bbac8	-0.1520797
109	0xbe4f20a6	-0.20227298
110	0x3e25a02f	0.16174386
111	0xbe7b538b	-0.24543588
112	0x3e3419ef	0.17588018
113	0xbe23a9f9	-0.15982808
114	0x3e30484d	0.1721508
115	0x3d7f2807	0.062294032
116	0x3e57c0b1	0.210696
117	0x3e70d511	0.23518778
118	0x3e4c6504	0.1996041
119	0x3e9b1d3c	0.30295742
120	0x3e8c3c66	0.2738983
121	0xbdad06dd	-0.08448575
122	0x3dbdd01e	0.09268211
123	0x3e74b9c7	0.23898993
124	0xbd23c3dc	-0.039981708
125	0xbce87cd9	-0.028379845
126	0xbe1deca1	-0.15422298
127	0xbdb7267a	-0.08942886
128	0x3d87c2e9	0.06628973
129	0xbdfaab80	-0.12239742
130	0x3cfc94e9	0.030832725
131	0x3d99ea82	0.07515432
132	0xbe16ac45	-0.14714153
133	0x3d56722c	0.052354977
134	0x3e4920c0	0.196414
135	0x3e09bfe4	0.13452107
136	0x3e1aa8d5	0.15103467
137	0x3e3768bc	0.17911047
138	0xbdbf3126	-0.09335546
139	0xbe3d4be4	-0.18485981
140	0xbe6b2d01	-0.22966386
141	0xbe57decf	-0.21081088
142	0xbd737974	-0.059442
143	0xbcb8bcda	-0.022550989
144	0xbd711a4a	-0.05886296
145	0x3d8b5c5f	0.06804728
146	0xbe0b42cc	-0.135997
147	0x3e4e9680	0.20174599
148	0x3e496cf7	0.19670473
149	0xbe8159ce	-0.25263828
150	0xbd97312e	-0.07382427
151	0x3e230a09	0.15921797
152	0x3df669d0	0.12031901
153	0x3e8780a8	0.26465344
154	0x3e0c0f4d	0.13677712
155	0x3e843468	0.25821233
156	0x3d4080fb	0.046998005
157	0x3e5979a9	0.21237816
158	0xbe2c2cd4	-0.16813976
159	0x3dd6cd6d	0.104884006
160	0xbdc60d37	-0.09670489
161	0x3e28639a	0.16444245
162	0xbd8c532f	-0.068518035
163	0x3c3c1112	0.011478679
164	0xbe44b186	-0.19208345
165	0x3d844afd	0.064596154
166	0xbe214498	-0.15748823
167	0x3d8ff6df	0.07029509
168	0xbd9c304b	-0.07626399
169	0xbc81ca00	-0.015843391
170	0x3e7080f9	0.23486699
171	0x3c315ce4	0.0108253695
172	0x3e686aee	0.2269704
173	0x3e8fcff2	0.28088337
174	0xbdc8ef32	-0.09811248
175	0x3e5b4916	0.21414599
176	0xbcb0cc07	-0.021581663
177	0xbdb7085a	-0.0893714
178	0xbe6c2018	-0.23059118
179	0x3df5d08b	0.12002667
180	0x3c84348a	0.016138334
181	0xbd196c73	-0.03745694
182	0x3e6ca9a7	0.23111592
183	0x3e23beb4	0.15990716
184	0xbdb3afb4	-0.08773747
185	0x3dd80652	0.105480805
186	0x3cf423ff	0.02980232
187	0x3c95acfb	0.01827096
188	0xbc78468c	-0.015153538
189	0xbb8fb0e8	-0.0043851025
190	0xbdf0d8fe	-0.11760138
191	0xbe88c807	-0.2671511
192	0x3e1cae92	0.15300968
193	0xbde2e588	-0.11078936
194	0xbd95d732	-0.07316436
195	0x3d557fd8	0.052123874
196	0xbe0d43cc	-0.13795394
197	0x3e17bac6	0.14817342
198	0x3d4aba14	0.049493864
199	0xbe4af8ac	-0.19821423
200	0x3e7b072f	0.24514459
201	0x3e0e9c06	0.13926706
202	0x3d9e9c16	0.07744615
203	0x3e48f4a7	0.19624577
204	0x3e392e53	0.18084078
205	0xbe7a7200	-0.2445755
206	0x3df1e1ad	0.11810622
207	0xbe40dec5	-0.1883498
208	0xbe06b220	-0.13153887
209	0xbc8dbcb3	-0.017301893
210	0x3e6262b3	0.22107963
211	0x3e12b066	0.14325103
212	0xbdf02537	-0.11725848
213	0x3d8a7bd1	0.06761897
214	0x3e372959	0.17886867
215	0x3bf6defa	0.007533905
216	0x3e2bf06c	0.16790932
217	0xbdeebc67	-0.11657029
218	0x3e79f4e6	0.24409828
219	0x3dd83036	0.105560705
220	0xbe906baf	-0.28207156
221	0x3cd90cda	0.026495386
222	0x3e1f263c	0.15541929
223	0x3c035f2d	0.008018297
224	0xbc3d95bf	-0.011571347
225	0xbde48036	-0.11157267
226	0x3dda2485	0.10651497
227	0x3ea5ed00	0.3240738
228	0xbe321142	-0.17389396
229	0xbe103a02	-0.14084628
230	0x39e6ef3c	0.00044047262
231	0x3d7f5cc2	0.06234432
232	0xbc38cbc0	-0.011279047
233	0x3e82ab17	0.25521156
234	0x3e19288d	0.14956875
235	0xbe71ec90	-0.23625398
236	0x3e7eab4d	0.24870034
237	0x3cf107d3	0.029422676
238	0x3de4bef1	0.11169232
239	0x3de5805c	0.11206123
240	0x3e44c178	0.19214427
241	0x3d5696da	0.052389957
242	0x3e246fa0	0.16058207
243	0xbe564a44	-0.20926768
244	0xbdb5d708	-0.088789046
245	0x3dff9341	0.12479258
246	0x3cec5d5a	0.028853107
247	0x3e77427c	0.24146456
248	0x3e8fa2ec	0.28053987
249	0xbddd8973	-0.10817232
250	0x3e31ff63	0.17382579
251	0x3d80ac82	0.06282903
252	0x3e53d0fd	0.20685191
253	0x3d18fbc0	0.037349463
254	0x3c742fe1	0.014903993
255	0x3dd20327	0.102545075

cnns.0.bias f4 [32]
0	0xbda1eee1	-0.07906891
1	0x3ba2bd85	0.00496644
2	0x3da015b9	0.07816643
3	0x3b7bf666	0.0038446425
4	0x3dd47a63	0.10374906
5	0xbe0c12c6	-0.13679036
6	0xbd24d632	-0.040243335
7	0x3d91ae5b	0.07113334
8	0xbc8ed38c	-0.017434858
9	0xbb81b372	-0.003958159
10	0x3cf09cac	0.029371582
11	0xbe056089	-0.13025106
12	0xbe2071e0	-0.1566844
13	0xbe33fe2a	-0.17577425
14	0xbd0aa088	-0.0338445
15	0x3e19b969	0.15012135
16	0xbcaf1530	-0.021372408
17	0xbcf55a89	-0.029950397
18	0x3dbfc9c4	0.093646556
19	0x3decc585	0.11561111
20	0x3e06daed	0.13169451
21	0xbd9f715b	-0.07785293
22	0xbd3ce220	-0.046114087
23	0xbdaa57a1	-0.08317495
24	0xbd5d5475	-0.054035623
25	0x3d84e2be	0.0648856
26	0xbd954099	-0.07287712
27	0x3d7a379e	0.061088197
28	0x3d70225e	0.058626525
29	0xbb09805e	-0.0020981054
30	0xbe1062e5	-0.14100225
31	0x3db217c9	0.08695943

cnns.2.weight f4 [64, 32, 3, 3]
0	0x3d3dd055	0.04634126
1	0x3bf8b88c	0.007590359
2	0x3d3fff06	0.04687407
3	0xbd72547f	-0.059162613
4	0xbbfeff82	-0.0077819237
5	0xbcb1ac4b	-0.021688601
6	0xbc8f646f	-0.017503945
7	0xbb85f3e6	-0.004087913
8	0x3d02fdb8	0.031980246
9	0x3d19c1bc	0.037538275
10	0xbda55a75	-0.08073894
11	0xbd99313c	-0.07480094
12	0x3ca7c55c	0.02047985
13	0xbd6c98b2	-0.05776281
14	0xbc599a8a	-0.013281474
15	0xbd716647	-0.05893543
16	0xbd1e712e	-0.038682155
17	0xbb2b1025	-0.0026102152
18	0x3cc93fa8	0.024566486
19	0x3a770753	0.00094233936
20	0x3c865ae7	0.016400767
21	0xbd8a8d44	-0.067652255
22	0xbd951298	-0.07278937
23	0xbc42cbdc	-0.011889424
24	0x3c351686	0.011052733
25	0x3c91da22	0.01780421
26	0x3d249999	0.040185545
27	0xbd98c0a1	-0.07458616
28	0xbc9a151b	-0.018808892
29	0xbcf7f804	-0.03026963
30	0xb9e097f4	-0.00042837823
31	0x3cbdf887	0.023189796
32	0xbb910f41	-0.0044268672
33	0x3970f38b	0.0002297891
34	0x3d40d223	0.047075402
35	0xbd926123	-0.071474336
36	0x3d4cf364	0.050036803
37	0xbd0996d1	-0.033591095
38	0xbccce756	-0.025012653
39	0xbcfa8ba0	-0.030584157
40	0x3d28ddf5	0.0412273
41	0x3d1735f5	0.03691669
42	0x3c979db7	0.018507821
43	0xbd05aa8c	-0.03263335
44	0xbd4489b4	-0.047982886
45	0x3d533875	0.051567513
46	0x3c83d32c	0.016091906
47	0x3c42dc86	0.011893397
48	0x3cb09a75	0.021558026
49	0xbd47b2bd	-0.048754442
50	0x3c9527dc	0.018207483
51	0xbc994191	-0.018708022
52	0xbd98e188	-0.07464892
53	0x3ca1e908	0.019764438
54	0x3c912495	0.017717639
55	0xbc8cfd7d	-0.017210716
56	0xbd5c1a05	-0.05373575
57	0x3d036792	0.032081194
58	0xbd341c2f	-0.04397219
59	0xbb2ade74	-0.0026072534
60	0xbc84c2e4	-0.016206212
61	0xbd2fb878	-0.042900532
62	0xbd9fdd2a	-0.078058556
63	0xbd7d0971	-0.061776582
64	0x3c1d87d4	0.0096149035
65	0x3cb2a78e	0.021808412
66	0xbd644ab0	-0.05573529
67	0xbd999a79	-0.075001664
68	0xb9e99e0d	-0.0004455898
69	0xbaa2416b	-0.0012379115
70	0x3cd8a2dd	0.026444847
71	0xbd87ad69	-0.06624872
72	0xbcb96057	-0.022628946
73	0xbc943aec	-0.018094502
74	0xbd036150	-0.032075226
75	0xbc5aa84f	-0.013345792
76	0xbd06530f	-0.032794055
77	0xbcef0b08	-0.029180065
78	0x3c1f9baf	0.009741708
79	0xbd24f64b	-0.040273946
80	0x3b9a1e4f	0.00470332
81	0xbd8e5456	-0.069496796
82	0x3d25244e	0.040317826
83	0xbd795e76	-0.0608811
84	0xbd4fdc24	-0.05074705
85	0x3ce2ebcc	0.027700327
86	0xbc8214be	-0.015879031
87	0xbcf6692d	-0.030079449
88	0x3d00afac	0.031417534
89	0x3d408cd3	0.0470093
90	0x3cbe8bb3	0.023259973
91	0x3c291077	0.010318867
92	0x3ce51c5e	0.027967628
93	0x3bc72a59	0.0060780463
94	0x3af4c8c0	0.0018675551
95	0x3d0c2392	0.03421361
96	0xbd2a5f09	-0.04159454
97	0xbc22c0bf	-0.00993365
98	0xbd50f6a1	-0.051016454
99	0x3cc7fd10	0.024412662
100	0x3cfda1d0	0.030960947
101	0xbd1f1f62	-0.03884829
102	0xbbe3dcd4	-0.006953815
103	0x3d06745e	0.03282582
104	0x3cfcff9d	0.030883605
105	0x3bfd639e	0.0077328226
106	0xbb19e44b	-0.002348202
107	0xbd44778a	-0.047965564
108	0x3c9e5ef5	0.019332388
109	0x3c151ca7	0.0091010695
110	0xbc04e7cd	-0.008111906
111	0x3c374df1	0.011188016
112	0xbbc88ae3	-0.006120072
113	0x3cae3d61	0.021269502
114	0xbcac0e33	-0.021002864
115	0xbc9d313e	-0.01918852
116	0x3cbd0040	0.023071408
117	0xbd0444b2	-0.032292075
118	0xbb611034	-0.0034341933
119	0x3ccfc727	0.025363518
120	0xbcf15ee0	-0.029464185
121	0x3cc9ee1f	0.024649678
122	0xbcde8c95	-0.027166644
123	0xba44eca6	-0.000751207
124	0xba5a1e28	-0.00083205337
125	0xbd690c54	-0.056896523
126	0x3d105f74	0.03524728
127	0xbc490c2a	-0.012270967
128	0x3b43f21e	0.0029898952
129	0xbc8ca180	-0.017166853
130	0xbd0cf9d2	-0.034417935
131	0xbcaba409	-0.020952241
132	0xbcf22a20	-0.029561102
133	0x3d23a36d	0.039950777
134	0x3cccb1ef	0.02498719
135	0xbd859a24	-0.065235406
136	0xbdafe6b3	-0.08588924
137	0xbd83b2e2	-0.064306036
138	0xbd776053	-0.060394596
139	0xbd725dc9	-0.05917147
140	0xbc7530bb	-0.0149652315
141	0xbca2e3d4	-0.019884028
142	0x3cf00014	0.029296912
143	0xbb742020	-0.0037250593
144	0x3d1212cd	0.03566246
145	0xbd6b3728	-0.057425648
146	0x3d0f7739	0.03502581
147	0x3cbcdc02	0.023054127
148	0x3b8c1bc5	0.0042757713
149	0xbc9a055d	-0.018801386
150	0x3c1b5809	0.009481438
151	0xbd876db2	-0.066127196
152	0x3cad8df6	0.021185856
153	0xbb8bacef	-0.0042625587
154	0x3d0ac899	0.03388271
155	0x3d1296dd	0.035788406
156	0xbd060689	-0.032721076
157	0x3d074477	0.033024278
158	0x3ce7aee5	0.028281638
159	0xbd9b5f2c	-0.07586512
160	0xbd13dd51	-0.036099736
161	0x3d25db4b	0.040492337
162	0x3cf1a443	0.029497271
163	0xbd553ff4	-0.052062944
164	0x3c8dbd2f	0.017302124
165	0x3a8681a3	0.0010262023
166	0x3b59534e	0.0033161226
167	0xbbaba8ed	-0.0052386434
168	0xbda66dff	-0.08126449
169	0xbc6f689c	-0.014612343
170	0x3beb3aef	0.0071786563
171	0xbc91a6cf	-0.017779736
172	0xbd84b043	-0.06478932
173	0x3bef4419	0.007301819
174	0x3ccdfe39	0.025145637
175	0xbcbce6df	-0.023059307
176	0xbcc860c4	-0.024460204
177	0x3d095e96	0.03353747
178	0xbb62acfe	-0.0034587975
179	0xbc171683	-0.009221676
180	0xbd8129ca	-0.06306799
181	0x3d19da2c	0.03756158
182	0x3c0aac25	0.008463894
183	0xbd5d598e	-0.054040484
184	0xbd10e894	-0.035378054
185	0x3cbdc2b7	0.023164136
186	0xbcbeb076	-0.023277503
187	0xbd7e851d	-0.062138665
188	0xbd99989c	-0.07499811
189	0x3c0d5669	0.008626559
190	0x3bad8f8d	0.0052966536
191	0xbb7fdb56	-0.0039040647
192	0xbd58d967	-0.052941706
193	0xbcff6878	-0.031177744
194	0x3d2f93de	0.042865627
195	0xbd85e52a	-0.0653785
196	0x3d11ad6d	0.035565782
197	0x3ce3c7f3	0.027805304
198	0x3d44f5bf	0.048085924
199	0xbd37b2d2	-0.04484827
200	0x3c313858	0.010816656
201	0x3ca54413	0.020174062
202	0xbda71f82	-0.081603065
203	0xbd85bbdb	-0.06529971
204	0xbcae4fea	-0.02127834
205	0xbd2b74eb	-0.04185955
206	0x3ca1a3ad	0.019731367
207	0x3d10085d	0.035164226
208	0xbc9eb2d0	-0.019372374
209	0x3cf69f4f	0.030105261
210	0x3c8d4993	0.017246997
211	0xbd2d781d	-0.042350877
212	0x3c9b6526	0.01896913
213	0x3bc12c1d	0.0058951513
214	0x3b210af4	0.002457318
215	0x3d27f024	0.0410005
216	0x3bf57365	0.0074905627
217	0xbd6f7659	-0.058462474
218	0x3b678516	0.0035327128
219	0x3ca0b1a7	0.019615961
220	0xbd7fa071	-0.06240887
221	0xbd3c78c6	-0.046013616
222	0x3b656804	0.0035004625
223	0xbd87f334	-0.06638184
224	0x3c8534e7	0.016260577
225	0x3c97e57e	0.018542048
226	0x3c53d708	0.012929685
227	0x3d073c85	0.0330167
228	0xbd160101	-0.03662205
229	0xbb8d3c87	-0.004310194
230	0xbcc0e26c	-0.023545466
231	0xbda1c779	-0.078993745
232	0xbc8cf371	-0.017205926
233	0x3cdf5ddc	0.027266435
234	0xbcdddba0	-0.027082264
235	0xbd4933b8	-0.04912159
236	0x3cfddfca	0.0309905
237	0xbd3212f2	-0.0434751
238	0xbb619cc0	-0.0034425706
239	0xbd2d2071	-0.042267267
240	0xbd1a3624	-0.03764929
241	0x3c03866e	0.008027656
242	0x3d286193	0.04110868
243	0xbd225647	-0.03963306
244	0x3d7200d4	0.05908282
245	0x3c9cffae	0.019164886
246	0xbd8c29ef	-0.06843936
247	0xbd0a6de8	-0.03379622
248	0xbd46916d	-0.048478533
249	0xbc72aa10	-0.014811054
250	0xbc182e49	-0.009288379
251	0xbcd036aa	-0.02541669
252	0xbd8fadf1	-0.070155986
253	0xbcff8b68	-0.031194404
254	0xbcf67f98	-0.030090138
255	0xbd1edcce	-0.038784795

cnns.2.bias f4 [64]
0	0xbd001b61	-0.03127611
1	0xbd287b22	-0.041133054
2	0x3c472570	0.012154922
3	0xbc35654a	-0.0110715125
4	0xbd354f27	-0.04426494
5	0xbd90e6a1	-0.07075239
6	0x3c8df24c	0.01732745
7	0x3cbc4a5d	0.022984678
8	0x3d8a1338	0.06741947
9	0x3d11b36b	0.035571497
10	0x3d0c2a38	0.03421995
11	0x3ce6b2ee	0.028161492
12	0xbb09770b	-0.0020975496
13	0xbc01614c	-0.007896733
14	0x3c43b64e	0.01194532
15	0xbd290872	-0.04126782
16	0xbd4052ab	-0.04695384
17	0xbd8203fb	-0.063484155
18	0xbd193736	-0.03740617
19	0xbd0652bb	-0.03279374
20	0xbb627e38	-0.0034560096
21	0xbd4ba875	-0.0497212
22	0xbcdd9b1b	-0.0270515
23	0xbc8eb7af	-0.017421572
24	0xbd345c8a	-0.044033565
25	0xbc686bc1	-0.014185847
26	0xbd617cbf	-0.055050608
27	0xbd535e7a	-0.05160377
28	0xbc31cded	-0.010852319
29	0x3bf79c48	0.007556472
30	0xbc3fe2ab	-0.011711757
31	0xbcb5bbeb	-0.022184333
32	0xbd80208e	-0.06256209
33	0xbd646d29	-0.055768166
34	0xbce52f91	-0.027976783
35	0xbd56e479	-0.052463982
36	0xbd4c71ad	-0.049913097
37	0xbc1a4845	-0.009416644
38	0xbd3bf129	-0.045884285
39	0x3d412c76	0.047161542
40	0xbab95553	-0.0014139808
41	0xbc25f825	-0.010129963
42	0xbd224c32	-0.039623447
43	0xbd229508	-0.03969291
44	0xbbc11448	-0.0058923103
45	0x3d4453ae	0.047931366
46	0xbd267fcd	-0.040649224
47	0xbc0c5a3e	-0.008566437
48	0xbceeec81	-0.029165508
49	0xbc955ec8	-0.018233672
50	0xbd7ac63e	-0.061224215
51	0xbd941a02	-0.07231523
52	0x3cb8c417	0.02255444
53	0xbc181926	-0.00928334
54	0x3cc2bc95	0.023771564
55	0x3d635f96	0.05551108
56	0xbd3027dd	-0.043006767
57	0x3d1ed4fb	0.038777333
58	0xbd55e6d2	-0.05222208
59	0x3c8695d6	0.01642887
60	0xbd83850c	-0.06421861
61	0x3c5a2407	0.013314254
62	0xbc403a9a	-0.011732722
63	0xbd581e84	-0.052763477

linear.0.weight f4 [16, 3328]
0	0x3c6ff7fb	0.0146465255
1	0x3b7a673c	0.0038208505
2	0x39590338	0.00020695932
3	0xbc84697f	-0.016163586
4	0x3b3874a2	0.002814569
5	0x3afa18f4	0.0019080923
6	0x3c280722	0.010255607
7	0xbc48b7ea	-0.01225088
8	0x3c4c4075	0.01246654
9	0x3ad5a936	0.0016301039
10	0xbc920b2e	-0.017827597
11	0xbc5e0b58	-0.013552509
12	0x3bcc616d	0.0062372
13	0x3880af50	6.13617e-05
14	0x3c423c78	0.011855237
15	0xbbe93a36	-0.007117535
16	0xbbdc2b62	-0.006719039
17	0xbc614831	-0.013750122
18	0xbc82f529	-0.015986042
19	0xbc863ff9	-0.016387926
20	0xbc10f2b6	-0.008846929
21	0xbb833d6c	-0.004005125
22	0xbc967f03	-0.01837111
23	0x3abb052f	0.0014268513
24	0xbb4aebcb	-0.0030963297
25	0xbc0466ae	-0.008081121
26	0x3a044fda	0.0005047299
27	0x3c0b4c1c	0.008502033
28	0xbbcb8945	-0.006211432
29	0xbc404231	-0.011734531
30	0x3c27a478	0.0102320835
31	0x3c592a90	0.013254777
32	0xbbe43ddd	-0.0069653825
33	0xbc2e9710	-0.010656133
34	0xbc3dfb14	-0.011595506
35	0x3c2a60b1	0.01039903
36	0x39912884	0.00027686742
37	0x3a988da1	0.0011638888
38	0xbc585b9e	-0.013205437
39	0x3c68c668	0.01420746
40	0x3b3ad0fd	0.0028505914
41	0xbc1bc9c0	-0.00950855
42	0x3b06d3c4	0.0020573
43	0x3c037ae6	0.008024907
44	0x3c76d502	0.015065433
45	0x3c65935e	0.014012186
46	0x3aadb382	0.001325235
47	0xbb98acd2	-0.0046592737
48	0xbc004480	-0.007828832
49	0x3c0a653e	0.00844699
50	0xbbe6bb58	-0.007041376
51	0xbc882d4e	-0.016623165
52	0x3c7e748b	0.015530716
53	0xbaad69d8	-0.0013230396
54	0x3bdde9fc	0.006772278
55	0xbc471ea1	-0.012153299
56	0x3c23dfd1	0.010002092
57	0xbb59da78	-0.003324179
58	0x3c2a38f0	0.0103895515
59	0x3b32226e	0.0027181166
60	0xbb8ce783	-0.0043000593
61	0xbc4e11b2	-0.012577461
62	0xbbc9aebe	-0.006154864
63	0xbb23bffa	-0.0024986253
64	0xbb2cbc25	-0.002635726
65	0x3a037480	0.0005014613
66	0x3c32ffa1	0.0109252045
67	0xbc95ab3c	-0.018270127
68	0xbc9e0fbb	-0.01929461
69	0xbac5c3b7	-0.0015088235
70	0x3c0e457b	0.008683558
71	0x3bc8e79d	0.006131126
72	0xbbb699d7	-0.0055725384
73	0xbc710d46	-0.014712637
74	0xbc9153a1	-0.017740073
75	0x3a8b8508	0.0010644505
76	0xbc49246c	-0.01227675
77	0x3b55b3ae	0.0032608318
78	0x3c65f4a1	0.014035375
79	0xbb963dfa	-0.004585025
80	0xbbef0414	-0.0072941873
81	0xbb15342b	-0.002276669
82	0xbc0be70a	-0.008538971
83	0xbb8220f2	-0.0039712125
84	0x3c581dd2	0.0131907035
85	0x3b99992b	0.0046874485
86	0x3c1e2bf3	0.009654033
87	0xbbc36b21	-0.0059636985
88	0xbc6d647c	-0.014489289
89	0xbc93fca0	-0.018064797
90	0xbc41b971	-0.011823998
91	0xbc3c18de	-0.011480538
92	0x3c4b834d	0.012421441
93	0xbc19f299	-0.009396219
94	0x3a02f394	0.00049954024
95	0x3c293b66	0.010329103
96	0x3c55c4b4	0.013047386
97	0xbb1ef7b5	-0.0024256532
98	0x3c1cbecc	0.009566974
99	0xb9519642	-0.00019987769
100	0xbc9ade93	-0.01890496
101	0x3c3bb8a8	0.0114576
102	0xbbb0eada	-0.0053990902
103	0x3c204a13	0.009783286
104	0xbb1d2446	-0.002397792
105	0x39f95f24	0.00047563866
106	0xbcaccfa4	-0.021095105
107	0x3b448d55	0.0029991467
108	0x3b5dcf39	0.0033845438
109	0xbbf0304e	-0.007329977
110	0x3b1d61e4	0.0024014646
111	0xbbae426e	-0.0053179776
112	0xbc2fbacc	-0.010725688
113	0x3c1732e5	0.009228443
114	0xbc8072f1	-0.015679808
115	0xbc477bf1	-0.012175546
116	0xbc0cba83	-0.00858939
117	0x3a96656b	0.0011474317
118	0xbc33a083	-0.010963562
119	0xbc4982cc	-0.012299251
120	0xbc733e2b	-0.014846365
121	0xbcb43eda	-0.022002626
122	0x3bfb2dfb	0.0076653934
123	0xbcc9b865	-0.024624059
124	0x3c1b65d5	0.009484728
125	0xba995c75	-0.0011700528
126	0xbc968c87	-0.018377556
127	0xbb39ecf9	-0.0028370006
128	0xbb003833	-0.0019564747
129	0xba434f56	-0.00074504816
130	0xb9cd0cd2	-0.000391102
131	0x3c0e462f	0.008683725
132	0xbc11ca4d	-0.00889833
133	0xbc942bb8	-0.018087253
134	0xbba5d172	-0.005060368
135	0xbc8749c0	-0.016514659
136	0xbbba8a39	-0.005692747
137	0x3b38f2c6	0.0028220876
138	0xbc5e795c	-0.013578739
139	0xbbdfd1fc	-0.006830452
140	0xbc14e90e	-0.009088768
141	0x3b9482a3	0.0045321747
142	0xbcc99e39	-0.02461158
143	0xbcba44fc	-0.022737972
144	0xbaf88438	-0.0018960303
145	0xbc8b557d	-0.017008537
146	0x3c194495	0.00935473
147	0x3c137f6a	0.009002546
148	0xbc85d1c9	-0.016335385
149	0xbbc06bfe	-0.0058722487
150	0xbb58eca7	-0.003310004
151	0x3bc3313b	0.0059567965
152	0xbc524b95	-0.012835403
153	0xbc576184	-0.013145808
154	0xbbfe54c9	-0.007761572
155	0x3bfd9b08	0.0077394284
156	0xbc3a8d62	-0.011386247
157	0xbb225baa	-0.0024773874
158	0x3b99d464	0.0046945084
159	0xbc228b11	-0.009920851
160	0x3c085f7e	0.008323548
161	0xbc4adc32	-0.0123816
162	0xbc8e52a2	-0.017373387
163	0xbc26e14c	-0.010185551
164	0xbc678675	-0.014131178
165	0xbb910dc8	-0.0044266917
166	0xbba718e3	-0.0050994023
167	0xbbd8eddf	-0.0066201533
168	0x3c038e79	0.008029574
169	0xbc02884c	-0.007967066
170	0x3b52e16e	0.0032177824
171	0xbc64fac3	-0.013975802
172	0xbbb14c51	-0.005410709
173	0xbc3019c4	-0.0107483305
174	0xbbda52f8	-0.0066627227
175	0xbb7bd3a0	-0.00384257
176	0xbc8a3eef	-0.016875712
177	0xbc02c781	-0.007982136
178	0xba8b9bce	-0.0010651292
179	0x3c28b9da	0.010298217
180	0x3c2bf29b	0.010494853
181	0xbb3c62f4	-0.0028745504
182	0x3c84b338	0.01619874
183	0xbbe86bfd	-0.0070929513
184	0xbc10da7a	-0.008841151
185	0xbc38ea20	-0.0112862885
186	0x3b1400d7	0.0022583508
187	0x3bafc6c1	0.0053642695
188	0xb9dfae1c	-0.00042663596
189	0xbbb4b326	-0.00551452
190	0xbc3ea3b9	-0.011635714
191	0xbc02a7ef	-0.007974609
192	0x3c1e4ef9	0.009662383
193	0xbbc4a218	-0.0060007684
194	0x3bddaf28	0.006765265
195	0xbc8d4969	-0.017246919
196	0xbac517df	-0.0015037021
197	0x3c25fc6c	0.010130983
198	0xbc7eec3f	-0.015559255
199	0xbc0ef71b	-0.008725907
200	0x3c12e7bb	0.008966382
201	0x3c11f755	0.008909066
202	0x3c746ce0	0.014918536
203	0x3c274442	0.010209145
204	0xbc1249ed	-0.008928758
205	0x3c06a15f	0.008217185
206	0xbbc193f7	-0.0059075314
207	0xbc83c12d	-0.016083324
208	0xbc5b447d	-0.013383028
209	0xbc12fe9e	-0.008971838
210	0x3b4f1d86	0.003160329
211	0xbc8c404c	-0.017120503
212	0xbc7b310a	-0.015331516
213	0x3c00cac9	0.007860848
214	0xbb8783e3	-0.004135595
215	0x3ba2cba0	0.0049681216
216	0xbc93b923	-0.018032616
217	0xbbbf5588	-0.0058390535
218	0x3bd08921	0.0063640033
219	0xbc180b0f	-0.00927998
220	0xbaaecf4a	-0.0013336923
221	0xbc536af5	-0.0129039185
222	0xbc974816	-0.01846699
223	0x3bf89973	0.007586652
224	0xbbaa38d5	-0.005194763
225	0x3ada3fa6	0.0016651049
226	0x39514784	0.00019958435
227	0x3c180a22	0.00927976
228	0xbbbc65a4	-0.005749421
229	0x3c833111	0.016014608
230	0x3c00b1c2	0.007854881
231	0xbc78bc72	-0.015181648
232	0xbc9d14d6	-0.019174974
233	0x3a9b1fcb	0.0011835037
234	0xbc8c3f3d	-0.017119998
235	0xbc819e9d	-0.015822703
236	0x3b9b2aba	0.004735318
237	0x3c4a9f48	0.012367077
238	0xbb91283c	-0.004429845
239	0xbb6af5f8	-0.0035852175
240	0xbb4f4dbb	-0.0031632024
241	0xbbf7f238	-0.0075667165
242	0xbbc83718	-0.0061100833
243	0xbb020a70	-0.0019842647
244	0xbc911cef	-0.017713992
245	0x3c0d8993	0.008638757
246	0xbb94034c	-0.0045169946
247	0xbc6a2109	-0.014290103
248	0xbca3276c	-0.019916259
249	0x3b9b9b67	0.00474875
250	0xbca2efdf	-0.01988977
251	0x3c0a49a7	0.008440412
252	0x3b964ef9	0.004587051
253	0xbc7311a5	-0.01483575
254	0x3b3b4817	0.0028576904
255	0xbcb2f2db	-0.021844318

linear.0.bias f4 [16]
0	0x3c0c3889	0.008558401
1	0xbc9fb69e	-0.019496258
2	0x3cb7c621	0.022433342
3	0xbb18acb3	-0.0023296296
4	0xbce538ba	-0.02798115
5	0xbba8b575	-0.0051485845
6	0xbc07ccd0	-0.008288577
7	0x3bd62183	0.0065347566
8	0x3c1c4e5f	0.0095401695
9	0xbc9fb6ff	-0.019496439
10	0xbb5ac993	-0.0033384308
11	0x3bae705e	0.005323454
12	0xbb80f20f	-0.0039351056
13	0xbbd8728f	-0.0066054533
14	0xbbec156b	-0.0072047017
15	0x3ca6611b	0.020309975

linear.2.weight f4 [1, 16]
0	0xbe5c9932	-0.21542814
1	0xbe142270	-0.14466262
2	0xbe26f24d	-0.16303368
3	0x3cbd7da6	0.023131203
4	0x3e2f07ff	0.17092894
5	0x3e66cded	0.22539492
6	0xbd3ee22f	-0.046602424
7	0xbdb455be	-0.088054165
8	0xbe05b4dc	-0.13057274
9	0xbdd85a52	-0.10564102
10	0xbdcfe1c0	-0.1015048
11	0x3dbdfede	0.09277128
12	0x3d98ed56	0.07467143
13	0x3d0bef4c	0.03416376
14	0x3db88ec1	0.09011603
15	0x3e221a87	0.15830432
