models/trainingmodels/start_init.pth (torch, 45847 bytes, 5 tensors)

linear_relu_stack.0.weight f4 [64, 104]
000000 60 72 b0 3c 82 ab 35 bd 10 6b f7 bc f6 f7 42 bd
       0.021538913 -0.044353016 -0.030202419 -0.047599755
000010 54 72 a8 3c f2 3c 1b 3d 0c dd e5 3c 63 ca 97 3d
       0.020562328 0.03789992 0.028059505 0.07411649
000020 1c 9d a8 bc 80 d4 0e bb 9b ca a7 bd 55 14 bf 3d
       -0.020582728 -0.002179414 -0.08192941 0.0933005
000030 f4 f1 8d bd 58 4f 21 bc 3b c9 b7 3d e7 2d c6 3d
       -0.069309145 -0.009845577 0.089739285 0.09676724
000040 22 6d 1e 3d 32 76 68 3d 28 6f 75 3c 90 26 1d 3c
       0.038678296 0.056753345 0.014980115 0.009591714
000050 f4 28 80 3c 2d 6c 5e bd d4 3b a5 3c 40 dd be bc
       0.015644528 -0.054302383 0.02017013 -0.02329886
000060 d6 63 50 3d da d6 5a 3d 8e 7f 64 3d 74 db c6 bc
       0.05087646 0.053427555 0.055785708 -0.024274565
000070 10 14 c3 3b 98 28 c7 bd d0 ab 81 bc ec ab c1 bc
       0.0059533194 -0.097245395 -0.015828997 -0.023641549
000080 24 25 e5 3c 2f 3d b0 bd 4c ed f2 3c 38 c6 18 3c
       0.027971812 -0.0860542 0.029654168 0.009324603
000090 01 2e bd bd 12 5d 48 bd da 16 6d 3d 2a 55 b9 bd
       -0.0923729 -0.048916884 0.05788312 -0.09049447
0000a0 cf 61 1e bd 91 e3 bc bd 1a 72 25 3d 70 33 11 bd
       -0.038667496 -0.09223092 0.04039202 -0.035449445
0000b0 ca 28 07 3d 02 eb 2c 3d 31 9a 87 3d 46 8e 72 3d
       0.032997884 0.04221631 0.066212066 0.059217714
0000c0 42 be 8a bd 85 cb c1 3d 6f 9d 9b 3d b0 8a b3 3b
       -0.0677457 0.094626464 0.075983874 0.0054791793
0000d0 17 65 4b bd 4e c0 6e bd 38 38 d6 3c 30 ac e2 3b
       -0.049656954 -0.058288865 0.026149854 0.006917499
0000e0 3d e7 68 bd 6c d5 c0 bd 66 c0 7c 3d 95 a7 21 bd
       -0.05686115 -0.09415707 0.061706923 -0.03946646
0000f0 21 cc 1e bd d7 b8 91 3d d5 a5 83 3d 23 cc bc 3d
       -0.03876889 0.071153335 0.06428114 0.092186235
000100 f1 99 1f bd 11 5d 92 3d 78 8b c7 3c 80 59 b8 3b
       -0.03896517 0.07146657 0.024358496 0.0056259036
000110 ba 0b 55 bd 96 00 86 bd 96 23 54 3d c0 e5 ee ba
       -0.052013136 -0.065430805 0.05179175 -0.001822643
000120 04 b9 08 bd 5a 8c 1e 3d fb 3a c0 bd db e1 9b 3d
       -0.03337957 0.03870807 -0.0938625 0.07611438
000130 7a 98 45 3d 54 e7 64 bd b6 d6 32 bd 1b e6 89 bd
       0.048241116 -0.055884674 -0.043661796 -0.06733342
000140 b9 96 9f 3d 9e 31 a8 bd 13 2a 8e 3d be f4 41 3d
       0.0779242 -0.08212589 0.06941619 0.047352545
000150 00 54 f9 3a 8e 18 3c 3d 08 90 9f 3c e9 5d 88 3d
       0.0019022226 0.045921855 0.01947786 0.06658537
000160 30 0a 2e bc f1 ec 3b bd 10 f6 b8 bb e0 9f c5 bd
       -0.010622546 -0.04588026 -0.0056445673 -0.09649634
000170 3a 1e 8b bd bf f6 2a bd 25 b3 50 bd 94 d6 86 bd
       -0.06792875 -0.04173922 -0.050952096 -0.06583896
000180 70 c3 ff 3b d5 e3 b8 3d e1 a5 b2 3d 98 1b af bc
       0.0078052804 0.090278305 0.08723045 -0.021375462
000190 b0 d3 a7 bd e0 ca 27 3b d9 7f ba 3d 24 25 81 3c
       -0.08194673 0.00256031 0.09106416 0.01576478
0001a0 92 29 33 3d b6 3c 20 3d d1 45 98 3d 72 fb 50 3d
       0.043740816 0.0391204 0.074351914 0.051021047
0001b0 0f 20 c1 3d 99 b6 1f bd 27 87 48 bd 80 79 36 ba
       0.09429943 -0.038992498 -0.048957016 -0.0006960854
0001c0 2a ca 98 bd 70 54 f1 bc 20 51 50 bb ee 4d ad bd
       -0.07460435 -0.029459208 -0.0031786636 -0.084621295
0001d0 77 0e c6 3d 08 ea 92 bd 5f f7 87 3d a6 1a bf bd
       0.09670728 -0.07173544 0.06638979 -0.09331255
0001e0 78 fb 81 3c 74 22 85 bd 17 de 83 3d 2e df 20 3d
       0.01586698 -0.06500712 0.06438845 0.03927534
0001f0 63 ee 8e bd 63 d2 48 bd 65 67 94 3d 78 23 a7 3c
       -0.069790624 -0.049028765 0.072462834 0.020402655
000200 d0 63 61 3c 58 fa 06 bc 83 d2 82 3d 2e ba 54 bd
       0.013756707 -0.008238398 0.06387808 -0.051935367
000210 ee 52 06 bd 4a 81 ae bd 66 e2 96 bd 90 96 a8 3c
       -0.03279393 -0.08520754 -0.07367401 0.020579606
000220 08 8b 5a 3c ad 8f 9c 3d 47 3e 9d 3d 20 67 57 3b
       0.013338812 0.076445915 0.07677894 0.0032867864
000230 f6 85 4e 3d 76 5e 14 bd 22 cf 39 3d e6 e0 17 3d
       0.050420724 -0.036222897 0.045363553 0.037079714
000240 d8 b6 28 bc 56 f6 1a bd c8 3a 9e 3c a8 db 24 bc
       -0.0102975 -0.03783258 0.019315138 -0.010062136
000250 25 d7 c0 3d 78 1c 66 bd de f0 50 3d a0 fc 9f bb
       0.094160356 -0.056179494 0.05101096 -0.00488241
000260 78 b5 56 3c b8 41 7c 3c 7e d8 9a bd 46 7b 85 bd
       0.013104789 0.015396528 -0.07560824 -0.06517653
000270 40 ec 49 3c 87 65 a6 3d 00 74 2a bc 98 8a 51 bd
       0.012324393 0.081248336 -0.010403633 -0.051157564
000280 6c 64 a0 3c 47 25 b9 3d 5e a0 20 3d 19 b7 c8 3d
       0.019579135 0.09040313 0.039215438 0.09800548
000290 16 59 a6 bd 52 d1 b6 bd d8 33 0f 3c 20 ca 8d bd
       -0.081224605 -0.089266434 0.008740388 -0.06923318
0002a0 b0 0b f9 bb 17 1b c5 3d 40 e8 79 bb 6f 16 84 3d
       -0.00760027 0.096243076 -0.0038132817 0.06449591
0002b0 b6 bd 75 3d b8 95 b7 3c c2 b3 22 3d ce 4b 67 3d
       0.059995376 0.022410259 0.03972221 0.056468777
0002c0 54 98 8f bc 1b df 93 3d 09 2e c2 bd b0 f9 c3 bc
       -0.01752869 0.07220288 -0.09481437 -0.023922771
0002d0 03 63 96 3d b0 0a a7 3c af 44 83 bd c7 41 a5 3d
       0.07343104 0.020390838 -0.06409585 0.08069187
0002e0 c2 a4 60 3d 04 da cc 3c e9 30 a9 3d 80 93 64 ba
       0.054844625 0.025006302 0.08261282 -0.0008719489
0002f0 60 ff d6 bc 58 5e 98 3c 46 18 b5 bd a6 e3 3e 3d
       -0.02624482 0.018599674 -0.088425204 0.04660382
000300 b2 08 59 3d 5a 72 12 3d c2 bc 48 3d 0a 48 a3 bd
       0.052986808 0.035753585 0.04900814 -0.07972725
000310 e0 b8 4a 3b 88 e5 34 3c 6a 6e 56 3d af 5d 82 3d
       0.0030932948 0.011041053 0.052351393 0.06365525
000320 56 16 67 3d 28 58 df bc 28 30 a8 bd 86 42 90 bd
       0.056417786 -0.027263716 -0.0821231 -0.07043938
000330 2f 2d ac 3d 00 40 84 3a 5f c1 b5 3d 4a 5b 2f 3d
       0.084070556 0.0010089874 0.08874773 0.04281167
000340 89 ec 9b bd 40 f6 e8 bc 62 d6 6a 3d 58 da 16 3c
       -0.07613475 -0.028437734 0.057333358 0.009207331
000350 5b 65 b9 3d 8a 19 a5 bd 29 bb ae 3d 00 df 35 bd
       0.09052535 -0.08061512 0.08531792 -0.044402122
000360 96 f9 38 3d 60 ef 0d bc bb 98 84 3d 9e 6a 1e 3d
       0.0451599 -0.0086630285 0.064744435 0.038675897
000370 0f b3 a3 3d 71 c4 95 3d ad b3 b1 3d 20 94 54 bc
       0.07993137 0.07312859 0.086768486 -0.012974769
000380 00 69 19 bb 93 ea 81 3d e0 2c aa bb 2e d5 43 bd
       -0.0023408532 0.063435696 -0.005193338 -0.047810726
000390 68 e8 0d bd 7c 5b 90 bc 09 8b 8d 3d 56 c0 8d bd
       -0.034645468 -0.017621748 0.069112845 -0.06921451
0003a0 5c 34 d8 bc 8b e5 56 bd b1 84 89 3d 00 d4 8e bd
       -0.026392154 -0.052465003 0.06714762 -0.069740295
0003b0 e7 c3 a4 3d 92 ee c3 bd bc 78 8d bd 66 e1 22 3d
       0.08045178 -0.09566988 -0.06907794 0.039765738
0003c0 ae f0 5c 3d c4 11 b1 3c 5c f2 be bc 46 4d 70 3d
       0.053940468 0.021614917 -0.023308925 0.058667444
0003d0 c0 31 db 3b 66 c6 4e 3d da 1c a4 bd 26 6b 37 3d
       0.0066892803 0.050482176 -0.080133155 0.04477992
0003e0 8a 60 54 3d 8b f6 bc 3d d8 3f 84 bd 88 b3 3c bc
       0.05184988 0.09226712 -0.0645749 -0.011517413
0003f0 3b c4 a6 3d 02 1b 7d 3d 35 55 3f bd 40 c7 52 bb
       0.08142897 0.061793335 -0.04671212 -0.003216222

linear_relu_stack.0.bias f4 [64]
000000 48 32 a4 bc 06 fd 4f 3d e8 fa 67 bc e7 92 aa 3d
       -0.020043507 0.05077841 -0.014158942 0.08328801
000010 37 14 a9 3d 0e 42 a5 bd 98 c3 c3 bc 44 6f c9 bc
       0.08255809 -0.080692396 -0.023896977 -0.024589188
000020 38 1c 64 bc f3 de 9e 3d f4 cc c6 bc c1 a9 98 bd
       -0.0139227435 0.07757368 -0.024267651 -0.07454253
000030 46 16 99 bd 52 06 2c bd 9e b6 5b 3d 19 f2 76 bd
       -0.074749514 -0.041998215 0.053640954 -0.060289476
000040 cc b5 9f bc 62 35 56 3d a0 35 7b 3c 35 a5 83 3d
       -0.019495867 0.052297004 0.015332609 0.06427995
000050 8d 61 36 bd 0e 69 84 bd 28 26 af bd 9c 26 02 bd
       -0.044526625 -0.0646535 -0.085521996 -0.031775102
000060 c6 11 9f bd cf 93 93 3d e3 5e a7 3d 2f f2 5e bd
       -0.07767062 0.072059266 0.08172395 -0.054430183
000070 83 4a 98 3d 1c 6c a4 bc 20 f7 45 3b 48 1a 1a bd
       0.07436087 -0.020071082 0.0030207112 -0.03762272
000080 a2 38 72 3d 40 ec d5 bb 24 64 ce bc 92 da 03 3d
       0.05913604 -0.0065284073 -0.025194235 0.032190867
000090 53 f9 56 bd 05 c0 8b 3d 99 15 aa 3d ca 3e 09 3d
       -0.052483868 0.06823734 0.08304901 0.033507146
0000a0 50 c8 8d bb 40 c6 16 3c 38 e6 73 3c 93 52 28 bd
       -0.0043268576 0.00920254 0.014886431 -0.041094374
0000b0 11 5b be 3d 37 f0 a4 3d 80 32 70 ba a8 47 7a bd
       0.09294713 0.0805363 -0.00091627985 -0.061103493
0000c0 6d 7e b7 3d 48 e5 7c bd 07 f5 29 bd c1 0c 90 bd
       0.08959661 -0.061742097 -0.041493442 -0.070336826
0000d0 d9 93 ab 3d ea cf 4a 3d d2 a1 1a bd e4 17 f6 3c
       0.08377809 0.04951469 -0.03775198 0.030040689
0000e0 e4 c2 4a bd 4a d6 32 3d 42 ed 4d 3d 32 bf 03 3d
       -0.04950227 0.043661393 0.050275095 0.03216476
0000f0 40 f4 b1 ba 4a 45 6c 3d a9 74 1e bd d0 92 47 bc
       -0.001357682 0.057683267 -0.038685475 -0.012180999

linear_relu_stack.2.weight f4 [64, 64]
000000 8e 41 a6 bd 9c 5d 4a bd 0a 57 a1 3d bc 54 02 bd
       -0.08117972 -0.04940568 0.078779295 -0.03181909
000010 48 ba b5 bc e4 01 0b bd 3e aa c7 bd b8 d0 70 3d
       -0.022183552 -0.03393735 -0.09749268 0.0587928
000020 04 9e 0e bd 18 41 c2 bd c0 93 e0 3b 06 66 dc bd
       -0.034818664 -0.09485072 0.0068535507 -0.10761647
000030 c4 c5 b7 3d 4c 41 bd 3d 72 60 b6 bd 28 50 d6 bc
       0.08973268 0.0924097 -0.08905114 -0.026161268
000040 40 97 38 3c 68 23 3d bd f0 00 8c 3c 04 e5 b2 bd
       0.01126653 -0.046176344 0.01709029 -0.087350875
000050 20 3a bf bb 40 7a cf bd 98 aa 81 3d a0 a7 f5 bd
       -0.0058357865 -0.10130739 0.06331366 -0.119948626
000060 5c de b5 3d 58 37 e0 3d d8 0f 0d 3d 40 d0 57 bd
       0.08880302 0.10948056 0.034438938 -0.052688837
000070 c2 29 c3 3d 60 ef 75 3c 5e ae ea bd 14 27 30 3d
       0.09529449 0.015010685 -0.11459039 0.043006018
000080 e0 89 15 bd f6 ab 83 3d 38 09 9b 3c 48 ad a9 bc
       -0.03650844 0.06429283 0.018925294 -0.02071251
000090 be ff d5 bd c8 0f 8c bc d0 2e 3a bc c0 56 a0 3d
       -0.104491696 -0.017097369 -0.0113637 0.07829046
0000a0 80 1a 6a 3b 5c 93 03 3d 3a b7 83 3d f2 4b 93 3d
       0.0035721362 0.032122955 0.06431432 0.0719222
0000b0 dc e6 27 3d 50 c1 a2 3d c8 09 d8 bd a0 70 d7 3b
       0.04099165 0.07947028 -0.105487406 0.0065747052
0000c0 28 00 e0 bc e8 1e 8c bd 40 cd 6a 3d 3e c7 bf 3d
       -0.027343825 -0.068418324 0.057324648 0.09364174
0000d0 50 7c 16 bd 52 b4 ec 3d 48 a9 db 3c 42 7a a9 3d
       -0.036739647 0.11557831 0.026814118 0.08275272
0000e0 50 11 0b bd ee 83 be bd 54 2e 2f 3d 3c 3e 61 3d
       -0.033952057 -0.09302507 0.04276879 0.054990992
0000f0 98 96 ad bd 9c d7 af 3d 10 26 ff 3d 24 3d c9 3d
       -0.08475989 0.08586046 0.12458432 0.09826115
000100 60 ce fa bc a4 79 02 3d 00 83 35 ba f0 60 24 bd
       -0.030615985 0.031854287 -0.00069241226 -0.04013151
000110 00 28 07 bb 2a 09 db 3d 4a 19 8a bd 0e 61 93 3d
       -0.0020623207 0.10695107 -0.06743105 0.07196246
000120 2a 93 b0 bd 50 02 72 bc c4 bc ee bd 78 e3 e4 bc
       -0.08621819 -0.014771059 -0.11657098 -0.027940497
000130 30 8b 31 bd 5c 42 b0 bd f2 fd 86 3d 22 39 f7 3d
       -0.04334563 -0.08606407 0.06591405 0.12071444
000140 9a 6c c3 3d 58 17 af bc de a9 cc 3d dc 7b 9e bd
       0.095421985 -0.021373436 0.09993337 -0.07738468
000150 90 51 01 bd c4 e5 15 bd b4 71 17 bd 00 8d 29 3b
       -0.031571925 -0.036596075 -0.03697367 0.0025871396
000160 fa 69 c1 bd 58 e3 bc 3c 48 38 12 3d b4 3d 90 3d
       -0.094440416 0.023057625 0.035698205 0.07043019
000170 40 80 4a 3c 20 d3 7a bc d4 80 a6 bd 30 18 37 bc
       0.012359679 -0.015309125 -0.08130041 -0.0111752
000180 04 5f 7c bd ca 29 d1 bd 68 bd 78 bd 40 90 4a 3c
       -0.06161405 -0.10213049 -0.060727507 0.012363493
000190 f0 16 98 3c ce 5b ca 3d 88 f9 dd 3d 8c c4 3c bd
       0.018565625 0.098807916 0.1083861 -0.04608588
0001a0 f0 b8 a1 3d 2a 72 dc bd 68 58 a5 bc f8 22 c7 bc
       0.07896602 -0.107639626 -0.020183757 -0.024308667
0001b0 c8 dc 17 bd 1a 77 e5 bd 3e 5f b2 3d 1c 2e e2 3d
       -0.037075788 -0.112043574 0.08709572 0.11043951
0001c0 88 05 98 bc ce ab 93 bd 90 29 00 bc 08 99 13 3d
       -0.018557325 -0.072105035 -0.007822409 0.036034614
0001d0 9c 7a 7d bd f8 a8 a3 bd 82 fa fd 3d 58 a0 f2 bc
       -0.061884508 -0.079912126 0.12401296 -0.029617473
0001e0 c0 c2 4b 3c ce 7b f2 3d 44 e1 e9 3d 20 7f 96 3d
       0.012436569 0.1184002 0.11419919 0.07348466
0001f0 68 df c0 3d 70 ba a2 3d a0 cb 9c bb 0a 11 95 bd
       0.09417611 0.079457164 -0.004785016 -0.072786406
000200 b0 bd 02 bd 96 b1 c5 3d b2 6d f6 bd a4 9e 4c bd
       -0.03191918 0.096530125 -0.120326415 -0.04995598
000210 b0 11 0b 3d 10 df 27 3c cc 8b b6 bd e8 df bb bd
       0.033952415 0.010246053 -0.08913383 -0.09173566
000220 ca 12 99 bd c0 3b 4e 3c c2 c2 c9 3d 40 1c 64 bb
       -0.07474287 0.012587488 0.098516 -0.0034806877
000230 b8 9e 64 3d 8c 1a f7 3d a8 47 39 bd 20 c0 df 3c
       0.05581543 0.1206561 -0.045234352 0.027313292
000240 10 de 3b 3c e0 0f 85 3c 48 52 9d 3d c2 c7 a8 bd
       0.011466518 0.016242921 0.076817095 -0.08241226
000250 ce f7 ff bd e8 e7 89 3d 28 64 c7 bd 30 41 3d bd
       -0.12498437 0.06733686 -0.097359 -0.046204746
000260 e4 37 03 3d 68 d9 bc 3d bc ee 3a 3d b8 bd 52 3d
       0.032035723 0.092211545 0.04563783 0.05145046
000270 70 bf 33 3c 60 e2 2d 3d 9c e0 0a bd fe 52 f9 bd
       0.010970935 0.042452216 -0.03390561 -0.12174033
000280 64 74 88 3d 28 db 92 bd 3a 8b e8 bd bc bc 1a bd
       0.06662825 -0.07170707 -0.1135468 -0.037777647
000290 9c fb 64 3d 64 78 08 3d 60 8a f2 3b 60 62 2c 3d
       0.055904016 0.03331794 0.0074017495 0.042086005
0002a0 78 1c b5 bc 7c d3 06 3d 8a 53 ec 3d 64 52 61 3d
       -0.022108302 0.03291653 0.11539371 0.055010214
0002b0 b8 9c 2a 3d c0 9e 99 3b e0 41 d0 bb e2 15 b0 3d
       0.041653365 0.004688114 -0.006355509 0.08597924
0002c0 90 98 8f bc 6e 18 8e bd 48 3f 5a bd b0 54 d8 3d
       -0.017528802 -0.06938253 -0.053283006 0.10563028
0002d0 e0 fd e0 3d b0 7a 16 bc 00 8a cb bd b4 5a ae bd
       0.10985923 -0.009184524 -0.09938431 -0.08513394
0002e0 b4 9d 37 bd 78 f5 af bd 28 4b b7 bd 5a c2 90 bd
       -0.04482813 -0.08591741 -0.08949882 -0.070683196
0002f0 20 a7 e2 3d da f4 a5 bd 48 f4 fe 3c 3c 8d 4b 3d
       0.11067033 -0.08103342 0.031122342 0.04969524
000300 68 c9 8a bd 68 43 b0 bc 50 8a b2 3c b0 08 43 bd
       -0.067766964 -0.021516517 0.021794468 -0.047615707
000310 f2 cd fd bd da 6c a8 3d 92 86 c2 3d 30 9e ca bc
       -0.123927966 0.08223887 0.094983235 -0.024733633
000320 10 41 a3 bc 92 4f 8f bd 58 27 fe bc 00 81 e2 3c
       -0.019928485 -0.06997599 -0.03102462 0.027649403
000330 e8 24 ab bc f6 08 83 bd d4 e6 f8 bd 3c 85 17 3d
       -0.020891622 -0.063981935 -0.12153402 0.036992297
000340 3c 40 03 3d 50 a2 09 bc 20 8e ce 3c 5e ab cf 3d
       0.03204368 -0.008400515 0.025214255 0.101401076
000350 f8 03 aa 3c 9e 47 e1 3d e0 e4 d8 bb 70 6f 01 bc
       0.020753846 0.10999988 -0.006619081 -0.007900104
000360 0a 66 d8 3d 64 67 8c bd 60 84 fd bb 60 80 7d bd
       0.105663374 -0.06855658 -0.0077367276 -0.061890006
000370 cc c7 aa bd 3c f5 1e bd 56 c2 fd 3d b4 ef b6 bd
       -0.083388895 -0.038808092 0.12390582 -0.089324385
000380 70 bb 92 bd 6e 82 c6 3d c0 9d d7 3c 5c 61 47 bd
       -0.07164657 0.09692846 0.026320338 -0.048676834
000390 ba 50 e4 bd 88 da ef bd 8c 63 02 3d 00 91 8e bc
       -0.1114821 -0.117116034 0.031833217 -0.017403126
0003a0 08 ee a0 3d 40 1a 0b 3c 4a de 97 bd 2e ee cf bd
       0.07857901 0.008490145 -0.07415445 -0.10152851
0003b0 c2 f5 8c bd 58 d2 1a 3d 98 7e e6 3c cc 1a 77 bd
       -0.06882812 0.037798256 0.028136536 -0.06032829
0003c0 10 8b 31 3d 60 99 ae bb 30 d0 aa bc 00 0b ed 3a
       0.04334551 -0.0053283423 -0.020851225 0.0018084943
0003d0 80 e1 25 bd 00 6f 33 bb 96 e2 e0 3d 18 0e 58 bd
       -0.040498257 -0.0027379394 0.10980718 -0.052747816
0003e0 64 10 8b bd 38 61 be 3c f8 7b a9 3d 60 d4 ec bc
       -0.06790236 0.023239717 0.08275598 -0.028909862
0003f0 0c 97 27 3d 9c 93 d0 3d 0a 1d b2 3d 1a 96 e2 bd
       0.040915534 0.10184404 0.08696945 -0.11063786

linear_relu_stack.2.bias f4 [64]
000000 98 56 ba bc fe 34 c9 3d 32 c3 aa bd 84 f1 9c bd
       -0.02274637 0.098245606 -0.08338012 -0.07663253
000010 c8 07 d6 3d cc 8c 18 bd 00 ca 25 3a c0 2d 66 3d
       0.10450703 -0.03724365 0.0006324351 0.056195974
000020 78 8a a9 3d 22 f3 e8 3d 56 35 b9 bd 30 ce 11 bc
       0.08278364 0.11374499 -0.09043376 -0.008899257
000030 fc 43 95 3d 00 e2 cc 3c e8 81 99 bd 4c 18 aa 3d
       0.072883576 0.025010109 -0.07495481 0.083054155
000040 e4 f8 d8 bd 86 86 d7 3d 78 c7 01 bd a0 71 93 bb
       -0.10594347 0.10523705 -0.03168437 -0.004499629
000050 dc b3 4b 3d b2 32 ad bd 10 33 ac bc f0 f2 6c 3c
       0.049732074 -0.08456935 -0.021020442 0.014462218
000060 ac 79 40 3d c0 83 0e 3b 34 3d d1 3d 48 03 85 3c
       0.046991035 0.002174601 0.10216752 0.016236916
000070 d0 8d 4c bc a0 aa 00 bd 50 47 db bd dc 0c 63 3d
       -0.012484983 -0.03141272 -0.10706961 0.055432186
000080 3c c6 0a 3d 4c 83 63 bd 12 50 b5 bd 78 37 9a 3c
       0.033880457 -0.055545136 -0.08853163 0.018825278
000090 08 ee f2 3c 22 03 d0 bd 04 ec d7 bd d4 5c f7 bd
       0.029654518 -0.101568475 -0.10543063 -0.120782524
0000a0 cc 93 9c bd 20 1f cf bc 60 41 56 bc ae c5 c3 bd
       -0.076453775 -0.025283396 -0.01307711 -0.09559189
0000b0 e0 4f 7f 3c 7c 96 78 bd ac 39 27 3d 70 6b 6d bd
       0.0155830085 -0.060690388 0.040826485 -0.05796379
0000c0 d4 c7 f2 3d 06 ad aa bd 5e 37 82 3d 10 d1 a1 bd
       0.118545204 -0.08333783 0.06358217 -0.07901204
0000d0 6a a9 f9 bd aa 4f ef bd 1a be ab 3d ea 5b c7 bd
       -0.12190516 -0.116851166 0.08385868 -0.09734328
0000e0 68 58 da bd 00 bd 89 3a d8 81 9e bd 6c 72 31 3d
       -0.106613934 0.0010508597 -0.077396095 0.04332201
0000f0 04 f0 09 bd 88 ec b8 3d 20 9f bd 3b 6c 03 2b bd
       -0.033676162 0.0902949 0.0057867914 -0.04175131

linear_relu_stack.4.weight f4 [1, 64]
000000 7c d7 cf 3d 18 23 f8 3d 18 41 c0 bc cc 6d 36 3d
       0.10148522 0.121160686 -0.02346854 0.044538304
000010 38 26 fa bd 68 25 dc 3d c0 b8 67 3c 1c d9 c8 bd
       -0.12214321 0.10749322 0.014143169 -0.09807035
000020 aa 78 aa 3d 58 c4 fd bc 92 18 e6 3d a2 9b c8 bd
       0.08323796 -0.030977413 0.11235155 -0.097953096
000030 e4 c7 24 3d 70 fc 10 bd 5e 0d f0 3d e8 91 08 3d
       0.040229693 -0.035396993 0.117212996 0.033342272
000040 ec 8e b9 bd d0 d3 a1 3d f0 3b cd 3c 80 e4 90 3b
       -0.09060463 0.07901728 0.025052994 0.0044217706
000050 d8 35 6f bd f0 1d d9 3d 8e 10 c9 3d e0 54 df 3d
       -0.05840096 0.10601413 0.09817611 0.109048605
000060 0c f0 39 3d 42 c1 fa bd 10 78 75 bd f0 e5 28 3d
       0.045394942 -0.12243892 -0.059928954 0.04123491
000070 b8 f5 79 bd 92 54 dc bd 80 92 aa bd bc 54 c9 bd
       -0.06102535 -0.10758318 -0.08328724 -0.09830615
000080 50 f2 11 bc b0 00 60 bd b6 66 82 bd 06 d4 df bd
       -0.008907869 -0.054688156 -0.06367247 -0.10929112
000090 96 3e 9b 3d 00 37 f8 3d ec 46 06 3d d4 18 f1 3d
       0.07580297 0.121198654 0.03278248 0.11772314
0000a0 5e 86 df 3d ee 3b e4 3d 62 1f a6 3d 82 35 9b 3d
       0.109143004 0.11144243 0.081114545 0.07578565
0000b0 b0 04 61 bd fe e0 d1 3d 9c 93 f5 3d a6 59 86 3d
       -0.05493611 0.10247992 0.11991045 0.06560068
0000c0 98 7e 86 3d 54 f6 eb bd 44 20 91 3d f0 9e d9 3d
       0.065671146 -0.11521593 0.07086232 0.10626018
0000d0 4e 64 df 3d 78 97 98 bd ec 3e 18 3d a6 92 bc 3d
       0.109078035 -0.07450765 0.037169382 0.092076585
0000e0 80 9b 40 bb ea 45 fd 3d 30 ca e5 bc 64 56 8a 3d
       -0.002938956 0.12366851 -0.028050512 0.06754759
0000f0 3e 8a fa bd f8 c9 eb 3c 30 37 db bd 96 75 e7 3d
       -0.12233399 0.02878283 -0.107038856 0.113017246
