models/trainingmodels/start_init.pth (torch, 337595 bytes, 12 tensors)

linear_relu_stack.0.weight f4 [64, 104]
000000 df ee 78 bd 34 ae b2 3c fb 9b 85 3d a8 6f d3 bc
       -0.06077468 0.021811582 0.065238915 -0.025810078
000010 96 6c 83 bd 70 12 8b bc 98 51 a2 bc 35 28 76 bd
       -0.064171955 -0.016976565 -0.019814298 -0.06009694
000020 03 b0 b0 3d 1e 03 12 3d 0e 82 50 3d 52 14 34 bd
       0.086273216 0.035647504 0.05090528 -0.04396469
000030 ea 0d 0c 3d b2 ff 56 3d 18 71 82 bc 60 17 8d bd
       0.034192957 0.052489944 -0.015923068 -0.06889224
000040 2c 4e 86 bc d8 17 a1 3c e8 49 89 3c b5 17 9f bd
       -0.016394697 0.01966469 0.016758874 -0.07768194
000050 2e 85 24 3d a1 65 92 bd 44 39 3e bd c0 da 89 ba
       0.040166073 -0.071482904 -0.04644133 -0.0010517463
000060 ef b5 a4 3d 80 89 3f 3a 4e 3c 63 3d 8e d4 01 3d
       0.080425136 0.0007306561 0.055477433 0.03169685
000070 a8 b0 9c bc 3e 99 0c bd 78 ba 9b 3c da 52 a4 bd
       -0.019127205 -0.03432583 0.019009814 -0.08023615
000080 4d 75 c1 bd a4 7e e3 bc 14 85 b9 bc 00 ce ff 3b
       -0.094462015 -0.027770348 -0.022646464 0.0078065395
000090 b0 34 d2 3b 04 e1 80 bd 93 28 b8 3d 52 98 2c 3d
       0.0064149722 -0.06292918 0.08992114 0.04213745
0000a0 d4 e2 8c bc b4 df fa 3c 7e 42 3c 3d c1 1e 6c bd
       -0.017198004 0.030624248 0.04596185 -0.057646517
0000b0 c1 65 ae bd 9b ea 48 bd f6 de 1e 3d 84 20 cc 3c
       -0.08515502 -0.049051862 0.03878685 0.024917848
0000c0 00 4c a4 b8 02 ee 31 bd 37 1d c8 3d e4 94 a1 3c
       -7.8342855e-05 -0.043439873 0.09771197 0.019724317
0000d0 18 7f 98 bd f7 bb c1 3d 48 4a 38 bc 7a b9 51 bd
       -0.07446116 0.094596796 -0.011248179 -0.051202275
0000e0 2e 48 b5 bd 00 08 c2 3c 9b dc 9f 3d c0 ad af bd
       -0.08851658 0.023685455 0.07805749 -0.08578062
0000f0 2c da f4 3c 7a 55 96 bd 00 67 00 bd 64 f4 91 bd
       0.029889189 -0.07340522 -0.03134823 -0.07126692
000100 94 a0 7e bd 63 39 77 bd d0 16 ae 3b 06 b8 61 3d
       -0.062164858 -0.060357463 0.005312778 0.05510714
000110 00 1c ff 39 cc 0d bf bd 10 cb 99 bd cf c3 9d 3d
       0.00048658252 -0.093288034 -0.07509434 0.07703363
000120 1c 67 82 bc 09 25 ae 3d d8 7e a4 3c 36 2e 26 bd
       -0.015918307 0.08503158 0.020080015 -0.040571414
000130 68 eb 59 3c a8 1e 62 3c b0 fb b5 bd 8e 48 60 3d
       0.013300754 0.013801254 -0.08885896 0.054756694
000140 6a fc 0e bd a2 32 17 bd f2 5f 67 3d be 8d 49 3d
       -0.03490869 -0.03691352 0.056487985 0.04920744
000150 4e 56 9f bd 08 4b 5d bc 14 80 bd bd 90 f9 a2 3b
       -0.07780133 -0.013506658 -0.092529446 0.004973598
000160 24 0e a1 bd 39 b6 88 bd cc 7d f3 bc 08 6d 24 3c
       -0.07864025 -0.06675381 -0.02972307 0.010035761
000170 b0 f5 f7 bb a8 01 73 3c 2a a7 01 bd 62 79 39 bd
       -0.00756713 0.014831938 -0.03165356 -0.045281775
000180 ee 0e 4c 3d 58 86 08 bc 76 55 0b 3d 2c ae 79 bd
       0.049818926 -0.008332811 0.03401705 -0.06095712
000190 e5 7e 88 3d 68 d9 bf bd 5a ca 5c 3d f0 62 8a 3b
       0.06664828 -0.09367639 0.053903915 0.00422322
0001a0 da 3a 9b bd 6c 54 be 3c d0 5b d4 bc 1c a8 ab bd
       -0.075795844 0.023233615 -0.025922686 -0.08381674
0001b0 26 74 45 bd 86 e6 77 3d 48 21 9d bc 74 24 f5 bc
       -0.04820647 0.06052258 -0.019180909 -0.029924609
0001c0 57 37 ab 3d 60 f0 50 bc a0 2b dc bc 38 1f 9d 3c
       0.083601646 -0.012752622 -0.02687627 0.019179925
0001d0 06 35 7f 3d a6 7f 1b 3d 44 e3 b1 3c 05 c4 7a bd
       0.062306426 0.037963532 0.021714814 -0.061222095
0001e0 68 ee fa bc 56 fc 61 3d 98 c4 02 bc 89 48 ab bd
       -0.03063126 0.055172287 -0.007981442 -0.08363444
0001f0 8e 86 6d bd c5 5c c5 3d ae e8 b4 bd 0e 07 41 3d
       -0.05798965 0.09636835 -0.08833443 0.04712587
000200 c0 8e be 3a f8 ad b6 bc 5a b9 02 bd 78 1f c4 bc
       0.0014538392 -0.022299752 -0.031915046 -0.023940787
000210 e8 b9 94 bd 47 41 8e 3d 17 39 42 bd c2 fe 3e 3d
       -0.07262021 0.069460444 -0.047417726 0.046629675
000220 7d 77 a8 3d 73 cc c4 3d 1a ed 62 3d ef 98 a8 bd
       0.082259156 0.09609308 0.0554019 -0.08232295
000230 67 ef 33 bd 47 4d 96 3d 14 e0 b0 3c 34 f6 3f bd
       -0.043929484 0.07338958 0.021591224 -0.046865657
000240 92 d8 73 3d 80 32 e3 bc ac c5 85 3c 60 f7 65 bb
       0.05953271 -0.027734041 0.016329609 -0.0035090074
000250 b9 5e 34 bd ef f7 a8 3d 00 48 7a ba c0 95 b1 3c
       -0.044035647 0.082504146 -0.0009547472 0.021677852
000260 74 1c 97 bd af d2 4b bd 18 0b 07 3c d0 cd af bb
       -0.07378474 -0.04976147 0.008242391 -0.005365111
000270 7b 03 7c bd 3e c9 1f 3d 78 0c 4b bc d3 93 90 3d
       -0.061526757 0.03901028 -0.0123931095 0.07059445
000280 b8 2b a0 3c 8d 60 60 bd c0 dd 24 bc 7a 73 43 3d
       0.019552097 -0.054779578 -0.010062635 0.04771755
000290 61 b4 b5 3d d1 ec c4 3d ee 8c 0c 3d 93 1d a8 3d
       0.08872295 0.09615482 0.03431409 0.08208766
0002a0 62 d7 66 3d c0 83 d9 ba 80 71 72 ba 40 b4 38 3b
       0.05635775 -0.0016595051 -0.000924848 0.002818361
0002b0 a1 ab a7 3d 24 d4 0c bd 4d 07 c3 3d 28 7c ac 3c
       0.081870325 -0.034382 0.09522877 0.021055296
0002c0 87 92 b8 3d b8 36 99 3c 83 e4 9b 3d d6 48 3d 3d
       0.09012323 0.01870285 0.076119445 0.04621204
0002d0 8a 5e 1d 3d 75 90 86 3d 20 b9 e6 bc 8d a2 42 bd
       0.038420238 0.06570522 -0.028164446 -0.0475183
0002e0 86 35 39 3d 0f c6 ac 3d 50 d8 e2 bb 68 55 97 bd
       0.04521706 0.08436214 -0.006922759 -0.07389337
0002f0 da 0c 67 3d f4 5a d4 bc 66 a6 6e 3d c0 a5 0a 3c
       0.05640874 -0.025922276 0.05826416 0.008462369
000300 e6 38 8e bd a0 41 c9 3c 24 de 02 bd 6e 1b 3a 3d
       -0.06944446 0.024567425 -0.03195013 0.045436315
000310 88 3c a0 3c 89 0c 87 bd 96 4b 27 bd cb cc bc 3d
       0.019560114 -0.06594188 -0.04084357 0.09218749
000320 bc f6 ff 3c 75 2b c8 3d f1 d0 6a bd ba 34 bd bd
       0.031245582 0.09773914 -0.05732817 -0.092385724
000330 fd 45 51 bd 90 58 eb bc 33 b4 a9 bd d4 c2 c4 bc
       -0.051092137 -0.028728753 -0.082863234 -0.024018683
000340 03 b2 a6 bd e0 e6 c4 bb ed 68 16 bd a0 69 7b 3b
       -0.08139422 -0.0060089678 -0.03672116 0.0038362518
000350 64 89 a4 bd 77 c4 b0 3d 90 39 fb bb 25 0f c0 3d
       -0.08034018 0.08631223 -0.007666774 0.093778886
000360 6f 91 32 bd e0 4d ee 3b 67 52 98 bd 9c e6 8f bc
       -0.043595728 0.007272467 -0.07437592 -0.017566018
000370 ae 65 66 3d dc 5d 8a bd 66 7e bc bd d0 53 9f 3b
       0.056249313 -0.067561835 -0.09203796 0.004862286
000380 a2 41 85 bd 26 5a b5 bd 09 3a aa 3d 70 35 99 bc
       -0.06506659 -0.08855085 0.083118506 -0.018702239
000390 98 e6 89 bc c4 5d b4 bd b5 54 c6 3d 7c 32 4e bd
       -0.016833588 -0.08806947 0.09684125 -0.050341114
0003a0 64 98 b3 bc 17 39 9f 3d dc f6 f1 bc 38 98 97 3c
       -0.021923251 0.07774561 -0.029536657 0.0185052
0003b0 00 ca 59 3c a5 fa c3 bd 4a eb 2d bd 48 22 35 bc
       0.013292789 -0.09569291 -0.042460717 -0.011055537
0003c0 a8 c0 bc 3c f5 0e b7 bd f0 c7 77 bc 00 d7 bb bb
       0.023041084 -0.089384 -0.015123352 -0.005732417
0003d0 9a 43 77 3d 57 57 8e bd c3 34 89 bd 9e e4 61 3d
       0.060367204 -0.069502525 -0.066995166 0.055149667
0003e0 c8 4a 2d bd ac 6a c1 3c aa 5b 3b 3d 8c 8f 80 bc
       -0.042307645 0.023610435 0.045741715 -0.015693448
0003f0 1c 47 c7 bd 42 e5 22 3d 78 5e 46 bc 90 2d 85 bc
       -0.0973036 0.03976942 -0.012107484 -0.016257077

linear_relu_stack.0.bias f4 [64]
000000 a9 c1 89 3d 35 0a c6 3d 50 a2 ad bb c0 ac fb 3b
       0.06726391 0.096699156 -0.00529889 0.0076805055
000010 40 25 04 3b ec 90 4d bd 0d 59 90 3d 8c 76 8b 3c
       0.0020163804 -0.050187036 0.07048235 0.017024301
000020 25 08 86 3d a3 3f 80 3d 6c a5 b3 bc 31 b1 a1 3d
       0.06544522 0.06262138 -0.021929465 0.07895125
000030 3c 22 8b bd 7b 58 80 3d 32 83 ae bd 5d ca 5a bd
       -0.06793639 0.06266876 -0.08521117 -0.053415645
000040 5e 78 89 bd 1a f1 42 3d 50 91 92 3c bc 7d fb bc
       -0.06712411 0.047593214 0.017891556 -0.030699603
000050 4e 31 05 bd 4f ba 12 bd b8 ae 2b bc 27 4b 5b bd
       -0.032517724 -0.03582221 -0.010478668 -0.053538468
000060 d8 0e 54 bc ec 3b 47 bd 64 e0 c6 bc c1 f8 1d bd
       -0.012942992 -0.04864113 -0.02427692 -0.03856731
000070 0b 35 a0 3d 50 29 db 3b d9 21 c1 bd 15 58 b6 bd
       0.07822617 0.0066882744 -0.09430284 -0.08903519
000080 49 c1 5d bd c9 6f 9f 3d 22 99 17 3d d0 88 5d bc
       -0.05413941 0.07784993 0.037011273 -0.013521388
000090 94 64 38 bd 40 f7 9b 3a be 5b 14 3d 11 9b ac bd
       -0.045017794 0.0011899248 0.036220305 -0.08428014
0000a0 10 b2 a8 bb 56 1c 7d 3d d0 57 01 3c 4d a9 7b bd
       -0.00514818 0.0617946 0.007894471 -0.061440755
0000b0 18 75 83 bd 4b 68 2f bd ef 1f 6a bd d0 05 f7 bc
       -0.06418818 -0.04282407 -0.05715936 -0.030154139
0000c0 c2 0c 10 bd 08 0c 87 bc 94 9a e4 bc b2 ec 02 3d
       -0.035168417 -0.01648523 -0.02790574 0.03196401
0000d0 20 7f 65 bb ae 0a 7c 3d 30 22 23 bc 92 20 19 3d
       -0.00350184 0.061533622 -0.009956881 0.037384577
0000e0 5d 63 8e 3d 94 cf dd 3c 60 69 3d 3b 00 65 57 3c
       0.06952546 0.02707652 0.002890192 0.013146639
0000f0 7c f4 e5 3c 37 58 c8 3d ba 65 30 3d 7b 1e 9f 3d
       0.02807068 0.09782451 0.043065764 0.077694856

linear_relu_stack.2.weight f4 [64, 64]
000000 5e 99 b5 bd c6 27 df bd e0 f8 80 bc 0e be d1 3d
       -0.08867143 -0.10896258 -0.015743673 0.10241328
000010 16 1d 88 bd ea 4e 93 bd f2 6f ef 3d d0 26 86 3d
       -0.06646173 -0.07192786 0.11691274 0.06550372
000020 22 2b ae 3d 40 3d 86 3c 02 88 be 3d 84 e4 8b bd
       0.08504321 0.016386628 0.09303285 -0.06830695
000030 4e 68 fa bd 70 82 f6 bc f4 a0 c8 3d 68 6c d2 bc
       -0.12226926 -0.030091494 0.09796324 -0.025686458
000040 56 4f b6 bd 10 5c d0 3c b4 c9 30 bd 92 ca d1 3d
       -0.08901851 0.025434524 -0.04316111 0.10243715
000050 b2 33 88 3d 2a 53 bc 3d 10 a8 11 3d 5c a2 36 3d
       0.06650485 0.0919555 0.035560668 0.04458843
000060 a6 38 ac bd 1e d5 a9 3d 94 4d 4c 3d b8 c2 5c bd
       -0.08409242 0.08292602 0.04987867 -0.053896636
000070 d8 71 c8 3c 44 30 08 3d d2 7d d9 bd e0 62 e9 3b
       0.024468347 0.033249155 -0.106197014 0.0071223825
000080 82 66 bb 3d 00 d0 e5 b8 f4 b5 ba bd 2e 3f be bd
       0.09150411 -0.00010958314 -0.09116736 -0.09289394
000090 4e 44 f6 3d d0 5f 80 3c 74 e3 03 bd c4 e0 2a bd
       0.12024747 0.015670687 -0.032199338 -0.04171826
0000a0 b8 4b a0 3c b8 4e e8 bc c0 05 18 bc a4 1b ac bd
       0.019567356 -0.028357849 -0.009278715 -0.084037095
0000b0 84 23 ad bd ca 1a be bd de 44 fd bd 08 2f 25 3d
       -0.0845404 -0.09282453 -0.12366651 0.040328056
0000c0 f0 9d fe bd 28 83 aa 3d 60 f7 04 3c 40 af 69 3d
       -0.12432468 0.08325797 0.008115619 0.057051897
0000d0 00 3c 63 bc 40 6f 87 3d a8 10 f7 bc 50 2f 3a 3d
       -0.013869286 0.06613016 -0.03015931 0.045455277
0000e0 ec f2 62 bd e6 20 f3 3d be d4 87 bd dc 5d e1 3d
       -0.05540745 0.11871509 -0.06632374 0.110042304
0000f0 7c 11 7b bd e4 d3 fa 3d 26 b4 da bd d6 0e f4 3d
       -0.06129597 0.12247446 -0.10678892 0.11916892
000100 50 2e db 3c 70 d1 15 3c 8e 36 a8 3d 7c 05 47 bd
       0.026755482 0.009144172 0.082135305 -0.048589215
000110 c0 a7 53 3b 10 0b 41 3d 54 2d 68 bd d8 b5 ae bc
       0.0032296032 0.04712969 -0.056683853 -0.021326944
000120 38 52 80 3d 90 5d 04 bd e4 8e 7f bd ca d6 b3 bd
       0.06265682 -0.03231579 -0.06239213 -0.08781202
000130 7c ad 1b 3d c8 c6 05 bd fc ae bd 3d 3a 55 c4 bd
       0.038007244 -0.032660276 0.09261891 -0.09586568
000140 44 33 75 3d f8 e2 9a bd 8a c1 ff bd d0 57 c7 3d
       0.059863344 -0.07562822 -0.124880865 0.09733546
000150 60 a0 db bc c4 7e 2f 3d 1e 2d ca 3d 70 27 7a 3d
       -0.026809871 0.042845502 0.09871887 0.061072767
000160 80 02 92 bb c0 ea 31 3d c0 c0 7c 3c dc 66 80 3d
       -0.0044558644 0.043436766 0.015426815 0.06269619
000170 bc a1 65 3d 0a b3 c8 3d 58 44 56 3d d8 28 93 bd
       0.056062445 0.09799774 0.05231127 -0.07185525
000180 a4 31 91 3d 74 c6 0c bd e8 a0 20 bd 88 31 d0 bc
       0.07089546 -0.034368947 -0.039215952 -0.025414243
000190 e4 9a 97 3d 9e a2 f8 3d ae c5 84 3d c8 3b 9e bc
       0.0740259 0.12140392 0.06483017 -0.019315615
0001a0 62 6f cc bd 20 2d 07 3d 18 be b6 bc 00 d9 c3 bd
       -0.09982182 0.03300202 -0.02230744 -0.09562874
0001b0 34 37 9d bd 80 1f d3 3d 62 61 c5 3d 9a 20 c4 bd
       -0.07676545 0.103087425 0.09637715 -0.09576531
0001c0 28 f0 80 3d 40 0b 58 3d 60 5a 47 bd 32 33 a9 3d
       0.06295806 0.052745104 -0.048670173 0.08261718
0001d0 b6 ff b3 bd 14 4c 32 3d f6 d4 88 bd d8 65 05 bd
       -0.08789007 0.043529585 -0.06681244 -0.03256783
0001e0 e8 98 90 bc 40 b5 5a bc c8 69 ec 3c 14 7b 8d bd
       -0.017651036 -0.013348877 0.028859034 -0.06908241
0001f0 b8 f9 e4 bd 8c 54 f4 bd 20 b2 9f 3c bc fe d3 3d
       -0.111804426 -0.119301885 0.019494116 0.10351321
000200 7c 75 e8 bd ba 46 8f bd c0 bc 82 bc f4 f5 85 bd
       -0.11350533 -0.06995912 -0.015959144 -0.065410525
000210 28 a6 c8 3d 94 37 7c 3d 1a 33 df bd 1e ff b6 bd
       0.09797317 0.06157644 -0.10898419 -0.089353785
000220 a4 89 88 3d b0 33 4b bc 86 0a f5 3d d4 52 df bd
       0.06666878 -0.01240246 0.11964898 -0.1090447
000230 b0 b2 45 3d b6 62 96 3d 9a ac ca 3d 12 b3 b8 3d
       0.048266113 0.07343046 0.098962024 0.0901853
000240 5e 78 c0 bd 30 e8 4a 3c 4c be 94 bd 80 b7 da 3b
       -0.09397958 0.012384459 -0.07262859 0.006674707
000250 40 4c fd bd ea bb d0 bd 16 3f ce 3d 34 c4 8b bd
       -0.12368059 -0.10192092 0.100706264 -0.06824532
000260 a8 9c 07 bd 40 d4 f4 3c a0 ac c6 bb 08 2d b6 3c
       -0.033108383 0.029886365 -0.006063059 0.02223827
000270 5c c5 45 3d 10 1c 9b 3c 06 53 9a bd 0e ef b0 bd
       0.04828392 0.01893428 -0.07535367 -0.08639346
000280 62 5c 81 bd 90 2f 17 bd 78 83 6e bd d6 ed c2 3d
       -0.06316449 -0.036910594 -0.058230847 0.0951802
000290 ac b1 ca 3d 24 28 9f 3d ec 80 3f bd d0 ab f7 3d
       0.098971695 0.07771328 -0.04675381 0.120933175
0002a0 cc fc 2f 3d 56 37 ff bd 50 d4 4d bc b0 a0 b6 bc
       0.042965695 -0.12461726 -0.012562826 -0.022293419
0002b0 26 3d c9 bd 24 ce d2 3d 66 e2 83 bd 00 ca c5 3a
       -0.09826116 0.102932245 -0.064396665 0.0015090108
0002c0 4c 7f a3 bd cc b5 f2 bd 0e f6 95 bd e8 92 10 bd
       -0.07983264 -0.11851081 -0.07322322 -0.03529635
0002d0 18 20 3a 3d 5c 91 cd 3d 80 a9 4f 3b 02 6d a9 3d
       0.045440763 0.10037491 0.0031686723 0.08272745
0002e0 ac 3a 67 bd ac 74 63 3d 38 f0 48 bd 1c cd 2b 3d
       -0.05645244 0.05553119 -0.049057215 0.041943654
0002f0 3e 07 b4 bd 00 76 32 bb 32 12 e9 bd a0 99 95 3d
       -0.08790444 -0.0027230978 -0.113804236 0.07304692
000300 ec 51 d1 bd b4 eb 0a bd 6c e6 1e 3d 80 62 0e bc
       -0.102207035 -0.03391619 0.038793966 -0.008690476
000310 40 c4 12 3c f4 1f b1 3d b4 aa 2f 3d e8 65 99 bd
       0.008957922 0.08648673 0.042887405 -0.0749014
000320 f0 fb 75 3d 86 3a d7 bd 6c d2 28 3d 18 54 92 bc
       0.06005472 -0.10509209 0.0412163 -0.017862365
000330 c4 45 37 bd 30 ed 45 bc b8 4c ec 3d 8c 61 ae bd
       -0.044744268 -0.012080476 0.115380704 -0.08514699
000340 90 34 fc 3c 48 58 b5 3d a6 46 ac bd 6c 09 38 3d
       0.030786783 0.08854729 -0.084119126 0.04493086
000350 84 98 e9 bd 58 26 4d bd c2 32 c7 bd 26 9e f7 3d
       -0.11406043 -0.050085396 -0.09726478 0.12090711
000360 3c 01 38 bd f0 ee c3 bd 30 03 c1 bc 90 78 82 3c
       -0.044923052 -0.09567058 -0.02356109 0.01592663
000370 68 5b ec bc 64 d4 5d bd 40 05 94 3c 10 13 90 bc
       -0.02885218 -0.05415763 0.01806891 -0.017587215
000380 54 8f a9 bd 9c 65 be bd 08 42 9f bc 4a 4d cf bd
       -0.08279291 -0.09296724 -0.019440666 -0.101221636
000390 b0 b1 40 3c 1a f5 8b bd 80 20 98 3b 40 66 4e 3b
       0.011761114 -0.06833859 0.004642546 0.0031494051
0003a0 40 87 b3 3b fc 84 e7 bd 58 d3 a8 3d 68 ee b9 3c
       0.0054787695 -0.11304662 0.082434356 0.022696689
0003b0 30 7a e3 bd 6c f9 ed bd 08 2a 6e 3d be ce c4 bd
       -0.1110729 -0.11619839 0.058145553 -0.096097454
0003c0 8a d8 a6 3d ba f8 f5 bd 22 a0 f2 bd a0 05 25 3d
       0.0814677 -0.120103315 -0.11846949 0.040288568
0003d0 e8 07 b8 3d b6 7e be bd a0 b9 93 3b ea 3e f9 bd
       0.08985883 -0.09301512 0.004508212 -0.12170203
0003e0 e6 a3 f7 3d de bc 8a bd a8 28 b6 bd 08 31 ea bd
       0.12091808 -0.06774305 -0.08894473 -0.11435133
0003f0 dc e5 50 3d e2 fb d0 bd c8 64 3d 3d c2 23 8a bd
       0.05100046 -0.10204293 0.04623869 -0.067451015

linear_relu_stack.2.bias f4 [64]
000000 a4 d4 1b 3d 2c d9 52 3d e4 04 a0 3d 00 4e f6 3c
       0.038044587 0.051476642 0.07813433 0.03006649
000010 9c 5e 10 bd 68 f0 86 3c 44 7d 10 bd 78 bb b2 3d
       -0.035246477 0.016472057 -0.035275713 0.08727163
000020 0e b9 b9 bd 7c 74 eb bd 10 26 d6 bd a8 e9 0b 3d
       -0.090684995 -0.11496827 -0.104564786 0.03415838
000030 3e 33 d5 3d 28 b6 fa 3d b0 1b fd 3c ec fd ad bd
       0.10410164 0.12241775 0.030896991 -0.084956974
000040 0a cc c4 bd d4 61 7d 3d 4e 97 b5 bd 56 1f e3 3d
       -0.0960923 0.061860874 -0.0886675 0.11089961
000050 50 0a 40 bd a0 e0 32 bd 48 b5 b8 3c 74 4f f9 3d
       -0.046884835 -0.04367125 0.02254738 0.121733576
000060 d0 37 86 bd 24 fa 49 bd c6 62 9b bd 00 48 68 3c
       -0.06553614 -0.04931082 -0.07587199 0.014177322
000070 a4 7a 73 bd d2 be f9 3d ac 0b 33 3d e0 ca 24 bd
       -0.05944313 0.12194599 0.043712303 -0.04023254
000080 62 b9 f4 3d 40 e6 49 bb d0 eb 02 3d 94 7b 85 3d
       0.119494215 -0.0030807406 0.03196317 0.06517711
000090 38 e5 9d bc 04 77 96 bd 4c 6d 4f bd 68 5b 55 3d
       -0.01927434 -0.07346919 -0.050641343 0.052089125
0000a0 ae 8b f1 3d 18 ea e7 bc 20 93 75 bd 74 e1 ae 3d
       0.1179422 -0.028309867 -0.059954762 0.085390955
0000b0 ea bf ad bd 82 60 ce bd 74 d0 42 bd 00 f2 07 3d
       -0.0848387 -0.10077001 -0.047562078 0.033189774
0000c0 54 be 4b 3d a4 a2 2c bd 6e 28 a7 bd 4c a0 b8 3d
       0.049742058 -0.042147294 -0.08162008 0.09014949
0000d0 30 2a 28 bc c0 11 56 3c c8 ae 3a 3d c2 de cc 3d
       -0.0102639645 0.013065755 0.04557684 0.10003425
0000e0 5a 2b bd 3d b2 78 c7 3d 38 98 1f 3d a2 15 b6 bd
       0.09236784 0.09739818 0.038963526 -0.08890845
0000f0 c2 5f ba bd 2e 41 ab 3d a0 56 c0 bd e6 3e c0 3d
       -0.091002956 0.083620414 -0.093915224 0.09386997

linear_relu_stack.4.weight f4 [1, 64]
000000 80 55 61 bd 66 bc 8d 3d 00 78 69 bc 02 25 c0 3d
       -0.05501318 0.069207 -0.014249802 0.09382059
000010 78 1d d1 3c 88 e3 f9 3c ce e6 a7 bd 48 c6 32 bd
       0.025526747 0.030504003 -0.081983194 -0.043646127
000020 54 f3 1a 3d 4a cf 96 3d d4 f9 38 bd 84 d7 9a bd
       0.037829712 0.07363756 -0.04516013 -0.075606376
000030 50 0a 34 3c 10 4a 54 3c 38 28 af 3c 7a 7b be 3d
       0.010988787 0.012957111 0.021381482 0.09300895
000040 14 61 0d bd 60 48 f8 3b 28 0a 9b 3d d8 90 e2 bd
       -0.03451641 0.007576987 0.075702965 -0.11062783
000050 ea 81 b9 3d 20 5a d9 bc 70 13 98 3d 7c 8f 9c bd
       0.09057982 -0.026532233 0.074255824 -0.07644555
000060 88 0b f7 bc 4c 8a 64 bd da e6 f1 bd 44 d6 45 3d
       -0.030156866 -0.055795953 -0.118116096 0.048300043
000070 f0 14 a2 bd 60 2b 33 3d f0 22 5e bc e0 4c 3c 3d
       -0.0791415 0.043742537 -0.013558134 0.04597175
000080 1e e9 d2 3d d0 06 91 bd e0 e3 96 bc c0 c9 7d bb
       0.1029837 -0.070813775 -0.018419206 -0.0038724989
000090 64 f7 86 3d b8 7f ca bd 5a fe f5 3d 98 9f 9a bc
       0.06590155 -0.09887642 0.12011404 -0.018874928
0000a0 58 ff da bc 20 f6 ba 3d ce 15 ea bd 4a d4 e5 bd
       -0.026733086 0.09128976 -0.1142994 -0.112221316
0000b0 18 e6 98 bd 4e 90 bb 3d 3e 2d 85 3d 00 11 62 bd
       -0.07465762 0.09158383 0.0650277 -0.055191994
0000c0 e6 d6 cb bd 24 eb b8 bd fa 5f b6 3d c8 ea 76 3d
       -0.09953098 -0.090292245 0.08905025 0.0602825
0000d0 14 59 a5 3d d2 86 b4 bd 90 fd 40 3c 70 3b 0a 3c
       0.08073631 -0.088147774 0.011779204 0.008437023
0000e0 36 72 cb 3d 18 ef 9a bd 60 2f da 3d 78 ec ec bd
       0.099338934 -0.07565135 0.10653567 -0.1156854
0000f0 cc a7 23 3d 34 d5 c7 bd 64 6b 93 3d 54 cc 09 3d
       0.039954945 -0.09757462 0.071982175 0.033642128

cnns.0.weight f4 [32, 2, 3, 3]
000000 c7 4a 3e be 0c 18 2d bd fa da 9c bd 5d d1 07 be
       -0.18583213 -0.04225926 -0.07658954 -0.1326346
000010 93 f3 1c 3e af 2a e8 3d 2d 42 42 3e 6f 0f c8 3d
       0.15327291 0.11336266 0.18970557 0.09768569
000020 51 18 b3 bc d7 d3 1d 3e 42 dd 2d bd 7a c1 44 be
       -0.02186218 0.15412842 -0.042447336 -0.1921443
000030 5a a0 95 bc af 32 41 be 00 dc 2d 3e 86 5d cd bd
       -0.018264938 -0.1886699 0.16978455 -0.10027604
000040 66 c4 9b 3d 7f 40 34 bd af c0 20 be a5 37 b7 3d
       0.076058194 -0.04400682 -0.15698503 0.0894616
000050 dc 5e 84 3d fe 9f 60 be 3b 13 ef bd 6a c3 87 bd
       0.064634055 -0.21936032 -0.1167359 -0.06629069
000060 aa 93 9d bd f3 e8 52 be b8 be a0 bd 9c 27 3a be
       -0.0769418 -0.20596676 -0.07848877 -0.18179172
000070 45 4a 2b 3e f2 a8 9a bd 83 43 41 be 13 1d b5 bc
       0.1672755 -0.07551755 -0.1887341 -0.02210859
000080 1b 8f e7 bd e5 19 db 3d a0 f3 2e 3e 87 b0 39 be
       -0.11306592 0.10698298 0.17085123 -0.18133746
000090 30 ee b0 3d f0 80 ce 3c 09 bc 1b be 4f 0d f8 bd
       0.08639181 0.025207967 -0.15208448 -0.121119134
0000a0 ea 29 9d 3c 61 29 76 bc ec 65 61 bd a9 5a 27 3e
       0.019185025 -0.015024514 -0.05502884 0.16343178
0000b0 9d 63 42 be 40 f1 0b bc 5f 54 5d be ff 23 c8 bd
       -0.18983312 -0.008541405 -0.21614216 -0.09772491
0000c0 8b 9b c2 3d 6d a4 05 3c 8b 5f 48 be 3a a2 b9 3c
       0.09502324 0.008156878 -0.19567697 0.022660363
0000d0 1f c5 a9 bd 1c 7d 2e be 76 0a d9 bd 9e b5 61 be
       -0.08289551 -0.17039913 -0.105976984 -0.22041938
0000e0 09 a3 0a 3e 28 b2 2f 3e 79 33 65 be 24 a9 e8 3d
       0.13538755 0.17157805 -0.22382917 0.11360386
0000f0 e7 6a f6 3d 52 f2 fa 3d fa 8b e3 bb 7e aa 20 bd
       0.12032109 0.1225325 -0.0069441767 -0.039225094
000100 b8 b5 ec 3d 8e f9 4e 3e 87 77 0b be e0 40 5d bb
       0.115580976 0.20212385 -0.13619815 -0.0033760592
000110 82 12 05 be d5 d5 68 be e0 54 0b 3e 74 b7 e3 bd
       -0.12995341 -0.2273782 0.13606596 -0.11118975
000120 77 40 4e bd c0 7b f9 bd e9 88 05 be d8 51 3b be
       -0.050354447 -0.121818066 -0.13040508 -0.1829294
000130 a9 f4 04 be 6b 2f 91 3c 81 fa 68 3e 62 4d 01 be
       -0.12983955 0.017722806 0.2275181 -0.12627175
000140 63 4b 01 3d 3f 04 e4 bd 84 88 08 bd 80 c0 18 be
       0.031566035 -0.111336224 -0.033333316 -0.14917183
000150 5b ef 46 be f2 ba 33 be e2 31 6d be 48 57 50 3e
       -0.19427244 -0.17551783 -0.2316356 0.20345795
000160 fb 6a 33 3e a6 7f 48 be c4 76 62 be a5 5a 5e 3d
       0.17521279 -0.19579944 -0.22115618 0.054285664
000170 28 37 97 bd b1 28 1b bc 77 fc 5b 3e 88 8c 41 3e
       -0.07383567 -0.009470151 0.21483026 0.18901265
000180 29 d7 82 bd 78 11 70 3d a1 b5 0c be 71 aa ba 3d
       -0.06388695 0.05861041 -0.13741161 0.0911454
000190 f4 90 c2 bd 91 c4 a5 bd b6 40 03 be 77 de e8 bd
       -0.09500304 -0.08094133 -0.12817654 -0.11370557
0001a0 8c 6f 7a 3e 19 4c 1d 3e fc 17 cd 3d cb ed 0e be
       0.24456614 0.1536106 0.1001434 -0.13957898
0001b0 08 41 67 be da 75 6c be 73 2b f9 3d fc 10 32 be
       -0.22583401 -0.23091832 0.121664904 -0.17389292
0001c0 93 8a bb 3d 52 cf 6e be 6c 34 0b 3e 5d 21 59 3d
       0.0915729 -0.23321274 0.13594216 0.053010333
0001d0 fa b6 00 3e db 7c bf 3d 55 cf 5c 3e 95 46 42 3e
       0.125698 0.09349986 0.21563466 0.18972237
0001e0 f1 2e 6a 3e e8 1d 05 be e4 d4 8e 3d cf e8 5e 3e
       0.22869469 -0.1299969 0.069741994 0.21768497
0001f0 c8 b7 68 bd 7d 60 af bc 92 07 20 be c2 ef 79 bd
       -0.056815892 -0.021408314 -0.15627888 -0.061019666
000200 36 c0 f2 3d 6a c7 cf bd 8f c7 21 3c ab a2 8c 3d
       0.118530676 -0.10145457 0.009874239 0.06866964
000210 32 51 a6 bd 65 8b e8 3d 3c 31 23 3e 36 6a ad 3d
       -0.081209555 0.113547124 0.1593675 0.08467524
000220 dd 99 9c 3d 7d b3 2e 3e 9a 44 f1 3c eb 9c 69 be
       0.076465346 0.17060657 0.029451657 -0.22813766
000230 3f ac 40 be 31 90 1f be 25 52 2b bd 72 05 53 3c
       -0.18815707 -0.15582348 -0.041826386 0.012879716
000240 43 10 0d 3d 24 b0 f6 3d 04 be 2c ba a9 3e 30 3e
       0.034439337 0.12045315 -0.0006589594 0.17211403
000250 a4 25 57 3e 28 c4 5e be 1f d1 14 bd e8 36 26 3e
       0.21010453 -0.21754515 -0.036332246 0.16231883
000260 d0 e8 e7 3d 31 18 53 3e fd 37 d4 3d e9 af 71 3e
       0.11323702 0.20614697 0.103622414 0.2360226
000270 85 2b a7 3d 12 24 50 3e ab c0 71 bd 25 75 b8 3d
       0.081625976 0.2032626 -0.059021633 0.090067185
000280 8a e2 d4 bd 66 3e 3e 3e 13 d2 3f bd 3c 07 f0 bc
       -0.103947714 0.1857849 -0.0468312 -0.029300325
000290 50 e8 4d be 92 95 58 3c a1 18 16 be c7 96 89 bd
       -0.20108151 0.013219254 -0.14657833 -0.067182116
0002a0 57 de ce 3c 16 21 f0 ba 8b c1 3b 3e 2b 76 be bd
       0.025252504 -0.0018320407 0.1833555 -0.092998825
0002b0 75 b6 0d 3e 26 d7 37 3e d8 e3 11 be 00 d0 e0 3d
       0.13839133 0.17953166 -0.14247072 0.10977173
0002c0 ee 0b 3f 3d 8d 22 d5 bd 7c 6f 67 be f6 70 34 3e
       0.046642236 -0.10406981 -0.22601122 0.17621216
0002d0 af ac 60 bc ea 6c 62 3d e7 e0 5d 3e 9b 8f 63 3e
       -0.013713046 0.05527965 0.21667825 0.2222275
0002e0 3c 8c ac bd 4c 56 07 3e 2b 6e 99 3d 68 7a 92 3c
       -0.08425185 0.13216513 0.07491716 0.017880633
0002f0 ae 9f 22 3d 9f b5 1f 3d 8e ee 02 bd ad ef 4c be
       0.039703064 0.038991567 -0.031965785 -0.20013304
000300 47 ae 28 3e cf ab 3b bd e7 35 bc bd 15 e5 76 3d
       0.16472732 -0.045818146 -0.091899686 0.060277063
000310 59 40 90 bd 2a 88 21 3d 10 af 72 bc 60 0e 38 be
       -0.07043523 0.039436497 -0.014812246 -0.17974234
000320 2a a2 2a 3e a5 78 18 3e 26 35 d2 3c d9 7d 57 3e
       0.16663423 0.14889772 0.025660109 0.21044101
000330 e0 15 21 3e 21 e9 0d be 90 b5 e7 3d 75 9b 46 be
       0.15731001 -0.13858463 0.11313927 -0.1939524
000340 23 9f 25 be 78 c6 ae 3c dc cb 54 3e 94 07 24 3e
       -0.16173987 0.021334872 0.20780891 0.16018516
000350 13 91 d5 bd 49 ab c2 3d 2c 31 0b 3e 07 a5 e4 bc
       -0.10428061 0.09505326 0.13592976 -0.027910722
000360 a3 55 a6 3d 0d 7c 24 be 2e 5b 2c 3e 8e d7 c3 3d
       0.08121803 -0.16062947 0.16831657 0.09562598
000370 30 ee 2a be 81 fa b6 3c 3b 71 0b 3e 64 73 3a bc
       -0.16692424 0.022336246 0.13617413 -0.01138005
000380 4a 71 46 bd 98 73 0a be f7 bd 17 3e d6 86 72 3e
       -0.048447885 -0.13520658 0.1481856 0.23684248
000390 4c c6 48 be 12 26 1c be a4 1d 0b bd cc e3 78 3d
       -0.19606894 -0.15248898 -0.033963814 0.06076412
0003a0 1c 2f 45 bd 9c cd 14 3e 41 5c 25 3e 80 aa 62 be
       -0.04814063 0.14531559 0.16148473 -0.22135353
0003b0 a2 37 66 3e 99 f9 12 3d f5 1d ba 3d eb de fc 3d
       0.2248216 0.035882566 0.09087745 0.12347206
0003c0 5c 08 2a 3e a4 13 bc 3d 10 a4 e2 3d 03 f1 5f be
       0.16604751 0.09183434 0.11066449 -0.21869282
0003d0 60 c9 87 bd a4 43 db 3d 82 cc ca bb ae 81 3e 3e
       -0.06630206 0.10706261 -0.00618893 0.18604156
0003e0 6e 63 6a 3e ad b1 84 bd 97 68 0d 3e ec f2 a6 3d
       0.22889492 -0.064792015 0.13809429 0.081518024
0003f0 c9 2f 4f 3e 76 94 14 bc d5 df 02 bd d3 94 cf 3d
       0.20233072 -0.009068599 -0.031951744 0.10135808

cnns.0.bias f4 [32]
000000 6a 1e 51 bd 49 cb 8e bd 3e fd 24 3c 25 93 00 3d
       -0.051054396 -0.06972367 0.010070143 0.031390328
000010 a4 90 33 3d c4 6d 52 be 0c 19 cd bd 72 bf 25 3e
       0.043839112 -0.20549685 -0.10014543 0.16186312
000020 c3 86 5e 3d a8 10 ab bc ae fd a8 3d 52 5d 08 be
       0.054327738 -0.020881966 0.082515106 -0.13316849
000030 83 d1 58 be 2b 8f 26 be d9 5c 48 bd 9c 0d 6b 3e
       -0.21173672 -0.16265552 -0.04891667 0.2295441
000040 06 6c 91 bd e3 e1 c5 bd cd 96 26 3e 9c d9 80 3d
       -0.07100682 -0.09662225 0.16268463 0.06291506
000050 50 94 e0 3d 7f 78 a8 bd 5d 29 99 bb dd f6 f9 bd
       0.10965788 -0.08226108 -0.0046741203 -0.122052886
000060 00 91 c7 bb aa 91 92 3d 88 ff c8 bd db ed 5c 3d
       -0.0060902834 0.071566895 -0.09814364 0.053937774
000070 66 1b b9 3d 7b 34 1f 3d c3 0a 35 be 01 63 24 3e
       0.09038429 0.03886841 -0.17679887 0.16053392

cnns.2.weight f4 [64, 32, 3, 3]
000000 c8 12 40 3d e8 ce c4 3c 1d af 61 3d 27 9c 14 bd
       0.04689291 0.024024442 0.05509864 -0.03628173
000010 d0 20 fd 3b a8 65 14 bc 61 8a 24 bb c9 a4 b4 3c
       0.007724859 -0.00905744 -0.0025106894 0.022051232
000020 61 d6 16 3d 88 25 36 3d 78 90 85 bd b7 7d 73 bd
       0.03682554 0.044469386 -0.06521696 -0.059446063
000030 bb 3e 8f 3c cd 63 72 bd 10 93 a0 bb 9e 46 3d bd
       0.017485967 -0.05917721 -0.0049003437 -0.046209924
000040 c0 45 f9 bc e4 8e 1e 3c f7 3c 06 3d 9b d1 3b 3c
       -0.030428767 0.0096776225 0.032772984 0.011463548
000050 10 f9 d4 3c f9 f8 54 bd 5e 2b 5f bd 02 59 ab 3a
       0.025997669 -0.05199525 -0.054484718 0.0013072791
000060 fa d6 ad 3c 02 31 c1 3c ad f4 72 3d e7 73 50 bd
       0.021220673 0.023582939 0.059315372 -0.050891783
000070 25 67 aa bb 21 11 d1 bc df 75 76 3c 1b 52 22 3d
       -0.005200284 -0.025520863 0.015042751 0.039629083
000080 60 d8 93 3c c6 93 ae 3c 32 d9 71 3d b5 de 4f bd
       0.018047512 0.021310698 0.059045024 -0.0507495
000090 38 59 68 3d 1f df a1 bb e4 22 6d bc 58 13 ba bc
       0.05672571 -0.004939928 -0.014473651 -0.022714302
0000a0 eb f4 56 3d aa 31 5d 3d 3e b0 4a 3d 51 0c 12 bc
       0.052479666 0.05400244 0.049484484 -0.008914069
0000b0 d6 7a e1 bc f5 52 42 3d ad 66 e1 3c 24 f9 92 3c
       -0.027524393 0.047442395 0.02751478 0.017941065
0000c0 40 55 df 3c 80 33 08 bd 84 af 14 3d 58 c4 2e bc
       0.02726233 -0.03325224 0.036300197 -0.010666929
0000d0 78 43 5c bd 8a 42 70 3c e8 5c 13 3d 98 57 5c 3b
       -0.05377528 0.014664302 0.035977274 0.0033621546
0000e0 a6 2a 4b bd 26 ad e3 3c f4 6a 02 bd 19 63 b9 3a
       -0.04960122 0.027792525 -0.03184028 0.0014143913
0000f0 8f 93 b3 3b 02 a6 3e bd b7 0b 2d bd ba 7a 0a bd
       0.005480237 -0.046545036 -0.0422475 -0.033808447
000100 44 68 91 3c 27 e9 ef 3c a7 38 fa bc 4c 4f 53 bd
       0.017749913 0.02928598 -0.030544592 -0.051589295
000110 24 e0 94 3c d5 40 78 3c 03 07 34 3d 7b 62 3a bd
       0.018173285 0.015152176 0.043952 -0.045504075
000120 44 9b be ba 07 4e 84 bb 90 a1 ee bc 3e ef 03 3c
       -0.0014542122 -0.004037622 -0.029129773 0.008052645
000130 01 28 00 bc a2 5d 92 bc c9 e3 fd 3c 17 b7 90 bc
       -0.007822038 -0.017866913 0.030992405 -0.017665429
000140 38 f5 d9 3c 96 de 64 bd 45 d3 2d 3d f3 de 56 bd
       0.026606187 -0.055876337 0.04243781 -0.052458715
000150 91 17 19 bd 8a db 2f 3d 39 4d 59 bc e7 80 57 bc
       -0.03737599 0.04293398 -0.01326304 -0.013153291
000160 d6 2e 37 3d 58 b1 53 3d 62 99 34 3d f1 1c e7 3c
       0.0447224 0.0516828 0.04409159 0.028212043
000170 08 51 32 3d e5 54 d6 3c 5a cd a2 3c c3 a0 52 3d
       0.04353431 0.026163528 0.01987331 0.051422846
000180 ac 70 74 bc 88 86 52 b9 0b 53 ee bc e8 e0 28 3d
       -0.014919441 -0.00020077277 -0.029092332 0.041230112
000190 f4 e7 ce 3c c5 6e 4c bc b8 7d 34 3c 84 4b 33 3d
       0.025257088 -0.012477581 0.011016302 0.04377319
0001a0 5e 37 3a 3d c5 32 e9 3c 90 04 2d 39 8e b8 04 bd
       0.04546296 0.028466592 0.00016500265 -0.032402568
0001b0 ab 97 1f 3d 1e 69 53 3c 97 4a 01 bc 12 be ac 3c
       0.038963 0.01290348 -0.007891319 0.021086726
0001c0 18 89 cb 3b a6 a5 17 3d eb 89 a4 bc 52 38 fb bc
       0.006211411 0.03702321 -0.020085296 -0.030666504
0001d0 3e e5 a9 3c 26 ec b0 bc 69 b0 be ba 6f d2 1a 3d
       0.020739194 -0.02159698 -0.0014548424 0.03779834
0001e0 1d a6 4d bc 56 d3 22 3d d8 09 07 bc 99 8f 14 3c
       -0.0125518115 0.039752327 -0.008242093 0.0090674395
0001f0 93 54 15 3c 15 56 3c bd d4 35 05 3d bc 14 93 3a
       0.009114402 -0.04598053 0.032522038 0.0011221389
000200 4e 78 b8 3c 6c 84 25 bb 94 f4 c1 bc 24 eb 1f bc
       0.022518303 -0.0025255932 -0.023676194 -0.009760652
000210 64 91 cc bb d1 4e 61 3d a8 e7 ff 3c da 5d 46 bd
       -0.006242918 0.055006806 0.031238392 -0.048429348
000220 43 a7 87 bd 39 06 53 bd d1 9d 19 bd eb d2 17 bd
       -0.066236995 -0.051519606 -0.03750402 -0.03706638
000230 7e fd 86 3c 92 5b d2 3b 33 f8 56 3d 1e f5 50 3c
       0.016478296 0.0064196074 0.052482795 0.012753753
000240 21 4f 1a 3d fc d5 6c bd bb 59 22 3d 57 4a 28 3d
       0.03767312 -0.05782126 0.039636355 0.04108652
000250 fb d7 a3 3c 34 06 e6 bb 6b db d9 3c 3f 64 53 bd
       0.020000448 -0.0070197824 0.026593884 -0.051609274
000260 93 13 ec 3c a6 28 e7 bb ff 6b 08 3d ca bc 20 3d
       0.028817927 -0.007054406 0.033306118 0.039242543
000270 c1 3b 98 bc f6 51 32 3d 15 45 08 3d 40 df 14 bd
       -0.01858318 0.043535195 0.033269007 -0.03634572
000280 fc 1d e5 bc 2a 06 62 3d 14 5d 1a 3d 93 70 c0 bc
       -0.0279684 0.05518166 0.037686422 -0.02349118
000290 ab b5 39 3d 4f 0f a4 3c 3b 03 bd 3c 22 c8 9e 3c
       0.045339268 0.020026831 0.02307283 0.01938254
0002a0 6a 0d 3b bd 3c cd 0b 3b fc c6 0e 3d 76 bd 0b 3c
       -0.04566709 0.0021332046 0.034857735 0.008529058
0002b0 05 66 42 bd 14 d0 a6 3c b2 ab 1a 3d 19 bd 43 3c
       -0.047460575 0.020362891 0.037761398 0.01194694
0002c0 d0 78 77 bb 32 da 2e 3d 44 ae c7 3c 6b 43 93 3c
       -0.003776122 0.042688556 0.024375089 0.017976483
0002d0 b8 48 63 bd 7a 78 58 3d bf 84 ff 3c ca ed d4 bc
       -0.055489272 0.05284927 0.031191228 -0.025992293
0002e0 ec 18 51 bc 60 25 21 3d bf b4 dc ba 44 14 2d bd
       -0.0127622895 0.039342284 -0.0016838535 -0.042255655
0002f0 6b 5d 4f bd 37 d3 05 3d 05 df 23 3c 03 74 8a 3c
       -0.0506262 0.032672133 0.0100019025 0.016901022
000300 01 9b 53 bd 2b 9d 1f bc d5 d4 46 3d 49 bd 2c bd
       -0.051661495 -0.009742062 0.048542816 -0.042172704
000310 a4 57 26 3d 63 57 2a 3d 24 14 81 3d 9a 92 16 bd
       0.040610924 0.041587245 0.0630267 -0.036760904
000320 f0 bc 16 3c 53 bf 25 3d d0 88 73 bd 2a 93 66 bd
       0.00920032 0.040465664 -0.059456646 -0.05629269
000330 7e f8 02 bc ea 4c ae bc 6b fd f4 3c 4b 96 0d 3d
       -0.0079938155 -0.02127691 0.029905995 0.03456716
000340 40 7b 6a bc f3 e0 d9 3c ba fd d9 3c 6e 57 21 bd
       -0.014311612 0.026596522 0.026610244 -0.03939002
000350 02 e3 1d 3c c1 be a6 3c f3 a5 b7 ba ff e8 63 3d
       0.009636642 0.02035463 -0.0014011249 0.055642124
000360 b7 fe cd 3c ef 7d 39 bd 91 0a a8 3c bd a1 37 3d
       0.025145872 -0.045286115 0.020512851 0.04483198
000370 73 ff 50 bd ab f4 ee bc ac bb d9 3c 9e af 58 bd
       -0.051024865 -0.029169401 0.026578747 -0.052901857
000380 ba 67 98 3c e2 8c 20 3d 88 fd 21 3d f0 b5 50 3d
       0.018604148 0.039196856 0.039548427 0.05095476
000390 9d c6 ee bc 1e 5f 27 3c 6c 45 90 bb c2 5a 72 bd
       -0.02914744 0.010215549 -0.004402807 -0.059168585
0003a0 3b 2b a2 bc 5d c2 4d 3d b4 81 ac bb 4c d4 10 bd
       -0.019796005 0.050234187 -0.0052644853 -0.035358712
0003b0 31 7e d9 3c 17 67 ee bc 96 4a 97 3c b6 1b b7 bc
       0.02654943 -0.029101891 0.018468183 -0.02235208
0003c0 38 b8 15 bc 26 9a 76 3c 01 db 74 3d 5c f1 c6 bc
       -0.009138159 0.0150514 0.05977917 -0.024285011
0003d0 e4 cd 70 3d 6d 8a d8 3c df ce 34 bd b4 f1 47 bc
       0.058790103 0.026433194 -0.0441426 -0.012203623
0003e0 fc 20 f6 bc 24 e0 c5 3a d6 7e 1d 3c a6 05 34 3c
       -0.030045025 0.0015096706 0.00961276 0.010987675
0003f0 7c fa 28 bd 62 b0 fb bb fc 23 30 bc 75 94 13 bd
       -0.041254506 -0.0076809386 -0.010750767 -0.03603025

cnns.2.bias f4 [64]
000000 38 f5 84 bb 30 5d 0e bc ea 1b 1e 3c 1e 2f 3b 3c
       -0.0040575527 -0.00868921 0.00965021 0.011424808
000010 b8 c8 85 bd 5f b1 16 bd 86 fa 3e 3d 92 13 b8 3c
       -0.06532425 -0.036790248 0.046625637 0.02247027
000020 37 7e 77 3d 37 88 42 3d 2e c4 bc bc 1f da fd 3c
       0.060423102 0.047493186 -0.023042765 0.030987797
000030 53 d0 9b 3c d5 67 b5 3c 94 54 4e bb 38 81 33 bd
       0.019020235 0.022144238 -0.0031483518 -0.043824404
000040 cd 65 02 bd e9 50 40 bd aa d9 20 3c fa c0 07 bc
       -0.031835366 -0.046952162 0.00981752 -0.008285755
000050 42 13 7e 3c 54 fc 5e bd a8 45 75 bc 01 a9 1c bd
       0.015507521 -0.054439858 -0.014970221 -0.038247112
000060 53 29 50 bd e8 08 d7 3b 24 dd c0 bc 3c 42 17 ba
       -0.05082066 0.006562341 -0.023542948 -0.00057700626
000070 88 9e 2c 3c 6f 85 8f 3c f0 f7 a1 bc f2 64 ab bc
       0.010535844 0.01751968 -0.019771546 -0.020922158
000080 ca 71 36 bd e6 50 4f bd 36 01 f2 bb 07 78 f4 bc
       -0.04454211 -0.05061426 -0.0073853983 -0.02984239
000090 c6 6c 12 bd d1 4a 00 bd 9c fb 90 bc b7 9f 81 3d
       -0.035748266 -0.03132135 -0.017698102 0.06329291
0000a0 a5 8e f3 3c 29 09 6c 3c 8c 1a b0 bc 7d b2 44 bd
       0.029731104 0.014406481 -0.021497034 -0.048021782
0000b0 52 f5 bc bb 4f b2 55 3d 6d 44 33 bd bc f1 ee 39
       -0.005766549 0.052172 -0.043766428 0.00045575004
0000c0 40 df b5 bc 82 f8 a2 bb 85 3f 73 bd 5a 27 0d bd
       -0.02220118 -0.004973472 -0.05938675 -0.034461357
0000d0 8e 5d 89 3c 77 4d 02 bd 9b a0 72 3d d5 70 fa 3c
       0.016768243 -0.031812157 0.059235197 0.03057138
0000e0 e2 61 54 bc 00 bd 1b 3d a6 87 8f bc 92 97 2b 3d
       -0.01296279 0.03802204 -0.017520737 0.041892596
0000f0 cb 20 5c bd 29 be 29 3d 6e 3d 53 3c 7a df 54 bd
       -0.05374221 0.041441116 0.012893064 -0.051970936

linear.0.weight f4 [16, 3328]
000000 fb f7 6f 3c 3c 67 7a 3b 38 03 59 39 7f 69 84 bc
       0.0146465255 0.0038208505 0.00020695932 -0.016163586
000010 a2 74 38 3b f4 18 fa 3a 22 07 28 3c ea b7 48 bc
       0.002814569 0.0019080923 0.010255607 -0.01225088
000020 75 40 4c 3c 36 a9 d5 3a 2e 0b 92 bc 58 0b 5e bc
       0.01246654 0.0016301039 -0.017827597 -0.013552509
000030 6d 61 cc 3b 50 af 80 38 78 3c 42 3c 36 3a e9 bb
       0.0062372 6.13617e-05 0.011855237 -0.007117535
000040 62 2b dc bb 31 48 61 bc 29 f5 82 bc f9 3f 86 bc
       -0.006719039 -0.013750122 -0.015986042 -0.016387926
000050 b6 f2 10 bc 6c 3d 83 bb 03 7f 96 bc 2f 05 bb 3a
       -0.008846929 -0.004005125 -0.01837111 0.0014268513
000060 cb eb 4a bb ae 66 04 bc da 4f 04 3a 1c 4c 0b 3c
       -0.0030963297 -0.008081121 0.0005047299 0.008502033
000070 45 89 cb bb 31 42 40 bc 78 a4 27 3c 90 2a 59 3c
       -0.006211432 -0.011734531 0.0102320835 0.013254777
000080 dd 3d e4 bb 10 97 2e bc 14 fb 3d bc b1 60 2a 3c
       -0.0069653825 -0.010656133 -0.011595506 0.01039903
000090 84 28 91 39 a1 8d 98 3a 9e 5b 58 bc 68 c6 68 3c
       0.00027686742 0.0011638888 -0.013205437 0.01420746
0000a0 fd d0 3a 3b c0 c9 1b bc c4 d3 06 3b e6 7a 03 3c
       0.0028505914 -0.00950855 0.0020573 0.008024907
0000b0 02 d5 76 3c 5e 93 65 3c 82 b3 ad 3a d2 ac 98 bb
       0.015065433 0.014012186 0.001325235 -0.0046592737
0000c0 80 44 00 bc 3e 65 0a 3c 58 bb e6 bb 4e 2d 88 bc
       -0.007828832 0.00844699 -0.007041376 -0.016623165
0000d0 8b 74 7e 3c d8 69 ad ba fc e9 dd 3b a1 1e 47 bc
       0.015530716 -0.0013230396 0.006772278 -0.012153299
0000e0 d1 df 23 3c 78 da 59 bb f0 38 2a 3c 6e 22 32 3b
       0.010002092 -0.003324179 0.0103895515 0.0027181166
0000f0 83 e7 8c bb b2 11 4e bc be ae c9 bb fa bf 23 bb
       -0.0043000593 -0.012577461 -0.006154864 -0.0024986253
000100 e4 63 36 3b 80 74 03 3a a1 ff 32 3c 3c ab 95 bc
       0.0027830536 0.0005014613 0.0109252045 -0.018270127
000110 bb 0f 9e bc b7 c3 c5 ba 7b 45 0e 3c 9d e7 c8 3b
       -0.01929461 -0.0015088235 0.008683558 0.006131126
000120 d7 99 b6 bb 46 0d 71 bc a1 53 91 bc 08 85 8b 3a
       -0.0055725384 -0.014712637 -0.017740073 0.0010644505
000130 6c 24 49 bc ae b3 55 3b a1 f4 65 3c fa 3d 96 bb
       -0.01227675 0.0032608318 0.014035375 -0.004585025
000140 14 04 ef bb b8 e9 4d 3b f2 79 4c bb 23 c0 bd 3a
       -0.0072941873 0.0031419825 -0.0031200615 0.0014476817
000150 d2 1d 58 3c 24 95 25 3c f3 2b 1e 3c 66 d0 0e ba
       0.0131907035 0.010106359 0.009654033 -0.0005447924
000160 7c 64 6d bc a0 fc 93 bc 71 b9 41 bc de 18 3c bc
       -0.014489289 -0.018064797 -0.011823998 -0.011480538
000170 4d 83 4b 3c 99 f2 19 bc 94 f3 02 3a 66 3b 29 3c
       0.012421441 -0.009396219 0.00049954024 0.010329103
000180 b4 c4 55 3c 58 2a 44 3b cc be 1c 3c 1c 04 ab 3b
       0.013047386 0.0029932465 0.009566974 0.0052189957
000190 93 de 9a bc a8 b8 3b 3c 00 33 a6 37 13 4a 20 3c
       -0.01890496 0.0114576 1.981249e-05 0.009783286
0001a0 cc fd 45 3b 0d 27 c1 3b 59 6b 80 bc e6 eb 09 3c
       0.003021109 0.005894548 -0.015676187 0.008418059
0001b0 5a 3c 10 3c e1 7c fa ba 0a 21 00 3c 50 a7 d3 38
       0.008803451 -0.0019110703 0.007820377 0.000100924284
0001c0 77 e4 ad bb 5f fb 6f 3c 59 1d 28 bc c8 66 dd bb
       -0.005306776 0.014647334 -0.010260903 -0.0067566372
0001d0 f6 c7 4f bb 75 2a d7 3b 8e b0 b5 bb 2b 76 e1 bb
       -0.003170488 0.0065663406 -0.0055447286 -0.006880542
0001e0 2b 3e 73 bc 93 da 87 bc 02 5f 56 3c 1d 54 9d bc
       -0.014846365 -0.016583716 0.013084175 -0.019205147
0001f0 66 2e 74 3c e3 39 8b 3b 8e 50 54 bc e5 34 29 3b
       0.01490364 0.004248844 -0.012958659 0.002581888
000200 ba e9 62 3b 35 27 99 3b 55 be a4 3b 99 0e 67 3c
       0.0034624175 0.0046738633 0.005027572 0.014102601
000210 4d ca 11 bc 73 8f 4f bc ec f9 bb 39 c0 49 87 bc
       -0.00889833 -0.012668478 0.00035853626 -0.016514659
000220 39 8a ba bb 28 05 07 3c 1a b1 05 bc 4d 04 b9 ba
       -0.005692747 0.008240975 -0.0081599 -0.0014115662
000230 07 82 70 bb a3 82 94 3b fa 39 9d bc f0 e0 8d bc
       -0.0036698596 0.0045321747 -0.019192684 -0.017319173
000240 4e de 66 3b 7d 55 8b bc 95 44 19 3c f5 47 6c 3c
       0.0035227719 -0.017008537 0.00935473 0.014421453
000250 c9 d1 85 bc fe 6b c0 bb 7e 35 0a 3b 3b 31 c3 3b
       -0.016335385 -0.0058722487 0.0021089013 0.0059567965
000260 15 06 f3 bb 84 61 57 bc d0 87 19 bb 08 9b fd 3b
       -0.0074164965 -0.013145808 -0.0023426898 0.0077394284
000270 62 8d 3a bc aa 5b 22 bb 64 d4 99 3b 11 8b 22 bc
       -0.011386247 -0.0024773874 0.0046945084 -0.009920851
000280 7e 5f 08 3c 32 dc 4a bc a2 52 8e bc 4c e1 26 bc
       0.008323548 -0.0123816 -0.017373387 -0.010185551
000290 75 86 67 bc c8 0d 91 bb e3 18 a7 bb 1a 75 9d ba
       -0.014131178 -0.0044266917 -0.0050994023 -0.0012013048
0002a0 79 8e 03 3c 4c 88 02 bc 6e e1 52 3b c3 fa 64 bc
       0.008029574 -0.007967066 0.0032177824 -0.013975802
0002b0 51 4c b1 bb c4 19 30 bc f8 52 da bb a0 d3 7b bb
       -0.005410709 -0.0107483305 -0.0066627227 -0.00384257
0002c0 ef 3e 8a bc 81 c7 02 bc ce 9b 8b ba da b9 28 3c
       -0.016875712 -0.007982136 -0.0010651292 0.010298217
0002d0 9b f2 2b 3c f4 62 3c bb 38 b3 84 3c fd 6b e8 bb
       0.010494853 -0.0028745504 0.01619874 -0.0070929513
0002e0 7a da 10 bc 20 ea 38 bc d7 00 14 3b c1 c6 af 3b
       -0.008841151 -0.0112862885 0.0022583508 0.0053642695
0002f0 1c ae df b9 26 b3 b4 bb b9 a3 3e bc ef a7 02 bc
       -0.00042663596 -0.00551452 -0.011635714 -0.007974609
000300 f9 4e 1e 3c 18 a2 c4 bb 28 af dd 3b 69 49 8d bc
       0.009662383 -0.0060007684 0.006765265 -0.017246919
000310 df 17 c5 ba 6c fc 25 3c 3f ec 7e bc 1b f7 0e bc
       -0.0015037021 0.010130983 -0.015559255 -0.008725907
000320 40 b0 6b 3c 55 f7 11 3c e0 6c 74 3c 42 44 27 3c
       0.014385283 0.008909066 0.014918536 0.010209145
000330 ed 49 12 bc b2 69 5f 3c f7 93 c1 bb 2d c1 83 bc
       -0.008928758 0.01363604 -0.0059075314 -0.016083324
000340 7d 44 5b bc 5e d8 68 bb ee 8f 0c 3c 1a b8 3f bc
       -0.013383028 -0.0035529356 0.008579237 -0.011701608
000350 0a 31 7b bc 44 93 59 3c 80 30 a8 3a a0 cb a2 3b
       -0.015331516 0.01327974 0.0012831837 0.0049681216
000360 c0 a9 4e bc 78 49 dc b9 21 89 d0 3b 0f 0b 18 bc
       -0.012613714 -0.00042016408 0.0063640033 -0.00927998
000370 4a cf ae ba f6 44 f5 bb 9b c7 55 bc 73 99 f8 3b
       -0.0013336923 -0.0074850274 -0.013048078 0.007586652
000380 d5 38 aa bb 00 21 e8 3b 40 1b b8 3b 22 0a 18 3c
       -0.005194763 0.007084012 0.005618483 0.00927976
000390 f0 49 ad b9 11 31 83 3c 44 7a 59 3c 72 bc 78 bc
       -0.0003305222 0.016014608 0.013273779 -0.015181648
0003a0 62 61 61 bc ec 58 d8 3b 18 b6 3f bc ac 74 2a bc
       -0.013756128 0.006602397 -0.011701129 -0.010403793
0003b0 e0 5d 26 3c 48 9f 4a 3c 3c 28 91 bb 7a 58 f0 3a
       0.0101542175 0.012367077 -0.004429845 0.0018336915
0003c0 c8 d2 13 3b 38 f2 f7 bb 3a 30 35 ba 70 0a 02 bb
       0.0022556055 -0.0075667165 -0.00069117884 -0.0019842647
0003d0 4c 71 49 bc 1a 52 66 3c 4c 03 94 bb a1 58 11 bc
       -0.0122950785 0.0140576605 -0.0045169946 -0.008871228
0003e0 5e 86 6d bc 2a 96 26 3c 0f 18 6d bc 34 12 63 3c
       -0.014497368 0.010167638 -0.014471068 0.01385932
0003f0 fa ef 23 3c a5 11 73 bc 94 9a 07 3c 9e 8e 86 bc
       0.010005945 -0.01483575 0.0082766 -0.016425427

linear.0.bias f4 [16]
000000 20 01 65 3c b2 a8 62 bc 27 e0 63 3c a0 f8 3d 3b
       0.013977319 -0.013834165 0.013908423 0.0028987303
000010 77 23 88 bc 90 6b 2e 39 7e 9c 34 bb dc 9f 3d 3c
       -0.016618473 0.00016634003 -0.0027559097 0.011573758
000020 65 0a 7c 3c 77 a2 43 bc ff 16 ee 3a 0c c7 2b 3c
       0.015383338 -0.01194059 0.0018164812 0.010484468
000030 75 37 d9 3a d8 9b 8c ba 16 33 25 ba e6 d8 14 3c
       0.0016572314 -0.0010727597 -0.0006301863 0.009084916

linear.2.weight f4 [1, 16]
000000 bd 25 62 be 12 5b 25 be 21 cb 07 be 57 51 e8 3c
       -0.22084709 -0.16148022 -0.13261081 0.028359098
000010 5c 02 40 3e 30 3f 6c 3e 9e 8a 55 bd 3b a7 be bd
       0.187509 0.23070979 -0.05213415 -0.093092404
000020 96 b0 0b be 07 d3 e7 bd 5c 70 da bd b6 90 c8 3d
       -0.13641581 -0.11319547 -0.10665962 0.097932264
000030 e7 5f a4 3d b5 98 22 3d 9a 03 d0 3d 86 18 f0 3d
       0.080261044 0.039696414 0.10156937 0.117234275
