models/trainingmodels/start_backup.pth (torch, 337595 bytes, 12 tensors)

linear_relu_stack.0.weight f4 [64, 104]
000000 63 79 b9 3d e7 88 b3 bd 28 65 c8 bc 46 4d 6b 3d
       0.09056356 -0.087663464 -0.024462298 0.05744674
000010 ee d6 9e bd f1 f3 25 bd 0c 09 d9 3c e2 82 14 3d
       -0.07755838 -0.040515844 0.026493572 0.036257632
000020 11 9f a2 bd 3c bd a6 bd 0a 5d 73 3d f0 3c d3 bc
       -0.07940496 -0.08141562 0.0594149 -0.025785893
000030 71 1b bb bd c4 13 8d bd 6e 67 4e 3d a2 ff 2b 3d
       -0.091360934 -0.068885356 0.050391607 0.041991837
000040 78 d8 c4 bd 80 5e 19 bc 9d 80 c6 bd 46 ca 70 3d
       -0.09611601 -0.009360909 -0.096925 0.058786653
000050 20 b2 1d 3c 37 86 c4 3d f3 bd a4 3d 05 e7 b9 3d
       0.009624988 0.09595912 0.080440424 0.090772666
000060 f0 77 12 3c c8 7f 5d bd ea 5a 06 3d eb 7c c8 3d
       0.008939728 -0.05407694 0.032801546 0.09789451
000070 a2 fd b1 bd 0c b6 de 3c 4f f2 6d bd 49 99 b1 3d
       -0.08690955 0.027186416 -0.05809241 0.08671815
000080 99 ca c4 3d 8d ca a6 3d 87 3f a6 3d 63 ec 86 3d
       0.09608955 0.08144102 0.08117586 0.06588056
000090 8f d9 ab 3d c0 66 93 bd d9 23 bc 3d 0f 18 a5 3d
       0.083911054 -0.071973324 0.09186525 0.080612294
0000a0 ba 40 3c 3d 01 9f 1f bd 46 40 4e bd 1d b5 9d 3d
       0.045960166 -0.038969997 -0.050354265 0.0770056
0000b0 ee f1 be bd 1a 50 5a 3d c0 bd ba ba f1 d4 90 3d
       -0.09323488 0.053299047 -0.0014247224 0.07071865
0000c0 64 d2 98 bd ae fb b1 bd 85 31 c2 3d 32 9a 50 3d
       -0.07462004 -0.08690582 0.09482101 0.050928302
0000d0 98 bf 37 bd 20 6d 64 bb 80 0f 9e bd 1c 21 b9 3c
       -0.044860452 -0.0034855083 -0.077178 0.022598796
0000e0 40 23 4a bc 34 bc e6 3c 90 98 98 3c 98 59 a3 bd
       -0.012337506 0.028165914 0.018627435 -0.07976073
0000f0 af 84 ad bd 77 1c c1 bd 38 a6 08 bd cc cf 8a bc
       -0.08472573 -0.09429257 -0.033361644 -0.016944788
000100 d4 77 aa bc d6 91 45 3d 9f c0 8d 3d ba 65 0c 3d
       -0.020809092 0.048234783 0.06921505 0.0342767
000110 45 86 8e 3d d1 54 b5 3d d0 40 c5 bc 63 4e 9f bd
       0.06959204 0.08854068 -0.024078757 -0.07778623
000120 1b bd 92 3d d6 c6 01 bd 40 82 87 3a a8 8a cb bc
       0.07164975 -0.031683765 0.00103385 -0.02484639
000130 e9 26 a2 3d 00 f9 bb ba 7a a8 19 3d f8 de b5 bd
       0.07917578 -0.0014341176 0.037514187 -0.088804185
000140 e0 e5 14 3c 0c 06 e9 bc 40 08 8e bd 1f 25 c2 3d
       0.00908801 -0.028445266 -0.06935167 0.094797365
000150 58 73 5b 3c fa cb 1c 3d bc 26 a3 3c 04 6a 30 bd
       0.013394199 0.038280465 0.01991593 -0.043069854
000160 04 28 82 bc 49 a6 a5 bd 26 22 7c bd 60 1c 36 3c
       -0.015888222 -0.08088357 -0.061556004 0.011115164
000170 88 24 26 bc 30 ef 96 3b f5 bd 85 3d e2 48 25 3d
       -0.010140546 0.00460615 0.06530372 0.04035271
000180 34 b6 d5 bc 00 7e 3b bb 40 bc ee 3b 35 da 98 bd
       -0.026087858 -0.0028609037 0.0072856247 -0.07463495
000190 5e 5a 6b 3d c8 df d6 bc 90 f4 dd bb 82 19 6a 3d
       0.057459228 -0.026229754 -0.006773539 0.057153232
0001a0 22 97 68 3d 87 ae a9 3d a4 2f 85 3c 49 d5 92 3d
       0.056784756 0.082852416 0.016258068 0.07169587
0001b0 6d 3f 8b 3d e8 b5 be bc f0 71 59 3c b1 62 66 bd
       0.06799207 -0.023280099 0.013271794 -0.056246463
0001c0 d4 34 b8 bd 31 44 b6 bd 12 b3 05 3d 03 11 a5 3d
       -0.08994451 -0.08899725 0.032641478 0.08059885
0001d0 6e d4 29 3d 84 b3 9e 3c 8a 04 85 bd b0 08 f4 3b
       0.041462354 0.01937271 -0.064950064 0.0074473247
0001e0 23 82 b0 3d 55 32 bb 3d 97 63 40 bd 0d 7d 9f 3d
       0.086185716 0.091404594 -0.046969976 0.077875234
0001f0 92 51 37 3d 99 b1 b0 bd 20 82 48 bd f9 39 1e bd
       0.044755526 -0.08627624 -0.048952222 -0.038629506
000200 da 81 9d bd 09 0f a4 bd a0 f7 c0 bb fa c1 7c 3d
       -0.07690783 -0.0801068 -0.005888894 0.061708428
000210 4e 3a 58 bd 84 59 e5 bc 6d ba c0 3d f0 bd 34 bc
       -0.05278998 -0.027996786 0.09410558 -0.011031613
000220 0f 61 b6 3d 70 4c c1 3c 98 76 63 bd df c6 4e bd
       0.08905231 0.023596019 -0.05553302 -0.050482627
000230 c2 12 71 bd e7 51 84 bd 82 37 24 3d 90 39 cb 3b
       -0.05885578 -0.06460934 0.040092 0.0062019303
000240 0c 4a 0b bd 84 c1 e2 3c 1f 54 a6 bd 26 d4 3f 3d
       -0.034006163 0.027680166 -0.081215136 0.04683318
000250 60 a4 6a bb fe 17 4c 3d ae 15 6c 3d 65 09 86 3d
       -0.0035803542 0.04982757 0.057637863 0.065447606
000260 42 c5 73 bd 60 e1 3f bb 1b aa 85 3d ae a5 0b bd
       -0.05951429 -0.002927862 0.06526586 -0.03409355
000270 02 d9 72 3d 85 3e a6 bd f0 2d f4 3b 4d a1 be 3d
       0.059288986 -0.081173934 0.0074517652 0.093081094
000280 20 5f 09 bb 3a bb 1c 3d 38 25 b9 3c c0 6c 70 3c
       -0.002096124 0.03826449 0.022600755 0.0146743655
000290 c1 f5 be bd 92 be 30 3d a6 d5 03 3d 6f 75 8f 3d
       -0.093242176 0.043150492 0.032186173 0.070048206
0002a0 5a 09 3e 3d 7c dc 9a 3c e7 95 49 bd 88 93 5e bd
       0.046395637 0.018903963 -0.049215224 -0.054339916
0002b0 2c c7 c7 bd 7b 90 88 3d 60 3b 51 3c 38 c1 8e bd
       -0.09754786 0.066681825 0.012770504 -0.06970447
0002c0 ac 0b c1 3c 22 e6 9a bd 23 fc 9d bd bc 36 93 bd
       0.023565136 -0.075634256 -0.07714107 -0.07188174
0002d0 87 af 9a 3d 64 b0 d5 3c fb bb 94 3d 68 02 60 bc
       0.075530104 0.026085086 0.07262417 -0.013672449
0002e0 2e 5b 5e 3d bc 4c b5 bd ba c6 6e bd 18 3a d7 3c
       0.054286174 -0.088525265 -0.05829499 0.026272818
0002f0 85 30 9b 3d 3b f0 43 bd 4a 39 69 bd 32 60 34 3d
       0.07577614 -0.047836524 -0.0569394 0.04403705
000300 cc ed cc 3c 68 52 cd bc 80 11 38 bc d8 67 9b 3c
       0.025015734 -0.025063708 -0.011234641 0.018970415
000310 79 ab c7 3d 36 1b 4a bd e7 1d 93 bd 0b 1f a0 bd
       0.09749503 -0.049342357 -0.07183438 -0.07818421
000320 97 86 a6 3d 41 2d 82 3d 3c 26 9f bd 1e 7a ba bd
       0.0813114 0.06356288 -0.077709645 -0.09105323
000330 10 4b b2 3c f0 10 ca bc a0 45 59 bc 21 ee 63 bd
       0.021764308 -0.02466628 -0.013261229 -0.05564702
000340 80 1b 29 bb ac 18 84 3c 75 b3 bb bd c3 ed a2 3d
       -0.0025803745 0.016125046 -0.09165088 0.07955506
000350 f7 be 93 bd eb 08 ad bd 38 24 4a bd 70 fb d8 3c
       -0.07214158 -0.084489666 -0.049350947 0.026487082
000360 bf 30 b7 3d 50 10 c7 3c 1c 29 ae bc c0 9b 9a 3a
       0.089448445 0.02429977 -0.021259837 0.0011795685
000370 62 bf 8b bd 40 d2 cd 3b 63 3c 7e bd e5 5e 26 bd
       -0.06823613 0.0062811673 -0.062069308 -0.040617842
000380 17 ed 2d bd 80 7f 50 3b ce 23 20 3d 9f 4f a7 3d
       -0.042462435 0.0031814277 0.039096646 0.081694834
000390 fb 0b a9 bd a8 62 12 bd dc 7e dc 3c b4 08 ec 3c
       -0.08254238 -0.035738617 0.02691596 0.028812744
0003a0 fe 06 38 bd a1 04 93 3d 94 86 57 bd cc 5f 9a bc
       -0.044928543 0.07178617 -0.052618578 -0.018844508
0003b0 d0 c0 fb bc 6c 50 88 bc 76 0a 7f 3d 12 ce 82 bd
       -0.030731589 -0.01663991 0.062265836 -0.06386961
0003c0 fc ae fa 3c 61 3b b4 3d 3c c8 94 bd c2 42 b4 bd
       0.030601017 0.08800388 -0.07264754 -0.088017955
0003d0 1d b8 b0 3d b5 17 81 3d 80 05 53 3c fa b6 1d 3d
       0.08628867 0.0630335 0.012879729 0.03850458
0003e0 d8 cf 79 3c 40 02 ba 3b c2 69 6d 3d 12 f9 4e 3d
       0.015247308 0.0056765378 0.057962187 0.0505305
0003f0 60 01 8f 3b a6 7c 0c 3d 16 13 a1 bd ca 00 23 3d
       0.0043641776 0.03429856 -0.078649685 0.039795674

linear_relu_stack.0.bias f4 [64]
000000 7f 93 24 bd 63 45 bb bd 32 c8 9f bd 95 95 b5 3d
       -0.040179726 -0.09144094 -0.07801856 0.08866421
000010 93 6a a1 3d d5 ca 1a bd 0f b5 93 3d 12 b0 71 3d
       0.078816555 -0.037791092 0.072122686 0.059005804
000020 3d 04 69 bd d0 9c 1e bc 80 87 40 3b 0a a0 0c 3d
       -0.056888808 -0.009680942 0.002937764 0.034332313
000030 29 7b 8a 3d 60 37 85 3c 8e 92 73 3d eb 5c 61 bd
       0.06761772 0.016261756 0.059465937 -0.055020254
000040 5e d0 90 bd 6c 8a a7 bc 93 00 9e bd 64 6a ad bd
       -0.07070993 -0.020451747 -0.07714953 -0.08467558
000050 7f 91 bf 3d 6d fb c3 3d 54 f8 a3 3c f8 f3 7a bd
       0.09353923 0.0956944 0.020015873 -0.061267823
000060 88 cc 1d bc 78 1a 8f 3c 98 a9 41 bd aa 9b 07 3d
       -0.009631284 0.017468676 -0.047280878 0.033107437
000070 81 be 92 3d 84 a0 9a 3c 58 5d a8 3c 60 70 8f 3c
       0.07165242 0.018875368 0.020552322 0.01750964
000080 80 01 a0 bd 8b 18 a9 bd d5 95 4c bd 45 07 9b bd
       -0.07812786 -0.08256634 -0.04994758 -0.07569746
000090 00 d9 92 b9 39 18 b1 3d 2c c7 94 3c 1e 17 53 3d
       -0.00028008968 0.08647198 0.018161379 0.05153572
0000a0 f6 be 25 3d 61 21 a2 3d bd 8b 2c bd a6 d1 68 3d
       0.040465318 0.07916523 -0.042125452 0.05684056
0000b0 d0 a0 77 bd 23 7a a9 3d b2 da 2d 3d 13 51 6f bd
       -0.060456097 0.08275249 0.042444892 -0.058426928
0000c0 54 c2 d4 3c 20 9d 7a bd c8 8f 19 3c be 42 18 3d
       0.02597157 -0.061185002 0.009372659 0.037173025
0000d0 7d de a9 3d 52 52 06 bd 15 08 ba 3d 06 71 c1 bd
       0.082943894 -0.03279335 0.09083573 -0.09445386
0000e0 d8 c8 b7 bd 98 87 af 3c 14 d8 63 bd 10 98 9a 3c
       -0.08973855 0.02142696 -0.05562599 0.018871337
0000f0 ad ae 9d bd 6b 0b 83 3d 34 d7 d2 bc 5a 9f 9f bd
       -0.076993324 0.06398662 -0.025737382 -0.07794066

linear_relu_stack.2.weight f4 [64, 64]
000000 3a 17 c9 3d 20 94 67 bc 0c b7 7b 3d c0 3c b0 bc
       0.09818883 -0.014134437 0.061453864 -0.021513343
000010 9c c1 73 bd c2 ae c4 bd 50 af d6 3d c6 87 83 3d
       -0.059510812 -0.09603645 0.10482657 0.06422381
000020 70 79 02 3d c0 02 14 3b 78 7b b8 3c 68 36 bf bd
       0.031854093 0.0022584647 0.022519812 -0.09336549
000030 bc 04 a7 3d fa 54 e3 bd 00 c3 ba 3c 08 f8 f4 3c
       0.081552 -0.11100192 0.022798061 0.029903427
000040 54 9c 3e 3d 20 54 2e 3d 62 5b 96 bd e0 72 75 3d
       0.046535805 0.042560697 -0.07341649 0.059924006
000050 18 84 af 3c 08 de a5 3c 30 47 31 3d b0 9b d8 bc
       0.021425292 0.020247474 0.04328078 -0.026441425
000060 60 40 6e bd 84 35 6f 3d ec 08 9c 3d 90 a2 c8 3c
       -0.05816686 0.058400646 0.07618889 0.024491578
000070 08 78 c2 3d 28 e4 89 bc 86 4a c5 bd d8 d1 a7 bd
       0.094955504 -0.016832426 -0.09633355 -0.081943214
000080 be 05 8b bd 88 00 ad 3c 90 8a 5f 3d 40 3a fd 3c
       -0.067882046 0.021118417 0.054575503 0.030911565
000090 68 da fe bc ec c0 cb 3d 90 32 f7 bc c8 be 80 3c
       -0.031110004 0.09948906 -0.030175477 0.015715972
0000a0 36 1a d1 3d c6 2a d4 bd 78 58 8b 3c a2 fe 91 bd
       0.102100775 -0.10359721 0.017009959 -0.071286455
0000b0 b2 66 f1 3d d0 d7 56 3c d4 78 e7 3d c0 2f b4 3c
       0.11787166 0.013112977 0.11302343 0.021995425
0000c0 c4 4c b8 bd 00 8a a2 b9 28 3a e2 bd 10 99 9e 3d
       -0.08999017 -0.00031001866 -0.11046249 0.07744038
0000d0 0e 4c 84 3d bc db 8e bd 06 72 ca 3d f6 8f a5 3d
       0.06459819 -0.06975505 0.098850295 0.08084099
0000e0 1e 3e ec 3d fa be b2 bd 5c 59 57 bd 20 a5 77 3d
       0.115352854 -0.08727832 -0.052575454 0.06046021
0000f0 f0 2c bc bd 1c bf 86 3d 88 5b 57 bd 58 18 17 bd
       -0.09188259 0.0657942 -0.052577525 -0.03688845
000100 a0 02 d2 3d ac 38 40 3d a8 86 9f bd 2e 06 f0 3d
       0.10254407 0.046929047 -0.077893555 0.11719929
000110 50 59 02 3c fc 7b 12 3d d6 79 c8 3d 5c 34 a3 bd
       0.007955864 0.035762772 0.09788863 -0.07968971
000120 f0 88 ab bc 8a 31 84 bd f0 bb ad bc 1c 75 60 3d
       -0.02093932 -0.06454761 -0.02120778 0.054799184
000130 80 00 c8 ba 80 3e 01 3b a8 96 b0 3c b2 de b3 3d
       -0.0015258938 0.001972109 0.021556213 0.0878271
000140 28 b8 f4 bd f8 45 60 bd a0 94 41 3c 32 b0 fb bd
       -0.119491875 -0.054754227 0.01181522 -0.12289466
000150 70 ec f9 bd bc 6b 2f 3d b8 bf 7b bd 28 82 f5 bd
       -0.122033 0.042827353 -0.061462134 -0.11987716
000160 80 cf 8b 3c d0 1b fe bc a0 11 8b bb f0 e1 ad 3d
       0.017066717 -0.031019121 -0.0042440444 0.0849036
000170 b8 e9 9a 3d a4 60 42 bd fe f0 b3 bd 88 ee 8d bc
       0.075641096 -0.047455445 -0.087862 -0.017325655
000180 c4 52 d1 3d 16 16 84 3d 68 e7 3b bd 58 f0 b6 3d
       0.102208644 0.06449525 -0.045874983 0.08932561
000190 9c 9b 27 3d f0 41 14 bc 04 79 22 3d a8 7f 06 bd
       0.040919885 -0.009048924 0.03966619 -0.032836586
0001a0 38 ff 37 bd 50 f9 87 bc 9a 98 f6 bd 92 57 a9 bd
       -0.04492113 -0.016598374 -0.12040825 -0.08268656
0001b0 f8 71 23 bd c0 0f ad 3c a2 c8 d2 3d 34 61 63 3d
       -0.03990361 0.021125674 0.10292174 0.055512622
0001c0 de 26 dd 3d 96 a9 ad bd 46 f9 c4 bd 12 9c e3 3d
       0.10798429 -0.084796116 -0.09617858 0.111137524
0001d0 2c 93 2c bd 36 ed ef bd 7e bd a2 3d 62 4b 86 3d
       -0.04213254 -0.11715166 0.07946299 0.06557347
0001e0 e8 33 ca 3d 20 49 11 3d c2 2f ed 3d c0 c5 2a bd
       0.098731816 0.035470128 0.11581375 -0.041692495
0001f0 c0 e8 51 3b a0 d4 79 3c a4 fa 98 3d 90 d4 3c 3c
       0.00320296 0.015248448 0.07469681 0.011525288
000200 70 41 cb bd 10 9d b6 bd 38 dc c4 3c 2c c7 10 3d
       -0.099245906 -0.08916676 0.02403079 0.035346195
000210 48 a4 82 bc 1c f6 22 3d 14 3b 3f 3d ca 4e c4 3d
       -0.015947476 0.03978549 0.0466872 0.0958534
000220 c8 7d d2 3d 6c ea c5 bd 70 2f 5c bc a8 31 b8 3c
       0.10277897 -0.09663853 -0.013439044 0.022484615
000230 82 e2 bb 3d bc 37 30 bd 14 0f 1c 3d 8c 9e 5e 3d
       0.09174062 -0.043021902 0.038100317 0.05435042
000240 c4 97 c6 bd d0 45 06 bd c0 cf 75 bd 64 92 de bd
       -0.09696916 -0.032781422 -0.06001258 -0.108677655
000250 ec 8a bb 3d 38 31 d3 bc f0 b2 d2 3d c8 ce bd 3d
       0.091573566 -0.025780305 0.10288036 0.09267956
000260 38 e1 88 3c 50 80 9e bd 6e 28 d4 3d 62 a5 a4 3d
       0.016708955 -0.077393174 0.10359274 0.08039357
000270 70 cc 67 3c 9e ec b9 bd 32 bd f3 bd 7e c7 8f 3d
       0.014147863 -0.09078334 -0.119013205 0.07020472
000280 10 59 2f bc c0 6a d9 3b cc 4d e3 3d 20 6a 64 bc
       -0.0107023865 0.00663504 0.11098823 -0.013941318
000290 aa 8e b7 3d 00 93 06 3c fc 51 d3 bd 44 25 05 3d
       0.08962758 0.0082137585 -0.10318372 0.032506242
0002a0 48 02 3f 3d 60 65 98 3c 00 05 0a 3b 50 bd 61 3d
       0.046633035 0.018603027 0.002106011 0.055112183
0002b0 f0 4e 96 bc c0 3c 00 3c 1c fd ea 3d 92 66 ac bd
       -0.018348187 0.007826984 0.11474058 -0.08418001
0002c0 4c 95 75 3d 42 37 cb bd 40 6b a0 bd 4a 9b e4 3d
       0.059956834 -0.09922649 -0.07832956 0.111624315
0002d0 e0 0c 9b bb 18 49 a7 bd 66 07 ca 3d 0c 24 1b 3d
       -0.0047317594 -0.081682384 0.098646924 0.037876174
0002e0 c0 bf 74 3b 7c 42 2a bd c2 7f a5 bd 00 02 7f bc
       0.0037345737 -0.04156731 -0.080810085 -0.015564442
0002f0 d6 ef e4 bd d8 d1 be bc 80 6f e8 ba d0 d2 f7 bd
       -0.111785576 -0.02329342 -0.0017733425 -0.12100756
000300 42 15 cf 3d e4 84 93 bd 74 64 18 3d 26 89 a6 bd
       0.101114765 -0.07203081 0.037205175 -0.08131628
000310 c2 ea e2 bd 74 27 5a bd 0c 96 5f bd c4 15 28 bd
       -0.11079933 -0.05326028 -0.054586455 -0.041036382
000320 a0 3f 32 bc 00 51 8c 3b ec 5b 53 bd 18 60 69 3d
       -0.010879427 0.004282117 -0.051601335 0.056976408
000330 60 7e 3d bd 5c a7 c6 bd 60 f8 bb bc 18 89 ea 3d
       -0.0462631 -0.0969989 -0.022945583 0.1145193
000340 e0 6d b9 3d 8a c6 ec bd 4c c9 4b 3d aa 3b fb 3d
       0.0905416 -0.11561306 0.04975252 0.122672394
000350 98 1e eb bc 8a e7 ba 3d 00 5e 77 bc 12 6a c1 3d
       -0.028701112 0.09126194 -0.015098095 0.094440594
000360 34 0f 49 3d f0 d5 2e bc 88 73 b9 bc e0 82 ab bd
       0.049086764 -0.010671124 -0.022638097 -0.08374572
000370 7a 2c f7 bd 58 5c 2d bd c8 b6 28 bd 18 66 8f 3c
       -0.1206903 -0.042324394 -0.04118994 0.017504737
000380 bc fb f1 bd 40 b3 eb bb e4 bc d3 3d 56 88 bb 3d
       -0.11815593 -0.007192999 0.103387624 0.091568634
000390 20 c9 bd 3c d8 41 b2 3d c0 c7 a2 3b 10 99 9f bc
       0.023167193 0.08703965 0.0049676597 -0.019482166
0003a0 68 ce c4 3d 70 39 fc 3d ac 79 84 bd c8 f1 32 bd
       0.09609681 0.12315643 -0.064685196 -0.04368761
0003b0 c8 70 dd bc 30 b3 56 3d 08 17 d1 bc 22 9a b7 3d
       -0.027031317 0.05241698 -0.025523677 0.089649454
0003c0 ac e7 15 3d d8 47 88 bd 7c fb 94 bd bc c7 80 bd
       0.036597893 -0.06654328 -0.07274529 -0.06288096
0003d0 a0 92 07 3d 80 24 7d bb fe 05 84 3d f0 7a ed 3c
       0.033098817 -0.0038626492 0.064464554 0.028989285
0003e0 0a 99 94 bd ae 1d d0 3d 70 82 41 3c 3a ce e1 bd
       -0.072557524 0.10161911 0.011810884 -0.11025663
0003f0 0e e2 95 3d 54 b0 2a 3d 7a 10 c4 bd 8c 13 20 bd
       0.07318507 0.041672066 -0.09573455 -0.03908114

linear_relu_stack.2.bias f4 [64]
000000 0a d1 ba 3d e0 53 e4 bc 28 98 91 3c 0c 10 4f bd
       0.09121902 -0.027872026 0.017772749 -0.050552413
000010 4e a7 b3 3d 58 bf 48 3d 0a 48 b6 3d 20 c0 6f 3c
       0.08772145 0.049010605 0.08900459 0.0146332085
000020 00 03 ca 3d 00 12 54 bb 78 27 fe 3c 94 bd 71 3d
       0.098638535 -0.0032359362 0.03102468 0.059018686
000030 18 e1 c4 3c 28 ae ac 3d 5c d4 7a bd 4c ff 76 bd
       0.024033114 0.08431655 -0.061237678 -0.060302064
000040 36 83 ed bd 10 59 25 3c 8a 95 8b 3d c0 d2 0f bc
       -0.11597292 0.010092035 0.06815632 -0.008778274
000050 80 60 45 bc 40 06 a5 bc 20 6a a0 bc 04 08 3e 3d
       -0.012046933 -0.020144582 -0.019581854 0.046394363
000060 a0 c0 6e 3c 4a 47 cc 3d b6 dc a3 3d 38 36 d3 3d
       0.014572293 0.09974535 0.08001082 0.10313076
000070 4a b5 b4 3d cc b7 66 3d d0 7d 14 bd 8e c3 cb bd
       0.08823641 0.056327626 -0.036252797 -0.099494085
000080 40 4c c2 bb a0 b2 a3 bc 9e 96 a4 bd f4 bc a0 bd
       -0.0059295 -0.019982636 -0.080365404 -0.0784854
000090 c0 d6 47 3c a6 3e f7 3d d8 27 30 bd a0 e9 35 3d
       0.0121971965 0.12072496 -0.043006748 0.044412255
0000a0 dc ea 83 3d b0 3a 11 bd 58 93 ed 3d 60 a1 e3 3b
       0.0644128 -0.03545636 0.11600369 0.0069467276
0000b0 9c 4b 78 bd 64 4c 9b bd c8 52 16 3d f0 24 12 3c
       -0.06061898 -0.0758293 0.03670004 0.008919939
0000c0 c8 89 2e 3d 98 57 87 3c 08 fc 89 3d 78 77 0f bd
       0.042611867 0.01652126 0.06737524 -0.035026044
0000d0 f8 6b 40 bd 08 68 e1 bd 4c 04 b3 3d 10 ef e2 bd
       -0.046977967 -0.110061705 0.08741054 -0.11080754
0000e0 06 21 c2 3d 60 65 5b 3d 90 f3 09 bd 08 a7 cb 3c
       0.09478955 0.053563476 -0.033679545 0.02485992
0000f0 d8 f6 f3 bd 00 12 a1 3c 84 82 79 3d 80 f0 77 bd
       -0.11912316 0.019661903 0.060915485 -0.060532093

linear_relu_stack.4.weight f4 [1, 64]
000000 94 bf 67 bd e0 7d 55 3c 20 11 ed bd 04 55 68 bd
       -0.056579188 0.013030499 -0.11575532 -0.056721702
000010 10 82 0e bd 5e fe e6 3d c8 e7 a4 3d 7c 73 58 3d
       -0.034792006 0.112789854 0.08052021 0.05284451
000020 b0 ac fe 3d b0 f0 65 bd 38 15 c3 bd e8 89 aa bc
       0.12435281 -0.05613774 -0.095255315 -0.020817712
000030 6c c9 bb bd 06 97 97 3d 98 bd 62 3d f8 b7 0a 3d
       -0.091692775 0.07401852 0.055356592 0.033866853
000040 b8 2d ae 3d f0 1a 82 3c 40 e0 96 bd 00 10 cc 3c
       0.08504814 0.015881985 -0.07366991 0.024909973
000050 e0 fc 08 3d 78 24 b5 3d 60 86 33 bd 18 f9 f0 bd
       0.033444285 0.088448465 -0.04382932 -0.11766261
000060 c0 9e b7 3c d4 e5 51 bd 14 6c dc bd 28 c2 09 bd
       0.022414565 -0.05124457 -0.10762802 -0.033632427
000070 a0 a8 79 3c 50 bd 84 3c a4 72 bb bd 42 d6 b1 bd
       0.015237957 0.016203552 -0.09152725 -0.086834446
000080 e8 51 bc 3d 38 3f 50 3d 3c 6f e8 bd 90 7e a2 3c
       0.0919531 0.05084154 -0.11349341 0.01983574
000090 8c c6 43 bd 00 12 e3 3c 10 92 13 3c 50 49 b1 3d
       -0.04779677 0.027718544 0.009006992 0.086565614
0000a0 00 57 78 3c 50 be 9e 3d 58 1e 60 bd 60 fe e0 3b
       0.015157461 0.07751143 -0.054716438 0.0068662614
0000b0 fc a2 f5 bd d8 51 6a bd 7c e1 ec bd 5a 78 a8 bd
       -0.119939774 -0.05720696 -0.11566445 -0.0822608
0000c0 2e e2 ae bd 8c 97 e7 3d fc 5e 95 bd 90 8c 8b bd
       -0.08539234 0.11308202 -0.072935075 -0.068139195
0000d0 d6 56 95 3d ba fd ab bd 60 00 b8 3c 36 ad d8 3d
       0.07291953 -0.08398004 0.022461116 0.10579912
0000e0 28 01 c0 bc 7e ad 98 bd 60 f1 a5 bb 06 68 d3 bd
       -0.023438051 -0.07454966 -0.0050641745 -0.10322575
0000f0 06 ef d7 bd c0 7d d3 3d e6 30 e8 bd f8 6c 16 3d
       -0.10543637 0.10326719 -0.11337452 0.036725014

cnns.0.weight f4 [32, 2, 3, 3]
000000 a9 81 13 3e 72 af d9 bc 3a b7 8e be 64 a8 93 bd
       0.1440493 -0.026572917 -0.27874166 -0.07209852
000010 a1 be 2b 3e c5 37 b1 3d 16 6d ab be f1 fc 2d be
       0.16771938 0.08653215 -0.33481663 -0.1699102
000020 3f e2 01 be bb 85 61 be be 49 53 3d e6 dd 88 be
       -0.12683962 -0.2202367 0.051583998 -0.26731795
000030 06 62 72 be d2 d2 aa 3e b2 fe 85 be 6d 89 80 3e
       -0.23670205 0.33363968 -0.2617088 0.25104848
000040 86 a6 6e 3e 74 c4 0b be 41 e8 00 3d aa 1d 17 3e
       0.23305711 -0.1364916 0.031471495 0.1475741
000050 12 4c 2c bc d7 9e 63 bd 2f 4f 4a 3b 81 20 ad 3e
       -0.010516183 -0.055571403 0.003086995 0.3381386
000060 cc 2a 47 3e 0a eb dc 3d 35 ba 69 be ba 99 c8 bc
       0.1944992 0.10787018 -0.22824939 -0.024487365
000070 df db b4 3d 8d 69 46 3e de ad b0 3e 80 57 4b be
       0.088309996 0.19376202 0.3450765 -0.19857597
000080 bf 4c 3b 3d 5c b0 9b 3d 9f ad 03 be e1 da 97 be
       0.045727488 0.07601997 -0.128592 -0.2965918
000090 9d 4f 5d be 1f ea 19 be 91 fe 63 be 1b e9 67 3e
       -0.21612401 -0.15030716 -0.22265078 0.22647516
0000a0 f0 fc 1c be 56 03 74 be 4e f1 24 3e d2 74 1c bc
       -0.15330863 -0.23829398 0.16107675 -0.0095493365
0000b0 9d 8f 16 be fd fc 87 3d b3 5c fc bc 47 38 18 3e
       -0.14703222 0.066400506 -0.030805921 0.14865218
0000c0 3c 9d 94 bd 03 c2 76 be 0d be 74 3e cb be c3 3d
       -0.072565526 -0.24097447 0.23900624 0.09557875
0000d0 d6 10 81 be 48 d6 8b be 86 cf ed bd c0 04 a1 3a
       -0.25208157 -0.2731192 -0.116118476 0.0012284741
0000e0 75 77 16 3e a9 81 09 be 9d e7 b4 3c eb a1 2d be
       0.14694007 -0.13428368 0.022083098 -0.16956298
0000f0 a5 e7 8d be 0b 3b a0 be 6e c5 a1 bd 63 75 d2 bd
       -0.27715793 -0.31295046 -0.07898985 -0.10276296
000100 4d 14 25 bd 08 91 58 be 7a da a5 3d ef af 52 3e
       -0.040302563 -0.21149075 0.08098312 0.20574926
000110 84 47 5b be 54 05 ef bd 35 11 9b 3d 02 6c fb 3d
       -0.21414 -0.11670938 0.07571641 0.1227646
000120 0c 0b f6 bc c8 2b 04 bd 7d 5f 69 3e 70 6e 29 3e
       -0.030034564 -0.032268316 0.22790332 0.16546035
000130 95 db b1 bd 87 f5 db bd 5e b4 42 3d 8c 50 47 3e
       -0.0868446 -0.1074019 0.047535293 0.1946432
000140 18 ac 5c be bd e3 1a 3e 7b 85 fd bd 08 33 14 bc
       -0.21550024 0.15125938 -0.12378975 -0.00904537
000150 21 5f 5a be 63 fc 39 bd f8 75 9a 3d 21 75 da 3d
       -0.21325351 -0.04540671 0.07542032 0.10666872
000160 36 41 30 3e c8 bb 27 3e 2f 61 db 3d 7a 99 02 be
       0.17212376 0.16380227 0.10711896 -0.12753859
000170 b2 5d b0 bd 32 3f 24 3e 66 0c df 3d 1e 47 c2 3c
       -0.08611621 0.16039732 0.10891037 0.023715552
000180 a5 2c 3f 3d 94 fb 3a 3e d0 ee 14 be da c7 04 3e
       0.046673436 0.18260032 -0.14544225 0.12966862
000190 7e 23 8b be 93 38 76 bd 2c 71 29 3e d9 3b 81 bd
       -0.27175516 -0.060112547 0.16547078 -0.06310243
0001a0 a5 2c 52 be 65 cd 75 3b 7b f9 c5 3d fb 6e 4b be
       -0.20524843 0.0037506458 0.09666725 -0.19866554
0001b0 3c b0 0f 3e 99 54 aa bd 6a 74 9c 3d d3 af 14 3e
       0.14032072 -0.08316917 0.07639392 0.14520197
0001c0 af a2 eb bd e9 5d 00 bd a7 0f 85 be 12 5b c0 3d
       -0.11505639 -0.03133956 -0.25988504 0.0939237
0001d0 4c cf 18 3e af 8d 6a 3e 8c 13 0b be 3c 82 b5 3d
       0.14922827 0.2290561 -0.13581675 0.08862731
0001e0 07 b9 e1 bd 5e f1 f2 bd 04 1f a1 3d 1c 91 2b 3e
       -0.11021619 -0.118624434 0.07867244 0.16754574
0001f0 00 1a b0 3d a5 35 1f be da 4c ab 3d e0 2a 50 3e
       0.08598709 -0.15547808 0.08364268 0.20328856
000200 6b b7 2a be cd 7c fa 3d 07 f3 35 bd 42 5a ac 3d
       -0.16671531 0.12230835 -0.044421222 0.08415653
000210 74 3a 0f 3e 13 ee 94 be 88 b3 f9 bd 09 9b 88 3e
       0.13987142 -0.29087886 -0.12192446 0.26680782
000220 5f bd 6b 3c 4d 7e f9 3c 70 97 75 3d 89 ca ba be
       0.014388411 0.030455733 0.059958875 -0.36482647
000230 1f 2f 47 3e 09 54 2a 3e 2f ea 38 be ae 4c a4 3d
       0.19451569 0.1663362 -0.18058084 0.08022438
000240 0e 6d cd 3d 4e b7 3c 3e 23 83 ce 3d 43 1f 1d be
       0.10030566 0.184293 0.10083606 -0.15343957
000250 c5 e2 92 be e9 c2 9e bd 4b 0b 65 3d 55 6a 11 bd
       -0.28688636 -0.0775202 0.055918973 -0.035501797
000260 47 a3 15 be d4 5e 40 3e 74 7e 77 3e d8 04 88 bd
       -0.14613067 0.18786174 0.24169332 -0.06641549
000270 8a 67 9c 3e bf e2 d7 3e 5d 21 70 be dd 54 9c 3c
       0.30547744 0.4216518 -0.23450227 0.019083435
000280 38 ac 4f be 61 e7 2f 3d ec b0 9e bd 32 a5 53 be
       -0.2028054 0.04294527 -0.07748589 -0.20668486
000290 0b f1 f4 3d ea ca d4 bd 94 a7 37 be dc 14 aa 3d
       0.11960038 -0.10390265 -0.1793502 0.0830476
0002a0 4d 23 71 3d 51 90 97 bd 8c d5 b3 3e 74 0a 8d 3e
       0.058871556 -0.07400573 0.3512386 0.27547038
0002b0 d0 21 4c bd b9 69 c3 3e 15 f4 34 be 0d 9e 40 be
       -0.049836934 0.38166597 -0.17671235 -0.18810292
0002c0 12 d2 25 be 38 e8 5d 3e bb 89 a4 3e 78 af 4d bd
       -0.16193417 0.21670616 0.3213633 -0.05021617
0002d0 3d cf dc bc eb 5d 2d 3c 1a 58 39 3e c1 6e 98 bb
       -0.026954288 0.010581474 0.18100014 -0.004651875
0002e0 cf 38 4e be a9 e6 45 be 55 37 78 bd 6d b7 2d 3e
       -0.20138858 -0.19326271 -0.060599644 0.16964503
0002f0 13 ba 78 3e f1 34 98 3e 0c 1a bd 3d 78 91 36 3e
       0.24289732 0.2972789 0.09233484 0.1782893
000300 9a cc d4 3d 7d fb ee 3e 38 b1 81 ba f0 d6 0a be
       0.10390587 0.46676245 -0.0009894734 -0.13558555
000310 a3 04 33 3b ac 24 8d 3c 49 bf ea 3d 0a 46 c1 3d
       0.0027315996 0.0172294 0.11462266 0.09437187
000320 78 60 ae bc 02 83 6c 3d d3 33 b9 3c f8 0a 4c be
       -0.021286234 0.057742126 0.02260772 -0.19926059
000330 b7 1e 83 3e 5b 13 f9 bc a3 df 0c 3e e6 de d6 3d
       0.2560937 -0.030404737 0.13757186 0.10491733
000340 9c 5a 4f be e9 9c a2 3e 94 61 64 3e d2 7c 44 3e
       -0.20249408 0.31760338 0.22302848 0.1918824
000350 a8 02 26 be b0 5e 5e 3e db 12 cf bd a4 2b c2 3d
       -0.16211951 0.21715808 -0.10111018 0.0948098
000360 a7 d9 9b be 44 c7 8a 3d 93 d1 15 3e 8e 2e 08 3b
       -0.30439493 0.06776288 0.14630727 0.0020779702
000370 5e 21 0d be f6 67 2f 3e 3e d1 fb 3d 2c ed 2b be
       -0.1378226 0.17129502 0.12295769 -0.16789693
000380 d2 5c 8b 3d 8c 16 e9 bd ef b3 41 be a5 72 24 be
       0.068048134 -0.113812536 -0.18916295 -0.16059358
000390 2d ca 87 bd 30 83 8f 3e 02 35 43 3d eb 0c 59 3c
       -0.06630359 0.28029776 0.047657974 0.013247709
0003a0 e4 fc f9 3d b3 7b 3c be 34 03 1a 3e f4 3f ae 3d
       0.12206438 -0.18406563 0.15040284 0.08508292
0003b0 d1 47 cf bd 8e 56 c8 bd b0 1a 99 bc 44 e8 2c be
       -0.1012112 -0.09782134 -0.018689483 -0.16885477
0003c0 0a f9 37 be 09 7f ab bd 37 96 37 3e dd d4 5e 3e
       -0.17966095 -0.083738394 0.17928396 0.21760888
0003d0 c6 eb af 3e 2d d8 ae bd 44 5a 84 3e 95 3e ee 3c
       0.34359568 -0.08537326 0.25850117 0.029082576
0003e0 37 75 1f be a0 63 56 3e 3e 44 22 3e 99 aa d0 bc
       -0.15572058 0.20936441 0.15846345 -0.025471972
0003f0 c4 3b 69 be b8 3b 3d be 59 33 aa be 21 21 80 bd
       -0.22776705 -0.18479812 -0.332423 -0.06256319

cnns.0.bias f4 [32]
000000 a3 44 00 3e a6 ec c1 bd dd 0d 21 3e 49 63 07 3e
       0.12526183 -0.09468965 0.15727945 0.13221468
000010 db 13 57 3c 1c 1e 9d bd e4 5f b4 bd 5f 2e 2b 3d
       0.0131272925 -0.076717585 -0.08807352 0.04179227
000020 f1 51 29 be 4c 9e 2c be 84 4c 24 bd 5d aa b7 bd
       -0.16535164 -0.1685726 -0.040112033 -0.08968041
000030 6c ad 82 be bb be f5 bd 44 5b 2d 3e 74 22 df bd
       -0.25522935 -0.119992696 0.16929346 -0.10895243
000040 91 2f cd 3d a8 6b 9e bb fc 94 7a bc e9 98 3c bb
       0.10018838 -0.004834611 -0.01529431 -0.0028777665
000050 57 04 8a 3d 52 0e af 3c 82 86 0e be 3a 43 19 be
       0.06739109 0.021369133 -0.13918498 -0.14967051
000060 ec 6a 5d be 7d c1 4d 3d d0 27 db 3d b1 e8 c7 bc
       -0.21622819 0.050233353 0.10700953 -0.024402948
000070 e7 01 e1 3c 08 2d 06 be 35 07 8e bd 97 10 2e bd
       0.027466727 -0.13103116 -0.069349684 -0.04249629

cnns.2.weight f4 [64, 32, 3, 3]
000000 7a 06 23 bd 47 6b db bc 2f ae 19 bd 51 68 e0 bc
       -0.0398011 -0.026784552 -0.03751963 -0.027393492
000010 b2 d1 a2 3c 11 25 07 bd 23 86 33 bd 89 6c 19 3d
       0.019875381 -0.032994334 -0.043829095 0.037457023
000020 ac 33 64 bd 55 f6 c8 bb cd 89 01 bd ff 26 2d bd
       -0.05571334 -0.0061328807 -0.031625558 -0.042273518
000030 42 ea bc bc f4 b6 44 bd f1 68 44 3c c5 3b ab 3a
       -0.023060922 -0.04802604 0.011987911 0.0013064077
000040 1e 27 94 bd 18 bb 43 ba 5c 3e bc 3c be ea 82 bc
       -0.072340235 -0.0007466539 0.022978954 -0.015981074
000050 f8 25 46 bc c2 e8 b9 3c 17 26 09 bd 07 f4 eb 3c
       -0.012094013 0.022693995 -0.03348359 0.028802885
000060 dd 9e 4a bd 48 73 ee bb 22 fc cd bc 59 c3 30 3d
       -0.04946791 -0.007276926 -0.02514464 0.043155048
000070 eb ea f4 bc e0 f3 40 bd 3b 74 68 bb f8 18 f5 3c
       -0.029897174 -0.047107577 -0.003546967 0.029919133
000080 de 90 68 bd af 11 9a 3c 06 bf 4a bd 45 51 97 bb
       -0.05677878 0.01880726 -0.04949858 -0.0046178424
000090 df c2 79 bd 22 e3 3e bc 7c c5 1f bd 97 6e f6 3c
       -0.06097686 -0.011650832 -0.039006695 0.03008203
0000a0 31 b0 8e bc 3b 5e 2e 3d c4 3b 60 3b 44 05 5f bd
       -0.017417999 0.042570334 0.003421531 -0.05444838
0000b0 a4 16 f6 bb 9e ec 0d bd 6b 61 78 bd 50 5d 0a 3b
       -0.007510023 -0.034649484 -0.06063978 0.0021112747
0000c0 27 37 6b 3c 01 5d d6 3a 9a de 07 3d b3 33 4e bd
       0.014356411 0.0016354622 0.033171274 -0.050342273
0000d0 0f 71 fd 3c 68 6e c9 3c a7 41 69 bd e5 c3 53 bc
       0.0309377 0.024588779 -0.056947377 -0.012925123
0000e0 f9 f2 a5 3c c6 3b 12 3d ee 52 96 bd c9 10 2e bd
       0.02025746 0.035701536 -0.07340036 -0.042496476
0000f0 b5 91 71 3c b0 e5 72 3b e1 67 ad bb e8 f9 3e 3c
       0.014744212 0.0037063174 -0.0052919243 0.011656262
000100 73 d4 86 bd d5 fe 49 bb 79 fd 86 bd 96 e5 98 bd
       -0.0658349 -0.0030822058 -0.06591315 -0.07465665
000110 ae 2b 33 bd 17 94 be ba d6 5e 7c 3c 5b 06 1b 3b
       -0.043742828 -0.0014539984 0.01540347 0.0023654911
000120 c2 ba dd 3c 40 6c 0e 3d c6 17 0d bd c6 2d 0f bd
       0.027066592 0.034771204 -0.0344465 -0.034955762
000130 14 af 14 3d 78 34 c0 3b 80 84 37 bd 41 c5 11 3d
       0.03629978 0.0058656298 -0.044804096 0.035588507
000140 1b 5f f4 bc d8 fe 99 bb b6 85 11 bd 66 89 87 bc
       -0.029830506 -0.004699569 -0.035527907 -0.016545009
000150 e5 cf 94 3c cb 2b 55 3c 0d ca ce 3c 38 24 f0 bc
       0.018165538 0.013010929 0.02524283 -0.029314145
000160 25 26 d5 bc e5 6d ec 3c b9 53 47 3d 1d a6 d0 3c
       -0.026019165 0.028860996 0.04866383 0.025469834
000170 00 c9 15 bc 5a 69 41 3c 5d 8c 08 3b 9a db c5 3c
       -0.00914216 0.011804903 0.0020835616 0.024152566
000180 0a f8 66 3d 07 81 14 bc 4d b3 47 bc b8 f2 85 bc
       0.056388892 -0.009063966 -0.012188745 -0.016351089
000190 69 d5 0d 3b e6 b6 20 3c c6 c4 2d 3d d6 ee 64 bd
       0.0021642095 0.009809231 0.042423986 -0.055891834
0001a0 fb 24 2e bd 33 91 35 3d b3 2c 74 bd 24 f2 18 bd
       -0.042515736 0.044327926 -0.05961294 -0.0373403
0001b0 b7 09 6f 3d 5b 1e 69 3c 4c b5 8f bc ec bb 37 3c
       0.058358874 0.014228429 -0.017542504 0.011214238
0001c0 0c 1f 6a bd 95 49 fb 3a 40 f4 c3 3b 19 e8 4d 3c
       -0.057158515 0.001917171 0.0059800446 0.012567543
0001d0 b2 64 98 bc b6 7d 36 bd 1a 06 bc bc e8 db 8a 3a
       -0.018602703 -0.04455348 -0.022952128 0.0010594102
0001e0 58 f1 61 bc 42 1b 93 bc a9 bf 5f bd ed 23 eb ba
       -0.013790451 -0.017957333 -0.05462614 -0.0017939784
0001f0 e6 2e ee bc 53 1a 9c 3c 5d 2c 84 ba 3b f1 9c 3c
       -0.029075097 0.019055521 -0.0010084022 0.019157996
000200 0a b0 45 bb 7e 88 10 3d 52 33 89 bd 90 df 70 bc
       -0.0030164742 0.03528642 -0.06699242 -0.014701739
000210 de e9 c5 3b ca 42 22 bd c0 40 2e 3b 63 38 7c bd
       0.006039842 -0.039614476 0.0026588887 -0.061577212
000220 f4 2d d8 bb d9 4e 9f 3c ca e6 9a b8 60 c7 30 bd
       -0.006597275 0.019446777 -7.38628e-05 -0.04315889
000230 d4 4d ec 3c 1e 79 8c bc 9d 0d 53 bd c6 b7 86 bd
       0.028845705 -0.017147597 -0.051526655 -0.06578021
000240 08 4c e7 bb c0 ab cd 3c 46 48 2c bc a9 ec 29 3d
       -0.007058624 0.02510631 -0.010515278 0.041485462
000250 bf a6 11 3c b6 d3 2d 3d 19 53 54 bd 85 28 88 3b
       0.008889853 0.04243823 -0.05183706 0.004155221
000260 e5 59 7a bd de 5a b6 bb a9 9f ad 3c 5b 71 16 3d
       -0.061120886 -0.0055650314 0.021194296 0.036729198
000270 4c 29 24 bd a4 16 1b 3d e9 c2 60 bd 7b a5 87 bd
       -0.040078446 0.03786339 -0.05487338 -0.0662336
000280 e0 e0 84 bd f5 a5 2a 3d c1 dc 4b 3d 8f 8f 00 bc
       -0.06488204 0.041662175 0.049771074 -0.007846727
000290 f8 71 67 3c 0f ae 23 bb 3b 4a e8 bc 40 c0 bf ba
       0.014126293 -0.0024975573 -0.028355708 -0.0014629439
0002a0 d6 58 66 3c e3 b2 12 3d 19 d8 39 bd 3b 30 56 bd
       0.014059266 0.03581513 -0.045372102 -0.05229209
0002b0 24 b0 99 3c 53 ab 5a bd d4 c2 e8 3a 22 12 fb 3c
       0.018760748 -0.053386044 0.0017758259 0.030648295
0002c0 a9 50 86 3c 85 db 0f bc 6b fe 0a bd 45 92 8f bb
       0.016395884 -0.008780365 -0.033934038 -0.0043814504
0002d0 f2 d6 1c 3d 31 d0 3e bd cb e0 2c 3d 9d d5 c8 3c
       0.038290925 -0.046585266 0.042206567 0.024515921
0002e0 be ed 0a 3c b7 d5 1f 3d 44 79 27 3d c0 a5 33 bc
       0.008479534 0.039022174 0.040887132 -0.010964811
0002f0 20 b9 e1 3c 78 fc c4 3b 8b 02 6e 3d 93 5d 42 3d
       0.027554095 0.006011542 0.058107894 0.04745252
000300 ae 0a bc 3c c3 0c f1 3c 8a 03 6d bd d9 70 54 3d
       0.022954311 0.02942503 -0.057864703 0.051865432
000310 f4 81 8e 3c 2c 14 7c 3c 3c 60 53 bd c2 11 24 bc
       0.01739595 0.015385669 -0.051605448 -0.010013999
000320 f3 c9 23 3d 7e 80 15 3d 75 3d 0c bd f0 3a 30 bd
       0.039987516 0.036499493 -0.034238297 -0.043024957
000330 6c a0 05 3d 31 14 8f 3c 6b e3 a1 b9 d3 88 cd 3b
       0.032623693 0.017465683 -0.00030877753 0.0062724142
000340 10 1a 94 bc ee 24 4d 3d a2 3a e5 3c e4 1f 98 bc
       -0.018078834 0.050084047 0.02798206 -0.018569894
000350 4e d1 44 bd e4 93 0a bc 34 3b 57 3c cf f6 30 3d
       -0.04805117 -0.008458111 0.013136674 0.043204125
000360 5f d2 58 bd ae 24 64 bd e2 9d 2d bd b5 a2 6a 3d
       -0.052935 -0.055699043 -0.042386897 0.057284076
000370 c9 4a 2e 3d fe 38 f9 3c c9 af 02 3d c8 66 ab 3b
       0.04255179 0.030422684 0.031905923 0.0052307583
000380 7e d1 e0 3c 5b a8 0d 3d 61 06 0f bd e1 c7 f9 bb
       0.027443644 0.034584384 -0.034918193 -0.0076227044
000390 57 6c dc bc 5c f4 ef 3c 15 f9 62 bd 95 0f 23 bd
       -0.02690713 0.029291324 -0.055413324 -0.039809782
0003a0 5f f0 3b bd 5b 69 59 bd ac 85 c2 3c c8 3a a3 3c
       -0.045883533 -0.05307899 0.02374538 0.01992549
0003b0 93 0c dd bc 7c c3 12 3c a9 f7 b9 3c fc ce 51 bb
       -0.026983535 0.00895774 0.022701101 -0.0032014241
0003c0 ea 0f 8f bc 21 46 39 bc a6 93 32 bd a8 a5 7a bd
       -0.017463643 -0.011308224 -0.04359784 -0.06119314
0003d0 98 cc a7 bc 9d 54 a8 3c 62 9a 49 bd ab 06 da 3c
       -0.0204833 0.02054816 -0.049219497 0.026614508
0003e0 1e 3e 71 bd 26 68 aa bc 57 53 81 3b 02 e5 79 bd
       -0.05889713 -0.020801615 0.0039467025 -0.061009414
0003f0 56 01 11 bd f9 42 ba 3b 56 32 c1 3c 71 56 89 bd
       -0.035401665 0.0056842533 0.023583572 -0.067059405

cnns.2.bias f4 [64]
000000 fc 2e 94 bd 87 c3 9f bd 6c a0 85 3b 74 c8 92 bd
       -0.07235524 -0.07800966 0.0040779617 -0.0716714
000010 65 a1 8d bc 20 6f 28 3d df 7a 90 3b 5f b5 f8 bd
       -0.017288873 0.041121602 0.0044091786 -0.12143969
000020 bf 77 fd ba cd d5 0b bd 35 83 8c bc 92 76 dc bd
       -0.0019338055 -0.034139443 -0.017152408 -0.10764803
000030 72 08 89 3c 9b 10 82 bd b4 10 be bd 47 54 7e bc
       0.01672766 -0.063508235 -0.092805296 -0.015523023
000040 21 ba 39 3d 96 08 07 3c 2e e8 39 3d 2a 1e 1c bd
       0.045343522 0.008241793 0.04538744 -0.038114704
000050 1d a3 4d bd 91 36 73 bd 35 c9 a4 3a e8 26 75 bd
       -0.050204385 -0.05937821 0.0012572171 -0.059851557
000060 41 b0 1c 3d ce dd 98 bc ed c1 bf bd 41 31 25 bd
       0.038254026 -0.018660452 -0.0936316 -0.040330175
000070 eb 44 9d bd 3d 63 04 bd 2e 63 8c bd fd 4a 9e 3b
       -0.07679161 -0.032321204 -0.068548545 0.0048307166
000080 10 e9 25 bd 17 f5 b9 bd ae 4f 72 bc 94 55 e8 3c
       -0.04050547 -0.0907995 -0.014789505 0.02836112
000090 b5 47 84 bc 09 40 ea bc d6 7b a5 bd 75 ba 47 3c
       -0.016147474 -0.028594987 -0.080802605 0.012190451
0000a0 ba fc 13 bd e9 8e ce bc b4 ea 93 bd bf 0a 48 bd
       -0.03612969 -0.02521463 -0.072225004 -0.048838373
0000b0 c8 26 43 bd 3c 94 6b bb e3 e1 a1 bd 71 6b e4 b9
       -0.047644407 -0.003594651 -0.079044126 -0.000435676
0000c0 e7 67 99 bd 57 a2 4f bd a3 f7 b0 bc 85 ec 7c bd
       -0.07490521 -0.05069193 -0.021602457 -0.061749
0000d0 53 f0 40 bd b9 1f 80 3d c4 98 c4 bc e1 01 0b bd
       -0.04710419 0.062560506 -0.023998626 -0.03393734
0000e0 21 f5 a4 bd 35 81 16 bd 83 20 39 bd 0a f4 82 bd
       -0.08054567 -0.036744315 -0.04519702 -0.06394203
0000f0 76 e7 fa bd f6 d0 d1 bd e3 a2 04 bd 3b 91 b9 bc
       -0.12251179 -0.10244934 -0.032381903 -0.02265226

linear.0.weight f4 [16, 3328]
000000 2a 0a 38 3c 3a c4 46 3c 38 99 c4 3b ea 8d 63 bc
       0.011232892 0.012131745 0.0059997104 -0.013888815
000010 2c 76 5a 3c 6c 7a 31 bb 12 3b 40 bc d8 49 35 3c
       0.013333838 -0.0027081026 -0.011732833 0.011064969
000020 00 72 5e 38 ac 40 1f bc f0 a3 28 3c f4 99 b8 3b
       5.3035095e-05 -0.009720009 0.010292992 0.005633587
000030 78 09 04 3c 66 57 64 bc 4a 19 0b 3c 02 5f 6b 3c
       0.008058898 -0.013936853 0.008489916 0.014365913
000040 eb 0d 84 3c cc 9b c7 bb 69 ea 63 bc 80 db f5 3a
       0.016119918 -0.0060915705 -0.013910868 0.0018757433
000050 88 ad 64 bc 8e 2c 93 bb fc 89 42 bb 18 fa c4 bb
       -0.013957389 -0.0044913953 -0.0029684296 -0.006011259
000060 d6 6b 6b 3c 58 fd c3 bb 90 a3 d5 ba 8c 94 3f bc
       0.014368972 -0.0059811287 -0.0016299356 -0.011693131
000070 3c 47 6a bc 00 35 25 3b ce 87 4f 3c ae 50 6a 3c
       -0.01429921 0.0025208592 0.012666656 0.014301462
000080 5c 47 0f bc 2a 64 39 3c 22 9d 65 3c 98 d6 ac bb
       -0.008745041 0.011315385 0.014014514 -0.005274605
000090 4e 17 55 bc e0 cb bb 3a 49 3f 88 bc 84 67 2a bc
       -0.013006045 0.0014327727 -0.01663174 -0.010400657
0000a0 10 2e 3e 3b 51 40 54 bc 20 da e7 3a 87 4d 8b bc
       0.0029019155 -0.012954787 0.0017688908 -0.017004741
0000b0 74 83 c4 3b de 6b 32 3c db b5 8b 3c 5d 14 89 3c
       0.0059971157 0.010889975 0.017054489 0.016733343
0000c0 96 84 6f 3c 96 5b e8 bb fe c4 2c bc b4 bb 5b bb
       0.014619013 -0.007090996 -0.0105450135 -0.0033528628
0000d0 70 37 e4 bb 3e 59 c6 bb 52 8c be bc a7 e6 10 3c
       -0.0069646165 -0.006053119 -0.02326027 0.008844054
0000e0 a0 43 2d 3c 02 10 bc bc d9 b3 e0 39 01 53 07 bc
       0.010575205 -0.022956852 0.00042858606 -0.008259536
0000f0 8d 2f ed 3b bc dc 09 3c 7d 2e 98 3a 3f 76 c1 3b
       0.0072383345 0.008414444 0.0011610534 0.0059039886
000100 21 0f 24 bc be ea 3a 3c 54 c4 b9 bc 6e 0c 31 3c
       -0.010013373 0.011408506 -0.022676624 0.010806186
000110 33 3a 03 bb e6 fd 52 bc 2e c9 d5 bb 31 5d 15 bc
       -0.0020023703 -0.012877917 -0.0065242266 -0.009116457
000120 16 9b 12 3c ac fb 28 bb a1 ea 00 3c a3 4b 4e b8
       0.008948108 -0.0025784774 0.00786844 -4.918467e-05
000130 99 81 84 bc be a1 bb bc ae 2f 29 bc 82 19 53 bc
       -0.016175078 -0.022904273 -0.010326309 -0.0128844995
000140 8f f4 89 bc 22 10 d4 3b 60 80 0d 3c d2 fa 11 3b
       -0.016840247 0.0064716497 0.008636564 0.0022274745
000150 a2 54 b0 ba 2f a4 b2 bc 20 89 09 bc 4f f7 0b 3c
       -0.0013452957 -0.021806804 -0.00839451 0.00854285
000160 ff 0b 92 bc 71 64 b3 bc e2 37 31 3c 10 bd 7b bc
       -0.017827986 -0.02189848 0.010816546 -0.0153649
000170 db cd 36 bc d3 ef 81 bc 06 ec 87 3b f7 ff b9 bb
       -0.011157478 -0.015861427 0.0041480092 -0.0056762653
000180 83 5b c5 3b 56 d8 98 bc 9e 9f aa bc e9 fa cc 3b
       0.006022872 -0.018657845 -0.020828065 0.0062554968
000190 ba 87 b5 3b 68 7e a7 bb 98 1d a2 bc 0e f3 00 3c
       0.0055398615 -0.0051115043 -0.019789502 0.007870449
0001a0 3a f2 44 bc ea c0 32 bc 3f 10 37 3a 4d 41 3c bc
       -0.012020642 -0.010910252 0.0006983317 -0.011490178
0001b0 f2 56 32 3c c7 6c a8 bc 8a d2 be bc 1f e0 37 3b
       0.010884987 -0.020559682 -0.023293752 0.002805717
0001c0 fc ff 57 bc eb 2f 11 bc 42 69 36 3c 11 92 78 bc
       -0.01318359 -0.008861522 0.011133494 -0.015171544
0001d0 95 45 85 bc 16 70 a0 ba d5 b3 83 3b f3 17 2f 3c
       -0.01626853 -0.0012240435 0.0040192404 0.010686862
0001e0 a0 e7 ba 3b bc a5 28 3c 66 b7 86 bc e0 57 5c bc
       0.0057038814 0.01029342 -0.016444873 -0.013448685
0001f0 3e e9 90 bc ff ba 2b 3c d2 a7 ce 3b 94 38 7a bb
       -0.017689344 0.010481595 0.006306627 -0.0038180696
000200 fb 23 90 bc a8 ce 04 bc 68 ec 63 bc 59 b6 fc 3b
       -0.017595282 -0.008105911 -0.013911344 0.007712167
000210 a2 21 65 3b 2c 78 ec 3b 80 ea 04 3c a9 da 3b bc
       0.0034962674 0.007216474 0.00811255 -0.011465707
000220 3c e1 5d bc cd 10 ba bb 36 5d 9c 3b e0 a1 bf bb
       -0.01354247 -0.0056782723 0.004771854 -0.0058481544
000230 42 70 e1 bb 93 1f 02 bc a0 c9 66 ba ee 3b 9a bc
       -0.0068798373 -0.007942098 -0.0008803848 -0.018827405
000240 6b a0 05 3c 3c 46 fb 3b d0 8c ca 3b 7e 86 43 bc
       0.008155922 0.0076682847 0.006181337 -0.011933921
000250 ef 5d 31 3c bf 5e 8a bc 0a 46 14 3a b3 f2 e7 3b
       0.010825618 -0.016890882 0.00056561886 0.0070784925
000260 21 ff 82 3c 78 78 09 3c 69 c8 bc bc 5c 29 a9 3b
       0.015990796 0.008390538 -0.023044782 0.005162401
000270 be b2 bc 3a c8 07 2c bc f0 ac 2f bb 4f 90 e5 3a
       0.0014396531 -0.010499902 -0.002680596 0.0017514321
000280 50 e9 91 bc 09 a6 89 bc 8b 74 8d 3b a5 45 e1 3b
       -0.017811447 -0.016802805 0.0043168715 0.0068747574
000290 b6 d8 78 bc a9 82 8b 3c 86 1a ae bb 70 cd 6d bc
       -0.015188387 0.017030077 -0.0053132204 -0.014514312
0002a0 50 e6 d1 ba 88 fc 19 bb d6 c4 7c 3c 33 02 43 bc
       -0.0016014073 -0.0023496468 0.015427789 -0.01190238
0002b0 7f 9a dd 3a f4 ff 6e bc d3 eb 08 bc 7c 04 b3 bc
       0.0016907005 -0.014587391 -0.008357006 -0.021852724
0002c0 0e 42 3c 3c 4e 7d 68 3c 89 4f c5 3b cc 6c 33 3c
       0.011490358 0.014190031 0.006021444 0.010951232
0002d0 9d 96 68 bc d6 ef 73 3c 27 43 17 bc d5 1a 92 bc
       -0.014196065 0.014888724 -0.009232319 -0.01783506
0002e0 92 75 e3 3b 25 3d 86 bb 5d 92 66 bb c6 35 22 3b
       0.0069415057 -0.0040966445 -0.0035182454 0.002475129
0002f0 51 f4 a4 b9 20 06 9a 3b 9c 50 13 bb c3 f8 8c 3b
       -0.00031462547 0.004700437 -0.0022478467 0.0043021156
000300 4a 37 87 bc 3a a3 8a bc a0 2c ba ba 04 9e b2 bb
       -0.016505856 -0.016923536 -0.0014203973 -0.005450966
000310 1c b1 22 bc d9 8b 68 bc 5a 18 1c bc aa 5f 53 bc
       -0.0099299215 -0.0141934985 -0.00952729 -0.012901226
000320 0a 13 6d bc e4 1b 01 bc 40 2f 73 ba 08 64 03 3c
       -0.014469871 -0.007880185 -0.0009276755 0.008019455
000330 c7 e7 17 bc b3 fa f9 bb 2c c4 1d bb 98 d6 6e 3b
       -0.009271569 -0.0076287626 -0.0024073226 0.0036443826
000340 8c e1 ca bb 06 e1 bc bb 4c 4b 00 3c 48 1c db 3b
       -0.006191438 -0.0057641296 0.007830452 0.006686721
000350 4b 0d 67 bc d0 a5 c6 bb b4 88 84 bc c7 18 ac bc
       -0.01410229 -0.006062247 -0.016178466 -0.021007909
000360 1e 11 41 bb ab 7e eb 3b dd d1 06 bb 78 e7 db 3b
       -0.0029459666 0.007186731 -0.0020571866 0.006710943
000370 46 fd b3 bc fe e8 91 bb 08 ae 3e bc 32 30 6c bc
       -0.021971356 -0.0044528237 -0.011638172 -0.0144157875
000380 34 cb e8 3b e8 d4 dc 3b 17 56 90 bc 00 82 1e 39
       0.007104302 0.0067392476 -0.017619176 0.00015116483
000390 c4 79 fd bb 2a 83 bc bc 04 14 a6 bb d1 b9 fd 3b
       -0.007735463 -0.023011763 -0.005068304 0.0077430983
0003a0 0e e2 80 bc 4c 5e 23 3c 4c ad f7 bb 0c bb 51 bc
       -0.015732791 0.009971213 -0.0075585004 -0.012800943
0003b0 a0 5e 34 bc a7 cb 08 bc 80 29 45 3b 73 51 66 bc
       -0.0110088885 -0.008349336 0.003008455 -0.014057505
0003c0 1c 2c d4 bb 80 fc 03 ba 70 e2 23 3c 4e aa 44 bc
       -0.006474985 -0.0005034879 0.010002717 -0.012003494
0003d0 b7 c2 57 bb 73 4f 8f bb ca cc 2d bc 86 23 96 3b
       -0.0032922456 -0.0043734848 -0.010607908 0.0045818714
0003e0 77 0c 8a 3c 40 38 30 3b 4c 33 0d 3c dc b0 04 3c
       0.016851647 0.0026888996 0.008618187 0.008098807
0003f0 9a 98 7d 3c a0 bb 30 3b 90 a1 08 bb 7a 0c 66 3c
       0.015478278 0.0026967302 -0.0020848252 0.014041061

linear.0.bias f4 [16]
000000 97 09 73 ba 7e ae 0b 3c 9c 52 69 bc 7f fe c7 bc
       -0.00092711434 0.008525489 -0.014240887 -0.024413345
000010 44 d5 91 3b 4f 13 6a ba 3b 0f 22 bc 94 e4 ee bb
       0.004450472 -0.0008929269 -0.009891327 -0.007290432
000020 6f 4f 48 b9 4c 94 3c bc 10 9a af bc da 29 76 3d
       -0.00019103078 -0.011509966 -0.021435767 0.060098507
000030 6a f9 ab bc 16 da 3b bc 28 ad 29 bc c9 9c 9f bc
       -0.020992953 -0.01146557 -0.010356225 -0.01948394

linear.2.weight f4 [1, 16]
000000 19 8c 4d be b4 b0 44 bd e5 fb 96 3d 64 9b bb bd
       -0.20072974 -0.04802008 0.07372264 -0.09160498
000010 8e 1a 4f 3e ef ea 1a 3e 92 b0 9f bd e6 05 e3 3c
       0.20224974 0.15128683 -0.0779735 0.027712774
000020 45 29 ca 3d 9b 48 af bc 73 c7 9b bd f6 f4 92 be
       0.09871153 -0.021396926 -0.07606401 -0.28702515
000030 de a7 3c be 8f 86 a4 3c 77 75 20 be a0 f0 fd bd
       -0.18423411 0.020083694 -0.1566981 -0.12399411
