models/trainingmodels/startq.pth (torch, 337595 bytes, 12 tensors)

linear_relu_stack.0.weight f4 [64, 104]
0	0xbdba37d1	-0.090926774
1	0x3db2a0a1	0.08722044
2	0x3d40c09a	0.04705868
3	0xbd850a71	-0.06496132
4	0x3d93d919	0.072191425
5	0xbda8c7a0	-0.082412004
6	0x3d80cac7	0.06288677
7	0xbced0154	-0.028931297
8	0xbc81a708	-0.015826717
9	0xbd4accfe	-0.049511902
10	0xbdbf541d	-0.09342215
11	0xbd6cdda3	-0.057828557
12	0x3c1dbdf0	0.009627804
13	0x3d811ab1	0.06303919
14	0x3d88b285	0.06674675
15	0xbc3c4818	-0.011491798
16	0xbda5a95c	-0.08088943
17	0x3d3a91d2	0.04554922
18	0x3d30d67a	0.04317329
19	0xbbb88280	-0.005630791
20	0x3d125eb2	0.03573484
21	0xbc5a91d8	-0.013340436
22	0xbcf2bf6c	-0.029632293
23	0x3d8475b5	0.06467763
24	0x3db5f3ab	0.088843666
25	0xbd9b3dca	-0.07580145
26	0xbbfe3d40	-0.0077587664
27	0xbca45d24	-0.020063944
28	0x3da39179	0.07986731
29	0x3db4b149	0.08822877
30	0x3dbebd4b	0.093134485
31	0x3d2489e6	0.040170573
32	0xbd41caf2	-0.047312684
33	0x3b34b080	0.0027571023
34	0x3dac260b	0.084056936
35	0xbdb18bfe	-0.086692795
36	0xbd449fcb	-0.048003953
37	0x3dac8d77	0.0842542
38	0x3d02670a	0.031836547
39	0xbdbb4072	-0.09143151
40	0x3d196a56	0.037454925
41	0xbd11503e	-0.035476916
42	0xbc494058	-0.012283407
43	0x3c603ec8	0.013686843
44	0x3d82d44b	0.06388148
45	0xbd145006	-0.03620913
46	0xbdae30e0	-0.08505416
47	0xbc753210	-0.014965549
48	0xbdbe982d	-0.09306369
49	0xbd4faedd	-0.050703872
50	0x3db5dab5	0.08879606
51	0x3cfd03bc	0.03088557
52	0x3d793316	0.060839735
53	0x3d82237d	0.06354425
54	0xbd6f453f	-0.058415648
55	0xbc639490	-0.0138904005
56	0xbd08c834	-0.033394054
57	0xbc937228	-0.01799877
58	0x3da18cdd	0.07888196
59	0xbd49e3f5	-0.049289662
60	0xbce84688	-0.028353944
61	0xbd840a4c	-0.064472765
62	0x3ca298d0	0.019848257
63	0x3cad6714	0.021167316
64	0xbdb90b81	-0.09035397
65	0xbcc1a2b4	-0.023637153
66	0xbd883dea	-0.06652434
67	0x3bc2ce60	0.005945012
68	0x3bbee4b0	0.0058256015
69	0xbd3158c9	-0.043297563
70	0xbd9f6902	-0.077837005
71	0x3d177e9e	0.036985986
72	0x3c8f2f24	0.017478533
73	0xbcc56234	-0.024094678
74	0x3dbe5fe9	0.09295637
75	0xbd59a593	-0.05313642
76	0x3d9d6f5b	0.07687255
77	0x3c832d10	0.016012698
78	0xbbdfe380	-0.00683254
79	0x3cd67dc0	0.02618301
80	0x3d40869a	0.047003366
81	0xbd5f2cc9	-0.05448607
82	0xbc4f0120	-0.012634546
83	0x3dabb0af	0.08383309
84	0xbdc6b0ed	-0.09701715
85	0xbd16f35c	-0.03685318
86	0x3db1c465	0.086800374
87	0x3ca3e1a0	0.020005047
88	0xbd34254f	-0.043980893
89	0xbc8ebb30	-0.017423242
90	0xbc2510a8	-0.010074772
91	0xbd6f541a	-0.058429815
92	0xbccc2a38	-0.024922475
93	0x3d172c96	0.036907755
94	0x3c807268	0.015679553
95	0xbd6c33e9	-0.057666693
96	0x3db6788f	0.089097135
97	0x39c89400	0.0003825724
98	0x3db22235	0.08697931
99	0xbd4bd469	-0.049763117
100	0xbda0a5f2	-0.078441516
101	0x3c69fa20	0.014280826
102	0xbd95b2a0	-0.07309461
103	0xbda215ba	-0.079143
104	0xbc0a9790	-0.008458987
105	0xbd0341fa	-0.032045342
106	0xbd9795c3	-0.07401612
107	0xbd020dec	-0.03175156
108	0x3d6f49d6	0.058420025
109	0x3d8b3e55	0.06798998
110	0xbd3b8f81	-0.045791153
111	0xbd0cc32c	-0.034365818
112	0xbc1543c0	-0.009110391
113	0xbd290d34	-0.041272357
114	0x3d49e4e2	0.049290545
115	0x3cb62a48	0.022236958
116	0x3bdfcff0	0.006830208
117	0x3d70f6ca	0.058829106
118	0x3d4befbe	0.049789183
119	0x3d56e91e	0.05246841
120	0xbd6c89d3	-0.057748627
121	0xbda5d867	-0.08097916
122	0x3d0d3906	0.03447821
123	0xbd422780	-0.04740095
124	0xbd5b90e5	-0.05360498
125	0xbd1b05bb	-0.037847262
126	0xbb8a6d00	-0.0042244196
127	0xbd03ad94	-0.03214796
128	0x3d594606	0.053045295
129	0xbd828946	-0.06373839
130	0x3dc4cf7f	0.09609889
131	0xbad39940	-0.0016143695
132	0x3ce0971c	0.027415805
133	0xbb8038d0	-0.0039130226
134	0xbd20ab66	-0.03922596
135	0x3d7a0fee	0.061050348
136	0xbcdd8d1c	-0.027044825
137	0x3d42d54e	0.047566704
138	0x3dc1f6d7	0.09470909
139	0x3dc87521	0.097879656
140	0xbc3e26c8	-0.011605926
141	0xbdbc8cf3	-0.092065714
142	0x3cfbb5c4	0.030726321
143	0x3cdfc87c	0.027317278
144	0xbd27bf7d	-0.0409541
145	0xbd91be1f	-0.07116341
146	0x3d7c1872	0.06154675
147	0xbd806bf8	-0.062705934
148	0x3d25ba92	0.04046113
149	0xbc471400	-0.012150764
150	0xbcce7668	-0.025202945
151	0xbd621f22	-0.05520547
152	0xbd9c03e2	-0.07617928
153	0x3d2296f2	0.039694734
154	0xbdc692c7	-0.09695964
155	0x3d04e516	0.032445036
156	0x3db4078f	0.08790504
157	0xbd4ebf7e	-0.05047559
158	0x3d8300fd	0.06396673
159	0x3a05a280	0.0005097762
160	0x3cd4302c	0.025901876
161	0x3cb25848	0.021770611
162	0xbd49e852	-0.049293824
163	0xbd9a54fc	-0.07535741
164	0xbc834bc0	-0.016027331
165	0xbc43f5f8	-0.011960499
166	0x3aa1a680	0.0012332946
167	0xbdb2a4a5	-0.0872281
168	0xbccd0038	-0.025024518
169	0xbd80d1cc	-0.062900156
170	0x3d849c0d	0.06475077
171	0xbd0b4ade	-0.034006946
172	0xbd02576e	-0.03182166
173	0x3daf50e3	0.0856035
174	0x3d1ca52a	0.03824345
175	0xbd0d44e4	-0.034489527
176	0x3dc0ac53	0.09407868
177	0xbd985e11	-0.07439817
178	0xbd318e4d	-0.0433486
179	0xbce26120	-0.027634203
180	0x3a09b480	0.0005253032
181	0xbdbc54c0	-0.09195852
182	0x3cfbde1c	0.030745558
183	0xbcd192a4	-0.025582619
184	0xbd1099ea	-0.035303034
185	0xbcf0a098	-0.029373452
186	0xbda10f57	-0.07864254
187	0x3d9ea21f	0.07745766
188	0x3b3d9fa0	0.0028934255
189	0x3d59bf7a	0.053161122
190	0x3d875129	0.06607277
191	0x3d6a3ec6	0.05718877
192	0x3d41e52a	0.04733769
193	0x3db2d611	0.08732236
194	0xbcc926a0	-0.02455455
195	0xbcbf3d3c	-0.023344629
196	0xbd1a329c	-0.03764592
197	0xbd3df965	-0.04638042
198	0xbb9add00	-0.0047260523
199	0xbc7457c8	-0.014913507
200	0xbd2ff828	-0.04296127
201	0xbdafc96c	-0.0858334
202	0xbd7205e1	-0.059087638
203	0x3d7668fe	0.060158722
204	0xbdc67320	-0.09689927
205	0x3d0202da	0.031741
206	0x3d0ed1ea	0.03486816
207	0x3dc01b01	0.093801506
208	0x3db9de4d	0.09075604
209	0xbc5d06c0	-0.013490379
210	0x3d50786a	0.050896086
211	0x3d97b143	0.07406857
212	0xbc868414	-0.016420402
213	0x3d772f52	0.060347863
214	0x3d83ec4b	0.06441554
215	0x3d038f2a	0.032118954
216	0x3d8c0089	0.068360396
217	0xbcb4ac38	-0.022054777
218	0x3d2459ca	0.040124692
219	0xbd0dc79a	-0.034614183
220	0x3d63d442	0.055622347
221	0x3d819edb	0.063291274
222	0x3db1c06f	0.08679282
223	0x3d27eb26	0.04099574
224	0xbdb8f30d	-0.09030733
225	0xbd0e9176	-0.03480669
226	0x3cea3924	0.0285917
227	0x3db2bef5	0.087278284
228	0x3d7674e6	0.060170077
229	0x3ca33418	0.019922301
230	0x3cea6114	0.028610744
231	0x3d66b856	0.05632814
232	0x3d8e7ae5	0.06957034
233	0x3d50f4ea	0.05101482
234	0xbdc0a74b	-0.094069086
235	0x3d0aafce	0.033859067
236	0x3d9c6b91	0.07637704
237	0x3925be00	0.00015806407
238	0xbcd0e900	-0.025501728
239	0x3c999be4	0.018751092
240	0x3d05d502	0.032673843
241	0xbac043c0	-0.0014668629
242	0x3dad3f93	0.084593914
243	0x3dbd0fab	0.09231504
244	0xbdc0ece3	-0.094201826
245	0xb92f6e00	-0.00016730279
246	0xbd81973e	-0.06327675
247	0x3d93e45f	0.07221293
248	0x3d88c227	0.066776566
249	0x3bd785c0	0.0065772235
250	0x3a1b0700	0.0005913824
251	0xbd92d9eb	-0.07170471
252	0xbd6d14ee	-0.05788129
253	0x3dbcdc3f	0.09221696
254	0xbd7b3f15	-0.061339457
255	0xbc289600	-0.010289669

linear_relu_stack.0.bias f4 [64]
0	0xbc215928	-0.009847917
1	0x3dac5d4b	0.08416232
2	0x3d878e67	0.06618958
3	0xbd739d6c	-0.0594763
4	0x3d43e702	0.047827728
5	0x3da85f5f	0.082213156
6	0x3d8eb157	0.06967419
7	0x3b743bc0	0.003726706
8	0x3d581f62	0.052764304
9	0xbbe25bb0	-0.0069079027
10	0xbdb16eab	-0.08663686
11	0x3d57415e	0.052552573
12	0x3b266920	0.002539225
13	0x3c268e70	0.010165796
14	0x3d08578a	0.03328661
15	0x3db890f9	0.09012026
16	0xba784b00	-0.0009471625
17	0xbd89d711	-0.06730474
18	0x3c576f58	0.013149105
19	0xbd3e7194	-0.046495035
20	0xbce59ff4	-0.028030373
21	0xbb459a60	-0.003015183
22	0x3c218640	0.009858668
23	0xbdab9ee1	-0.08379913
24	0x3cdba7ac	0.02681335
25	0x3d968a0d	0.0735055
26	0xbb8bde60	-0.0042684525
27	0xbdaef281	-0.08542348
28	0x3cf3eab4	0.029775001
29	0xbd0b9524	-0.03407778
30	0x3d93efe3	0.07223489
31	0xbbc26540	-0.00593248
32	0x3d8c0cad	0.06838355
33	0x3d8eaf6d	0.069670536
34	0x3d91bad3	0.07115712
35	0xbd86ddc3	-0.065852664
36	0xbd8c7af2	-0.068593875
37	0xbca8697c	-0.020558111
38	0xbc4bb5f8	-0.012433521
39	0xbc3d1c28	-0.0115423575
40	0x3db60bc1	0.08888961
41	0xbd60f37b	-0.0549197
42	0xbcc5af6c	-0.0241315
43	0x38de7000	0.000106066465
44	0xbb0ca260	-0.0021459088
45	0xbdac95fe	-0.08427046
46	0x3d95b9a9	0.073108025
47	0x3d258cc6	0.040417455
48	0xbc377bb8	-0.01119893
49	0x3d1c8f66	0.038222693
50	0x3bb0f670	0.0054004714
51	0x3c5a7918	0.013334535
52	0xbcba6570	-0.022753447
53	0xbcd4d2a0	-0.02597934
54	0x3d20f052	0.039291687
55	0x3d95a903	0.07307627
56	0xbcb2fe24	-0.0218497
57	0x3d797256	0.060900055
58	0x3d8993f7	0.06717675
59	0x3dbe3f45	0.092894115
60	0x3d9ad0b3	0.075593375
61	0xbd9518f0	-0.07280147
62	0xbd8d1c0a	-0.06890114
63	0x3d80b909	0.06285293

linear_relu_stack.2.weight f4 [64, 64]
0	0x3bf47820	0.007460609
1	0x3d9fa45a	0.077950194
2	0xbc6a0ff0	-0.014286026
3	0xbd90e53a	-0.070749715
4	0xbd84691e	-0.06465362
5	0x3d61f170	0.055161893
6	0x3db4a992	0.088214055
7	0xbded1060	-0.11575389
8	0xbc383ca0	-0.011244923
9	0xbd145ccc	-0.03622131
10	0xbdc97fd8	-0.098388374
11	0x3c94c3e8	0.018159822
12	0x3cde3450	0.027124554
13	0xbd7ed87c	-0.062218174
14	0xbda73240	-0.08163881
15	0xbb2f3b00	-0.0026738048
16	0x3d0c2bc8	0.03422144
17	0xbc42a0d0	-0.011879161
18	0xbc8d60f0	-0.017258137
19	0xbddb41d6	-0.107059166
20	0x3dbbb140	0.09164667
21	0x3dad298e	0.084551916
22	0x3ca917c0	0.020641208
23	0xbd8af262	-0.06784512
24	0x3d0d5a50	0.034509957
25	0xbcd915a8	-0.026499584
26	0xbc3e1530	-0.011601731
27	0x3dab6e2e	0.083706245
28	0xbd827daa	-0.06371625
29	0xbd4c54dc	-0.049885616
30	0x3d8355a4	0.06412819
31	0x3d20cb98	0.039256662
32	0xbdd26dd8	-0.10274857
33	0xbdec1204	-0.11526874
34	0x3d56bd58	0.052426666
35	0x3dec9f44	0.11553815
36	0xbdd1c192	-0.10241999
37	0xbdc09f9a	-0.094054416
38	0x3d17ac90	0.037029803
39	0x3d84707e	0.06466769
40	0xbdbff9c4	-0.09373811
41	0xbb3d71c0	-0.0028906912
42	0x3d7e2ac4	0.062052503
43	0xbdb20920	-0.08693147
44	0xbd8fbaae	-0.07018028
45	0x3d644424	0.055729046
46	0xbd26b41c	-0.04069911
47	0x3d43e8c0	0.04782939
48	0x3dea2236	0.114323065
49	0x3d81be86	0.063351676
50	0x3b2a1d00	0.0025957227
51	0x3d89f44a	0.067360476
52	0x3d59e328	0.05319515
53	0xbcb442c8	-0.0220045
54	0x3d4aecb0	0.04954213
55	0xbcee3d48	-0.029081956
56	0x3c79f930	0.015257165
57	0x3c6feca0	0.014643818
58	0xbcaa19b8	-0.020764217
59	0x3dca61c6	0.0988193
60	0x3df5a660	0.11994624
61	0x3dfa6ada	0.122274116
62	0xbd830bda	-0.06398745
63	0x3dbab054	0.09115663
64	0x3ca555d0	0.02018252
65	0x3d7686e4	0.060187235
66	0x3d780b98	0.06055793
67	0xbdde1c70	-0.10845268
68	0xbd66e738	-0.05637285
69	0x3da5db8a	0.080985144
70	0x3d7ad558	0.061238617
71	0x3da15528	0.078775704
72	0x3dbcddb8	0.09221977
73	0x3c4ba6d0	0.012429908
74	0xbdbd5012	-0.09243788
75	0x3d7c414c	0.06158571
76	0x3d833f00	0.06408501
77	0xbb8b8080	-0.0042572618
78	0x3de9a44e	0.11408292
79	0x3cdb4010	0.026763946
80	0x3dff3f9e	0.12463306
81	0xbb26f400	-0.0025475025
82	0xbce62960	-0.028095901
83	0xbd962ad6	-0.07332389
84	0xbd406264	-0.046968833
85	0xbc55d620	-0.01305154
86	0xbd2532a8	-0.040331513
87	0x3dd1df9a	0.10247727
88	0xbd16ca48	-0.036814004
89	0x3d35b138	0.044358462
90	0xbd35b004	-0.044357315
91	0xbdeae1ba	-0.11468835
92	0xbdab412a	-0.083620384
93	0xbdc70522	-0.09717776
94	0x3dee1850	0.11625731
95	0xbbb57ac0	-0.0055383146
96	0xbdfffa94	-0.12498966
97	0xbd03dcf8	-0.032193154
98	0xbddb874c	-0.10719165
99	0xbd40ccf4	-0.04707046
100	0x3d8f6e92	0.070035115
101	0x3db7a6ca	0.08967359
102	0xbcfc69c0	-0.030812144
103	0xbcdd1640	-0.026988149
104	0xbda28fc0	-0.079375744
105	0xbc34fc10	-0.0110464245
106	0xba777900	-0.00094403327
107	0x3dea3a3e	0.1143689
108	0x3df4a75c	0.11945984
109	0xbd6da270	-0.05801624
110	0x3d712608	0.05887416
111	0x3df75de6	0.120784566
112	0x3dce8f24	0.10085896
113	0x3caf41f8	0.021393761
114	0xbd447d70	-0.04797119
115	0x3d279c50	0.040920556
116	0x3dd287f2	0.10279836
117	0xbde7146c	-0.11283192
118	0xbd0426dc	-0.03226362
119	0x3dc8c028	0.09802276
120	0x3c8959f0	0.016766518
121	0x3d77cf30	0.060500324
122	0x3df04cde	0.11733411
123	0x3da7ad54	0.081873566
124	0x3cffa310	0.031205684
125	0x3c9bdab0	0.019025177
126	0xbda44df4	-0.08022681
127	0x3d8801e2	0.06640984
128	0x3ccf8ca0	0.02533561
129	0x3d0f1858	0.034935325
130	0xba5dac00	-0.0008456111
131	0x3db4e398	0.088324726
132	0xbd6fc510	-0.058537543
133	0xbc08d780	-0.00835216
134	0xbd2e8f7c	-0.042617306
135	0x3d9e7b6e	0.07738386
136	0x3de73ca8	0.11290866
137	0x3d1b9d60	0.03799188
138	0x3ce63f38	0.028106317
139	0xbc364350	-0.011124447
140	0x3dca3d46	0.09874968
141	0xbd51e058	-0.05123934
142	0xbdd2075c	-0.1025531
143	0x3ddc58ce	0.10759126
144	0xbc99cbb8	-0.018773898
145	0x3bb6be20	0.005576864
146	0xbd12abd4	-0.0358084
147	0x3d9bf55e	0.076151595
148	0xbdec462a	-0.1153682
149	0xbb733d80	-0.0037115514
150	0xbd0649b8	-0.032785147
151	0xbc296290	-0.010338441
152	0xbdd39b4a	-0.103323534
153	0x3d910bce	0.0708233
154	0x3db1c3e4	0.08679941
155	0x3c7608b0	0.01501672
156	0xbd36e5c4	-0.044652715
157	0x3c6ba2e0	0.014382094
158	0xba992780	-0.0011684746
159	0x3d334bd0	0.043773472
160	0x3ce7ec18	0.02831082
161	0x3c82ed10	0.01598218
162	0xbda72844	-0.08161977
163	0xbd9c9040	-0.07644701
164	0x3d006d24	0.031354085
165	0x3c4ef1d0	0.012630895
166	0xbda890ae	-0.082307205
167	0xbc80c978	-0.015721068
168	0x3c41abc0	0.011820734
169	0x3d817f82	0.06323148
170	0x3dfe0ca6	0.12404756
171	0xbdb498b0	-0.08818185
172	0x3c867078	0.016411051
173	0x3dc61858	0.09672612
174	0xbdb12a52	-0.0865065
175	0x3de1c9de	0.11024831
176	0xbdee4ab0	-0.11635339
177	0x3db4c7f4	0.088272005
178	0x3d6a9958	0.057275146
179	0xbdac177c	-0.08402917
180	0xbd8e3464	-0.069435865
181	0xbd00e380	-0.03146696
182	0xbd59c080	-0.053162098
183	0xbd884708	-0.06654173
184	0xbcde1880	-0.027111292
185	0x3d7cf624	0.061758175
186	0x3de7f776	0.11326496
187	0xbdb5b27a	-0.08871932
188	0x3d076678	0.033056706
189	0xbccc6538	-0.024950609
190	0xbdc6222a	-0.09674485
191	0xbde406f4	-0.11134139
192	0xbd98c576	-0.07459538
193	0x3cbedcc8	0.023298636
194	0xbc855218	-0.016274497
195	0xbdcf79ae	-0.101306304
196	0xbdfd31ee	-0.12363039
197	0x3d6f4c34	0.058422282
198	0x3c9ae658	0.018908665
199	0x3d586a44	0.052835718
200	0x3dc4c0d4	0.096070915
201	0x3d742000	0.05960083
202	0xbd764e70	-0.060133398
203	0x3d0d1ce8	0.034451395
204	0x3dc5a920	0.09651399
205	0x3d9c4484	0.07630256
206	0x3d968476	0.07349484
207	0xbdf5c946	-0.120012805
208	0x3d1ae100	0.037812233
209	0x3da816fe	0.082075104
210	0xbc54ebf0	-0.012995705
211	0xbd90b3ca	-0.07065542
212	0xbcd0a338	-0.025468454
213	0x3d0a6ec8	0.033797055
214	0x3dfa6f7e	0.12228297
215	0xbd4f9c68	-0.05068627
216	0xbda1134c	-0.07865009
217	0xbd7e1c44	-0.062038675
218	0x3d6e03e0	0.058109164
219	0xbdfa43d4	-0.122199684
220	0x3da3793e	0.079821095
221	0x3cd1c600	0.02560711
222	0x3d86c47e	0.06580447
223	0xbd891af8	-0.06694597
224	0x3d219640	0.03944993
225	0xbbf47260	-0.0074599236
226	0x3de626b2	0.11237849
227	0xbd6cb0c0	-0.05778575
228	0x3d47529c	0.048662767
229	0xbd3a3df0	-0.045469224
230	0x3cd71d40	0.026259065
231	0x3cbfe5e0	0.023425043
232	0x3d4857c8	0.04891184
233	0x3de8178e	0.11332618
234	0x3dedc88a	0.116105154
235	0x3d08cb4c	0.033397004
236	0x3d980610	0.07423031
237	0x3c6e4050	0.0145417005
238	0x3dcc1c20	0.09966302
239	0xbd85747e	-0.0651636
240	0xbd1e71d8	-0.03868279
241	0xbd57d46c	-0.052692816
242	0x3d1c9140	0.03822446
243	0xbd2d5c78	-0.042324513
244	0xbdd3d4c8	-0.10343319
245	0xbd2a68c8	-0.041603833
246	0xbb1f7900	-0.0024333596
247	0xbd8689d8	-0.0656926
248	0xbd99a6d0	-0.0750252
249	0x3cb0d140	0.021584153
250	0xbca5e050	-0.020248562
251	0xbd06c0d0	-0.032898724
252	0xbdb795fe	-0.089641556
253	0x3d0833f4	0.03325267
254	0x3d9b19d6	0.07573287
255	0xbd96c4b2	-0.073617354

linear_relu_stack.2.bias f4 [64]
0	0x3d0b7628	0.03404823
1	0x3dc3f950	0.09569037
2	0x3ddb9292	0.107213154
3	0x3dc0b61a	0.09409733
4	0x3df95bbc	0.121757
5	0xbdc05af8	-0.09392351
6	0x3d1c1b6c	0.03811209
7	0x3c8cc0f8	0.017181858
8	0xbbac1980	-0.0052520633
9	0xbd4f2284	-0.050570026
10	0x3cbae948	0.022816315
11	0x3dd1a4d4	0.102365166
12	0x3dd217ba	0.10258432
13	0xbd3dfa64	-0.04638137
14	0x3d973046	0.07382254
15	0x3af1c880	0.0018446594
16	0x3de9d8a8	0.11418277
17	0xbd4d9d70	-0.050198972
18	0x3d02a510	0.031895697
19	0xbda24726	-0.07923727
20	0x3dca28dc	0.098710746
21	0xbdd46a86	-0.1037188
22	0x3b7a36c0	0.0038179606
23	0xbd90d4f2	-0.07071866
24	0x3ddecb4a	0.10878618
25	0x3cb3b318	0.021935984
26	0x3d53d2a0	0.05171454
27	0xbd3d200c	-0.04617314
28	0xbcc5f140	-0.024162889
29	0xbccd2308	-0.025041118
30	0xbcf59f08	-0.029983059
31	0xbd76d2cc	-0.060259625
32	0x3c9d6508	0.019213215
33	0xbc816df0	-0.015799493
34	0xbdb14fee	-0.086578235
35	0xbafa2600	-0.0019084811
36	0x3afaad80	0.0019125193
37	0xbd72ed8c	-0.059308574
38	0xbda2d80e	-0.079513654
39	0xbcbf4350	-0.023347527
40	0x3dc10248	0.09424263
41	0xbdc30b12	-0.09523596
42	0xbd5b8524	-0.05359377
43	0xbdd0c7e0	-0.10194373
44	0x3dfeb2b4	0.12436429
45	0x3d151ed8	0.036406368
46	0x3c36ec50	0.01116474
47	0x3c02f970	0.007994041
48	0x3d057fb8	0.032592505
49	0x3aab9480	0.0013090521
50	0xbd760b34	-0.060069278
51	0x3c8a5a78	0.016888842
52	0x3d9792e2	0.074010625
53	0xbaed2c80	-0.0018094927
54	0x3df73618	0.120708644
55	0xbca21bc8	-0.019788638
56	0xbdce262c	-0.100658745
57	0x3da24574	0.079234034
58	0xbdf3a0aa	-0.118958786
59	0xbcb61728	-0.022227839
60	0x3d0b34d0	0.033985913
61	0x3c53fd10	0.012938753
62	0x3d941f6e	0.07232557
63	0xbded3abc	-0.11583468

linear_relu_stack.4.weight f4 [1, 64]
0	0x3de992e4	0.1140497
1	0x3d56d030	0.052444637
2	0xbd945faa	-0.07244809
3	0xbdd2c7ee	-0.1029204
4	0xbda3ad04	-0.079919845
5	0x3ce4cb30	0.027928919
6	0x3d9ad66a	0.075604275
7	0xbb364340	-0.002781108
8	0x3d223a08	0.039606124
9	0xbdbb1fde	-0.091369376
10	0x3d6985c0	0.05701232
11	0x3d8f9d3a	0.070124105
12	0x3d3ade40	0.04562211
13	0xbd93c128	-0.07214576
14	0x3d59e878	0.053200215
15	0xbdb7e568	-0.08979303
16	0x3d0f7da4	0.03503193
17	0x3daf30b0	0.08554208
18	0xbdd66fec	-0.10470566
19	0xbcabc180	-0.020966291
20	0x3d5d5e50	0.05404502
21	0x3b554f00	0.0032548308
22	0x3b8bd560	0.0042673796
23	0x3df631f4	0.120212466
24	0x3d1390a4	0.036026612
25	0x3db4fca2	0.088372484
26	0x3c380840	0.011232436
27	0xbdfdc268	-0.12390596
28	0xbd86d8dc	-0.065843314
29	0x3c106ca0	0.008814961
30	0x3cb8c2c0	0.022553802
31	0x3dd8cd12	0.10585989
32	0xbcc42a30	-0.023945898
33	0x3c8fd478	0.017557368
34	0xbd2a5c50	-0.041591942
35	0xbc66a940	-0.014078438
36	0x3d9d0982	0.07667829
37	0xbced0ed0	-0.028937727
38	0xbc7834f0	-0.01514934
39	0x3db9b644	0.090679675
40	0xbdbb9996	-0.091601536
41	0x3ded31fe	0.11581801
42	0xbbb2ca80	-0.005456269
43	0x3daef524	0.085428506
44	0xbdab9806	-0.083786055
45	0x3c68ee40	0.0142169595
46	0xbddbf358	-0.107397735
47	0xbd911b2a	-0.07085259
48	0x3d5ceadc	0.053934917
49	0xbd87d7ae	-0.066329345
50	0x3ddcf1c4	0.10788301
51	0x3c868908	0.016422763
52	0x3b78aa40	0.0037943274
53	0x3d30177c	0.042991146
54	0xbcde3c00	-0.02712822
55	0x3dc73be6	0.097282216
56	0xbcb33188	-0.021874204
57	0xbdfb2726	-0.12263326
58	0xbbee8a40	-0.0072796643
59	0xbdfbc63e	-0.12293671
60	0x3dda4c5a	0.10659094
61	0xbde4f664	-0.11179808
62	0xbc3970c0	-0.011318386
63	0x3d52d468	0.051472098

cnns.0.weight f4 [32, 2, 3, 3]
0	0x3dbe137d	0.09281061
1	0x3ddb3f03	0.10705378
2	0xbd992aa6	-0.07478838
3	0x3e3bd364	0.18342358
4	0xbe6da83d	-0.23208709
5	0xbe0d2558	-0.13783777
6	0xbd77ac74	-0.0604672
7	0xbd542934	-0.051797107
8	0xbe2d3668	-0.16915286
9	0xbe0e6544	-0.13905817
10	0x3e07e4f7	0.13270937
11	0xbc476f22	-0.012172492
12	0x3debebf3	0.11519613
13	0x3dee5f53	0.116392754
14	0xbe7ab4d5	-0.24483044
15	0xbd78b916	-0.060723387
16	0xbe353531	-0.17696072
17	0x3e4b861f	0.19875382
18	0x3d048b80	0.0323596
19	0x3e80ce6f	0.25157496
20	0xbe0ddd51	-0.13853957
21	0xbcdf7674	-0.027278163
22	0xbe676744	-0.22597986
23	0x3ca6fc9b	0.020384124
24	0x3d65d8e2	0.05611504
25	0xbe5f562f	-0.2181022
26	0xbcc36297	-0.023850722
27	0xbe54aa0f	-0.20767997
28	0x3d71bae8	0.05901614
29	0x3e3deb81	0.18546869
30	0x3de7bea7	0.11315661
31	0x3e4e309e	0.20135733
32	0x3b5fd23e	0.0034152414
33	0xbe4549f1	-0.19266488
34	0x3c575bf3	0.013144481
35	0xbda66d84	-0.08126357
36	0x3dfdb3f0	0.12387836
37	0xbe1c8a20	-0.15287066
38	0x3e5c04a1	0.21486141
39	0x3e41d0d8	0.18927324
40	0xbe3cc281	-0.18433572
41	0x3dd76cac	0.105187744
42	0x3e80ce5e	0.25157446
43	0xbe137685	-0.1440068
44	0x3e8bec0c	0.27328527
45	0xbe70c591	-0.23512866
46	0x3d85b6a2	0.06528975
47	0x3d109455	0.03529771
48	0x3d777754	0.060416535
49	0x3e1ad508	0.15120327
50	0xbe1ea796	-0.15493616
51	0x3e57bb36	0.21067509
52	0x3aa750d3	0.0012765176
53	0xbd8048c2	-0.062638775
54	0xbe36e4fc	-0.17860788
55	0xbe2a3516	-0.16621813
56	0x3e25657e	0.16151997
57	0x3e622fcf	0.2208855
58	0xbe2bbd7e	-0.16771504
59	0xbd306286	-0.04306271
60	0x3dec8382	0.115485206
61	0xbd92852a	-0.07154305
62	0xbdb50ce7	-0.088403516
63	0x3dbdd06d	0.0926827
64	0x3e1f1bc8	0.15537941
65	0x3e54fac3	0.20798783
66	0x3e1d96fd	0.15389629
67	0x3e2d985b	0.1695265
68	0xbdd2b2fb	-0.10288044
69	0x3d2283a0	0.03967631
70	0xbe1187fd	-0.14212032
71	0x3dea7b36	0.11449282
72	0x3e048609	0.12941755
73	0x3e6fc22a	0.23413911
74	0x3a2513cc	0.00062972005
75	0xbded27b5	-0.11579839
76	0xbe4ac514	-0.19801742
77	0xbe1b49f8	-0.15164936
78	0x3daf30f5	0.0855426
79	0xbcf590f6	-0.02997635
80	0xbd9ead6a	-0.0774792
81	0xbe55ed55	-0.20891316
82	0xbdaa3366	-0.08310585
83	0xbe623867	-0.22091828
84	0xbb2166e1	-0.002462797
85	0xbe0c21fd	-0.1368484
86	0x3df4731f	0.1193602
87	0x3d7c3336	0.061572276
88	0x3ca8ff69	0.020629602
89	0xbdd77a7d	-0.1052141
90	0x3b87032f	0.0041202526
91	0x3e2cbc36	0.16868672
92	0x3e609510	0.21931863
93	0x3d80344d	0.062599756
94	0xbe669f4d	-0.22521706
95	0x3e6b148d	0.22957058
96	0x3e5f498d	0.21805401
97	0x3e4d539b	0.20051424
98	0xbc8876d4	-0.016658224
99	0xbe858056	-0.26074475
100	0x3e16ba25	0.14719446
101	0xbe10af9c	-0.1412949
102	0x3e6f1859	0.23349132
103	0xbcb18b7e	-0.02167296
104	0x3e7656f7	0.24056612
105	0x3e1b9bfd	0.15196224
106	0xbdc8e392	-0.098090306
107	0xbe13f561	-0.14449073
108	0xbe66c7dd	-0.2253718
109	0x3d993100	0.07480049
110	0x3dc9c13f	0.09851312
111	0x3e1113e1	0.1416774
112	0xbe501d82	-0.20323756
113	0x3d6f0dde	0.058362834
114	0xbd8bd13e	-0.06827019
115	0x3d06fe0d	0.032957125
116	0x3d4f0151	0.050538365
117	0xbd12ca6a	-0.03583757
118	0x3e4bd0e2	0.19903901
119	0x3db9f070	0.09079063
120	0xbe1f83f8	-0.15577686
121	0x3e7ca15f	0.24670933
122	0x3e2a9311	0.16657664
123	0xbde33625	-0.110943116
124	0x3ca848f4	0.0205426
125	0xbe62cfdc	-0.22149605
126	0xbd103612	-0.035207815
127	0xbdb71bcc	-0.08940849
128	0xbd14c9f1	-0.0363254
129	0xbe3b82bb	-0.18311588
130	0xbe2d26a4	-0.16909271
131	0xbe580e50	-0.2109921
132	0xbe282388	-0.16419804
133	0x3d8cbb1d	0.068716265
134	0xbd367aaa	-0.044550575
135	0xbe3015dc	-0.17195839
136	0xbe186bd8	-0.14884889
137	0x3d900968	0.07033044
138	0xbe5c3ce3	-0.21507601
139	0x3e7d60cd	0.24743958
140	0xbe3264e6	-0.17421302
141	0xbdab3b8e	-0.083609685
142	0xbe19ff3c	-0.1503877
143	0x3e6ca2f0	0.2310903
144	0xbc862d13	-0.016378915
145	0x3d2139d9	0.03936181
146	0x3d96a3c5	0.07355455
147	0x3e018014	0.12646514
148	0x3e770d84	0.2412625
149	0xbd2a9131	-0.04164237
150	0xbe1d3c31	-0.15354992
151	0x3e5ed890	0.217623
152	0xbd5d5085	-0.054031868
153	0xbdf9a1eb	-0.121890865
154	0xbe60703d	-0.21917816
155	0xbd97e1ff	-0.07416152
156	0x3d90777c	0.0705404
157	0xbe695d2b	-0.22789447
158	0xbe65bf4c	-0.22436255
159	0xbb9717f1	-0.0046110083
160	0x3e4ebb11	0.20188548
161	0x3e221c5d	0.15831132
162	0xbdb11391	-0.0864631
163	0xbd3177e7	-0.04332724
164	0x3d3e2961	0.04642618
165	0x3e25bf19	0.16186179
166	0xbe83c8f7	-0.25739262
167	0x3de29627	0.110637955
168	0xbe46e71f	-0.19424103
169	0xbe3776a9	-0.17916359
170	0xbd292467	-0.04129448
171	0x3e450299	0.19239272
172	0x3e606dba	0.21916857
173	0xbceb2322	-0.028703276
174	0x3e65ca52	0.2244046
175	0x3e0267ab	0.12734859
176	0x3dcb4f3f	0.09927224
177	0x3e8d8f4d	0.27648392
178	0x3daec2c5	0.08533243
179	0x3d8afe72	0.06786813
180	0xbbd0c29c	-0.0063708555
181	0xbddf9314	-0.10916725
182	0xbe29d496	-0.16585001
183	0xbdb5d6c0	-0.08878851
184	0x3e44bc14	0.19212371
185	0xbe45246f	-0.1925218
186	0xbdef1d3e	-0.116754994
187	0x3e0480d0	0.12939763
188	0xbd32ab92	-0.043620653
189	0xbe2c4952	-0.16824844
190	0x3d5db105	0.054123897
191	0x3e44d774	0.19222814
192	0xbe31c077	-0.17358576
193	0x3e347ca6	0.17625675
194	0xbd5e24f9	-0.05423448
195	0xbe5719d3	-0.21005945
196	0x3e08affa	0.1334838
197	0x3e6e707e	0.232851
198	0x3d9fc95e	0.078020796
199	0xbdb8353c	-0.08994529
200	0x3dc0743b	0.09397169
201	0x3dfce75b	0.12348815
202	0x3e13d29d	0.14435811
203	0xbc198007	-0.009368903
204	0xbe4e7924	-0.20163399
205	0x3cb4bf82	0.022063974
206	0xbe80a8c2	-0.25128752
207	0x3dda79e1	0.10667778
208	0x3e1174b0	0.14204669
209	0x3c04c441	0.008103431
210	0xbe121e73	-0.14269428
211	0xbdc512d0	-0.09622729
212	0x3d8ea932	0.06965865
213	0x3dd54a5b	0.10414573
214	0x3d778e77	0.0604386
215	0x3e08ba3e	0.13352296
216	0xbdfde429	-0.12397034
217	0xbe5c00b0	-0.21484637
218	0xbe5dd63d	-0.21663757
219	0x3de12176	0.1099271
220	0x3e01fada	0.12693349
221	0xbe147a1b	-0.14499705
222	0xbe1b1a9a	-0.15146866
223	0x3e5fe1f8	0.21863544
224	0x3d423132	0.047410198
225	0x3dbfdba0	0.09368062
226	0xbe580948	-0.2109729
227	0x3db78986	0.089617774
228	0x3dc92196	0.09820859
229	0x3d146e25	0.036237855
230	0xbabfb528	-0.0014626132
231	0xbd4c1c12	-0.049831457
232	0xbda58702	-0.08082391
233	0xbe392c25	-0.18083246
234	0xbe49ac06	-0.19694528
235	0x3e5066e0	0.20351744
236	0xbd6fbc96	-0.05852946
237	0x3e4f7474	0.20259267
238	0x3e800f67	0.2501175
239	0x3e0706e6	0.13186225
240	0x3ddb2d67	0.10702019
241	0x3d8f5d3e	0.070002064
242	0xbe3a6e9f	-0.18206261
243	0xbb815ff9	-0.0039482084
244	0x3e72a8fa	0.23697272
245	0x3d0d7f96	0.034545504
246	0x3e2c281b	0.16812174
247	0x3d8f6331	0.07001341
248	0x3c6531af	0.013988896
249	0x3dc25008	0.09487921
250	0x3e55d1e3	0.20880847
251	0xbe300a3b	-0.17191403
252	0x3e72663b	0.2367181
253	0x3e276cf5	0.16350158
254	0xbcebe881	-0.02879739
255	0xbd8d7f03	-0.06908991

cnns.0.bias f4 [32]
0	0x3df1fc21	0.11815668
1	0xbd51dba8	-0.05123487
2	0xbca03754	-0.019557633
3	0x3e07fe6e	0.13280651
4	0xbd848226	-0.06470136
5	0xbcdf6a8f	-0.02727249
6	0xbe05528f	-0.13019775
7	0xbd61729a	-0.055040933
8	0xbe50a9d6	-0.20377287
9	0xbdd5bcba	-0.10436387
10	0x3e46eba1	0.19425823
11	0xbdd3e8b8	-0.10347122
12	0xbde3e0b1	-0.11126841
13	0x3df85e6e	0.12127386
14	0xbe35105a	-0.17682019
15	0xbcb92d7a	-0.022604693
16	0x3e05d14f	0.13068126
17	0x3e211194	0.15729362
18	0x3d3060de	0.04306113
19	0x3e24d06b	0.1609513
20	0xbe3aeac1	-0.18253614
21	0xbcb4bd2b	-0.022062859
22	0xbd02ce59	-0.03193507
23	0xbdfa3084	-0.12216285
24	0x3dbfd1c0	0.093661785
25	0xbd987b7c	-0.07445428
26	0x3e287e4e	0.16454431
27	0xbe36085e	-0.1777663
28	0x3e1923ca	0.14955059
29	0xbe320b00	-0.17387009
30	0xbd6b7701	-0.057486538
31	0x3e238eca	0.15972438

cnns.2.weight f4 [64, 32, 3, 3]
0	0x3cce8e40	0.025214314
1	0x3bd70704	0.0065621156
2	0x3cf0f54b	0.02941384
3	0x3b42c33c	0.002971842
4	0x3c885d0e	0.016645934
5	0xbd03222d	-0.032015014
6	0xbbec2c19	-0.0072074053
7	0x3b13c3c9	0.0022547117
8	0x3c6fd86e	0.014639003
9	0xbcc8a97e	-0.024494883
10	0xbd5b7680	-0.053579807
11	0x3d37bfc2	0.04486061
12	0x3cc9ea02	0.024647716
13	0xbcf68cb8	-0.030096397
14	0xbd83555e	-0.06412767
15	0xbd1b15d4	-0.037862614
16	0xbc42fca8	-0.011901058
17	0x3d322805	0.043495197
18	0xbd1143dc	-0.035465106
19	0xbc537882	-0.012907149
20	0x3b53f0db	0.0032339606
21	0x3c3b2419	0.011422181
22	0xbd3813c7	-0.044940736
23	0xbce9bdfd	-0.028532976
24	0xbccd1d5d	-0.025038416
25	0xbc8e5be6	-0.017377805
26	0x3d37eba6	0.044902466
27	0xbd64d747	-0.055869367
28	0xbd38d666	-0.04512634
29	0x3bbb0fb5	0.0057086595
30	0xbc37a3e6	-0.01120851
31	0x3d22bc11	0.039730135
32	0x3d2719e3	0.040796172
33	0x3d5e8952	0.054330178
34	0xbcf8b9cc	-0.030362032
35	0xbd9ee230	-0.077579856
36	0xbd220167	-0.03955212
37	0x3cd745ff	0.026278494
38	0xbc97549c	-0.018472962
39	0xbb684552	-0.0035441709
40	0xbc8a40f9	-0.016876685
41	0xbc3739e5	-0.011183237
42	0x3d1b00d4	0.037842587
43	0xbd744f71	-0.059646074
44	0x3c964715	0.018344441
45	0x3af91456	0.0019003253
46	0x3d74ce9f	0.05976736
47	0x3c3ac345	0.011399095
48	0xbcd5dc7d	-0.026106114
49	0x3c69962f	0.014256998
50	0xbd0bc8db	-0.034127098
51	0x3d0c0ef3	0.034193944
52	0xbc062ff3	-0.008190143
53	0xbc8bd285	-0.017068157
54	0x3d7e8c6f	0.062145647
55	0x3ced4600	0.028964043
56	0xbcb25959	-0.02177112
57	0x3d9acb71	0.075583346
58	0x3bc0c716	0.005883108
59	0xbd4f7a4d	-0.050653744
60	0xbd5e6737	-0.054297652
61	0xbd092825	-0.03348555
62	0x3c7f0569	0.015565255
63	0x3d8389d4	0.06422773
64	0x3c29d805	0.0103664445
65	0x3d50b72d	0.05095594
66	0xbd186faf	-0.037215885
67	0xbc288dc6	-0.010287708
68	0x3d80fe7b	0.06298538
69	0xbda3e79d	-0.08003161
70	0x3d28134e	0.041034035
71	0xbc9112f9	-0.017709242
72	0x3d3ccebe	0.046095602
73	0x3bf15920	0.007365361
74	0xbdc2aeeb	-0.09506019
75	0xbd43646a	-0.047703184
76	0xbd015000	-0.031570435
77	0x3d6cdc5e	0.057827346
78	0x3d322499	0.043491933
79	0xbc9ebd40	-0.01937735
80	0xbbaed9be	-0.0053360155
81	0xbb3b98b4	-0.0028624954
82	0x3d644ffe	0.05574035
83	0xbce2d65d	-0.027690107
84	0x3cea7542	0.028620366
85	0x3c5b8d34	0.013400365
86	0xbd54fc48	-0.051998407
87	0xbc59d824	-0.013296161
88	0xbcc78316	-0.024354499
89	0x3cd023cf	0.0254077
90	0x3cf742f6	0.030183297
91	0xbd8fc6f1	-0.07020367
92	0x3c0af62f	0.008481546
93	0xbc144bad	-0.009051246
94	0x3d3c112f	0.045914825
95	0x3c0a3d01	0.008437396
96	0xbc2849b6	-0.01027148
97	0xbbfce3aa	-0.0077175694
98	0x3c1b6e05	0.00948668
99	0x3cf58817	0.02997212
100	0xbd6b2188	-0.057405025
101	0x3cb3355f	0.021876035
102	0x3cefe458	0.029283687
103	0x3cc74154	0.024323143
104	0x3bcccafc	0.0062497836
105	0x3cc58eb2	0.024115894
106	0xbd20b5f4	-0.039236024
107	0xbc0986ab	-0.008393924
108	0x3b0bf0e3	0.0021353296
109	0xbd9c1ce5	-0.07622699
110	0xbda1a5ca	-0.0789295
111	0xbd52c84c	-0.05146055
112	0xbd27e155	-0.040986378
113	0x3d52f776	0.05150553
114	0x3cf86c77	0.030325158
115	0x3c80b2be	0.01571023
116	0xbccb2625	-0.024798462
117	0x3b9e3562	0.004828141
118	0xbd84a246	-0.06476264
119	0x3c6d57fc	0.014486309
120	0xbc9269dd	-0.017872745
121	0xbcd413bd	-0.025888318
122	0x3d1c6d73	0.038190316
123	0x3d119377	0.035541024
124	0xbd95b809	-0.073104925
125	0xbcb0f8e7	-0.02160306
126	0x3d7efaa7	0.06225076
127	0xbd8a636a	-0.06757243
128	0x3d0a6ea3	0.033796918
129	0xbd4ff5dc	-0.05077158
130	0xbd0e4ab4	-0.03473921
131	0x3cfef66d	0.031123364
132	0xbda4f49f	-0.0805447
133	0x3baec60c	0.0053336676
134	0x3ceb7fd2	0.028747473
135	0x3cb42fb8	0.02199541
136	0x3bc79b18	0.0060914867
137	0x3c5cd7f7	0.013479224
138	0xbc8f2f9c	-0.017478757
139	0xbd929830	-0.07157934
140	0xbd3153c1	-0.043292765
141	0x3cfc7190	0.03081587
142	0xbc080c3e	-0.0083037
143	0xbd44f2cd	-0.048083115
144	0xbd8b7177	-0.06808751
145	0xbd62ee45	-0.055403013
146	0x3c928fb2	0.017890785
147	0xbd87e199	-0.06634826
148	0xbd8ec57f	-0.06971263
149	0x3d2371ed	0.03990357
150	0xbd9c3b53	-0.07628503
151	0xbd5811ae	-0.052751236
152	0xbd5447bb	-0.05182622
153	0x3d138100	0.036011696
154	0xbd8112f2	-0.06302442
155	0xbd501ea4	-0.05081047
156	0xbd81d797	-0.063399486
157	0xbb097b15	-0.0020977904
158	0x3d4a14f1	0.049336378
159	0xbd07502c	-0.033035442
160	0x3d3e8351	0.04651195
161	0xbc3a39fe	-0.0113663655
162	0xbc0e7898	-0.008695744
163	0xbd5fe43b	-0.054661017
164	0xbd6383e6	-0.05554571
165	0x3d0c6bf6	0.034282647
166	0xbd2452ff	-0.040118214
167	0xbdab1e3c	-0.08355376
168	0x3cb4d763	0.02207536
169	0x3ce48486	0.027895223
170	0x3cc53d4e	0.024077084
171	0x3d027b10	0.031855643
172	0xbcc19024	-0.023628302
173	0xbbb081e3	-0.0053865775
174	0xbdcfafa5	-0.101409234
175	0x3c53b9ff	0.012922763
176	0xbd899554	-0.06717935
177	0xbc4ea6a6	-0.012612974
178	0xbbb98469	-0.0056615365
179	0x3bd9114f	0.006624378
180	0x3cb20a0e	0.02173331
181	0xbb17661b	-0.002310163
182	0xbc3f0156	-0.011658033
183	0x3ccc5ebd	0.024947518
184	0x3c866d8e	0.016409662
185	0xbd7335a2	-0.05937732
186	0xbdaf2b50	-0.08553183
187	0x3d23c777	0.039985146
188	0xbcef289c	-0.029194169
189	0xbd6383a9	-0.055545483
190	0x3ce29fd5	0.027664104
191	0x3d0377a4	0.03209652
192	0xbd534df2	-0.051588006
193	0xbdb6a561	-0.08918262
194	0x3d126b64	0.035746947
195	0x3ce0f25a	0.027459312
196	0x3b9fded4	0.004878858
197	0xbd526154	-0.05136235
198	0xbdaf6cca	-0.08565672
199	0x3becadf5	0.0072228857
200	0x3d1feec1	0.039046053
201	0xbd230c41	-0.039806608
202	0xbd042b55	-0.032267887
203	0xbd1f89fa	-0.038949944
204	0xbd1d5a2f	-0.038416084
205	0xbc292750	-0.010324314
206	0xbd2c0f77	-0.042006936
207	0x3c494a08	0.012285717
208	0xbd0d107a	-0.03443954
209	0xbd00202a	-0.031280674
210	0xbd318f8d	-0.04334979
211	0xbd255e57	-0.040373173
212	0x3d9017ad	0.07035766
213	0xbd9b8b13	-0.07594886
214	0xbda3f8bf	-0.08006429
215	0x3d4c3acd	0.049860764
216	0x3c08721b	0.008327986
217	0xbd38e938	-0.04514429
218	0xbd18caca	-0.03730277
219	0xbcc3d710	-0.02390626
220	0xbc2d6bd2	-0.010584788
221	0xbd841653	-0.064495705
222	0xbb0b2d43	-0.0021236695
223	0xbca492be	-0.020089503
224	0xbd6603b0	-0.05615586
225	0x3d9a7ab0	0.07542932
226	0xbd3b73a4	-0.04576458
227	0xbd535267	-0.051592257
228	0x3cc10e2d	0.02356633
229	0x3d4cbdc8	0.049985677
230	0xbd812a26	-0.06306867
231	0x3c7c3e05	0.015395646
232	0xbd4650e5	-0.04841699
233	0x3ce7a1ad	0.028275335
234	0xbc8fd8ee	-0.017559495
235	0xbc46b759	-0.012128674
236	0x36ed3d62	7.0702963e-06
237	0xbbe019bc	-0.0068390053
238	0xbb2f9959	-0.0026794283
239	0xbd15b0a9	-0.03654543
240	0x3c7b51ef	0.015339359
241	0xbd1034d0	-0.035206616
242	0x3cbfad44	0.02339805
243	0xbc66d6af	-0.0140892705
244	0x3cd1e7d6	0.025623243
245	0x3c34a5cc	0.011025857
246	0xbda1bcba	-0.07897325
247	0xbc14fca1	-0.009093435
248	0x3d561355	0.05226453
249	0xbc12807d	-0.008941767
250	0xbb547085	-0.00324157
251	0xbc977c9b	-0.018492034
252	0xbc2fa856	-0.010721287
253	0xba6aa97d	-0.00089516473
254	0x3cb337c8	0.021877185
255	0xbd9b81f3	-0.07593145

cnns.2.bias f4 [64]
0	0xbb30625b	-0.0026914093
1	0x3d664f0a	0.05622772
2	0x3d5ece71	0.054396097
3	0xbd007ff8	-0.03137204
4	0x3d3ce124	0.04611315
5	0xbd8fba5a	-0.070179656
6	0x3d490607	0.049078014
7	0x3c912dd9	0.017722057
8	0x3d35e902	0.044411667
9	0xba3eb0ab	-0.00072742504
10	0xbba46e2c	-0.0050180163
11	0xbd0ba93d	-0.034096945
12	0xbd209e8e	-0.03921371
13	0xbcc7858f	-0.024355678
14	0xbd31e490	-0.043430865
15	0x3d41ef1d	0.047347177
16	0x3cc89222	0.024483744
17	0x3ceae95c	0.028675728
18	0x3d385ba9	0.04500929
19	0xbc8d58ec	-0.017254315
20	0xbce6b1ff	-0.028161047
21	0x3b805c9c	0.00391729
22	0x3c8dcba5	0.01730902
23	0x3c8223be	0.015886184
24	0xbc7cb0b9	-0.015422993
25	0xbb4f7ad3	-0.0031658902
26	0xbb099daa	-0.0020998516
27	0xbc2b6517	-0.010461113
28	0xbc716e74	-0.014735807
29	0xbcbeff8a	-0.02331521
30	0xbab11c60	-0.0013512485
31	0xbd86374b	-0.06553515
32	0x3d281f83	0.041045677
33	0xbbd30577	-0.0064398604
34	0xbd29f8ca	-0.04149703
35	0x3ce52da7	0.02797587
36	0x3cfae967	0.030628873
37	0x3d0ff98d	0.0351501
38	0xbbbbf9fb	-0.005736587
39	0x3c142b1c	0.009043481
40	0xbc9792fc	-0.018502705
41	0x3d7408ce	0.05957871
42	0xbd779db8	-0.060453147
43	0xbd5f4a16	-0.054514013
44	0x3c148dcb	0.009067009
45	0x3d809f92	0.062804356
46	0xbd2826ff	-0.041052815
47	0x3d216c89	0.039410148
48	0x3d48bf49	0.04901055
49	0xbd4f0d41	-0.05054975
50	0x3d01639a	0.031589128
51	0xbd17f684	-0.03710033
52	0xbd1f1801	-0.03884125
53	0xbc88ef78	-0.01671575
54	0xbca91b50	-0.020642906
55	0xbd652615	-0.05594452
56	0x3d6ff9f3	0.05858798
57	0xbcad373e	-0.021144506
58	0xbd447857	-0.047966328
59	0x3d081541	0.033223394
60	0x3d3706bc	0.044684157
61	0xbc8f704f	-0.017509608
62	0xbc1ed086	-0.009693271
63	0xbc86cf26	-0.016456198

linear.0.weight f4 [16, 3328]
0	0xbcab1872	-0.02088568
1	0x39fb0f05	0.0004788564
2	0xbb19a8cc	-0.0023446558
3	0xbcb2853f	-0.021792052
4	0x3b342dfd	0.0027493231
5	0xbc699469	-0.014256575
6	0xba0e022b	-0.0005417193
7	0xbc26bb47	-0.010176486
8	0x3b2dc5d3	0.0026515618
9	0x3bfb484a	0.0076685296
10	0xbc9841b3	-0.018586015
11	0xbc87eb67	-0.01659174
12	0x37562ec0	1.2766279e-05
13	0xbc75b76c	-0.014997344
14	0xbb31c759	-0.0027126877
15	0xbbfebe07	-0.007774118
16	0x3992e370	0.00028016744
17	0x3c220b37	0.009890369
18	0x3a5999f4	0.0008300834
19	0xbc302cc7	-0.010752863
20	0x3bc366be	0.0059631756
21	0x3ba9fd5f	0.005187675
22	0xbbe83705	-0.007086637
23	0x3c1f7299	0.009731912
24	0x3c000934	0.007814694
25	0xbc9b267d	-0.018939251
26	0xbb571780	-0.0032820404
27	0x3b99d7e8	0.0046949275
28	0xbae4ea90	-0.0017464925
29	0x3c488fd8	0.012241326
30	0x3bd6afcc	0.0065517183
31	0xbc8769cd	-0.016529942
32	0x3a4d22f5	0.00078253384
33	0xbc26dc6d	-0.01018439
34	0x3a08984a	0.0005210681
35	0xbc7c0bc7	-0.015383667
36	0xbb5ba0cf	-0.0033512597
37	0xbc4515ab	-0.012029092
38	0x3bf4b117	0.0074674
39	0xbbf72212	-0.0075419033
40	0xbb255de5	-0.0025232967
41	0x3c1c61f8	0.009544842
42	0x3c39a191	0.011330024
43	0xbca2ab43	-0.019857055
44	0x3a92676c	0.0011169738
45	0xbb1aa479	-0.0023596568
46	0xbba8b8dd	-0.0051489905
47	0xbbbc9097	-0.005754541
48	0xbc868fa8	-0.016425923
49	0xbca2eb67	-0.01988764
50	0xbc21e405	-0.009881024
51	0x3c29cd33	0.010363865
52	0xbbd1592f	-0.0063888053
53	0x3c10bd0e	0.008834137
54	0x3b4990ae	0.0030756402
55	0xbcc4b224	-0.024010725
56	0x3c07b332	0.00828247
57	0xbc135176	-0.00899159
58	0x3b9d4010	0.0047988966
59	0xbb4204f3	-0.0029605
60	0xbc671881	-0.014104963
61	0xbc47232c	-0.012154382
62	0xbb8e6a61	-0.0043461774
63	0xbb718139	-0.0036850704
64	0x3b6c103f	0.0036020426
65	0x3b1dcf8e	0.002408001
66	0x3c0ce758	0.0086000785
67	0xbc3a0ee9	-0.011356094
68	0x3b5cf516	0.0033715419
69	0xbca50998	-0.020146176
70	0xbc9407bb	-0.018070092
71	0x3a16959e	0.00057443406
72	0xbc39ad9e	-0.0113328975
73	0x3b1f26d9	0.002428463
74	0xbc5bfa94	-0.013426442
75	0xbcb276c2	-0.021785144
76	0x3a1f2ea0	0.00060723163
77	0xbb862204	-0.0040934104
78	0xba1976d3	-0.0005854193
79	0xbc7b0d81	-0.015323044
80	0x3b6159a3	0.0034385703
81	0xbc80a2ee	-0.01570269
82	0x3b9cb30c	0.0047820862
83	0x3bb8baed	0.0056375177
84	0xbc669148	-0.014072724
85	0x3be0099c	0.006837083
86	0xbbcd1fda	-0.0062599005
87	0x3c00d32b	0.007862846
88	0x3bda18aa	0.006655772
89	0xb98b12f8	-0.0002652628
90	0xbc15a28d	-0.009132993
91	0xbc9bd7e6	-0.019023847
92	0xbc34088f	-0.010988369
93	0x3b12f770	0.0022425316
94	0x3c306d28	0.010768212
95	0xbc659be3	-0.014014217
96	0xbb46a8f7	-0.0030313113
97	0x3c2f7a11	0.010710255
98	0xbc76bad4	-0.015059192
99	0xbba7de45	-0.005122932
100	0x3c1c447a	0.00953781
101	0xbc532ebb	-0.012889559
102	0x392cdc3e	0.00016485245
103	0xba20facc	-0.0006140887
104	0x3c369142	0.011143031
105	0xbbcf7957	-0.0063316035
106	0x3a21c5ec	0.0006171155
107	0x3ae781e9	0.0017662618
108	0xbc1b675b	-0.009485091
109	0x3be9f250	0.0071394816
110	0x3c1ad2f6	0.009449711
111	0x3c3be228	0.011467494
112	0xbc511b13	-0.012762803
113	0xbc906f0d	-0.017631078
114	0xbcd82f01	-0.0263896
115	0xbcca5bca	-0.024701972
116	0xbc9e0369	-0.019288735
117	0xbae7088b	-0.0017626447
118	0xbba12b15	-0.004918466
119	0x3afcb4d9	0.0019279971
120	0xbb85d9f9	-0.0040848223
121	0x3c3a9e35	0.011390259
122	0xbc4cd3a7	-0.012501634
123	0xbb52c4dc	-0.0032160794
124	0x3b188fe7	0.0023279132
125	0xbca28472	-0.019838545
126	0xbb9e3f87	-0.0048293504
127	0x3c2dcf8e	0.010608567
128	0xbc172cb5	-0.009226968
129	0x3b64b151	0.0034895728
130	0xbca782a0	-0.020448029
131	0x3c29c984	0.0103629865
132	0xbb028e16	-0.0019921116
133	0x3bbc9e61	0.005756185
134	0x3ace8897	0.001575726
135	0xbc216cf6	-0.0098526385
136	0xbbe12ca4	-0.0068717767
137	0xbb1cb5b4	-0.0023912014
138	0xbc1dfb91	-0.009642498
139	0xbc6814d7	-0.014165125
140	0xbcb0de3f	-0.02159035
141	0x3c30000c	0.010742199
142	0xbca73ee1	-0.020415725
143	0x3ba57c65	0.0050502294
144	0xbbd79785	-0.006579342
145	0xbcab188a	-0.020885725
146	0xbc05b7c3	-0.008161488
147	0xbcb38854	-0.021915592
148	0xbc866b5f	-0.01640862
149	0x3c0ecd0a	0.008715877
150	0xbc9e8cfc	-0.019354336
151	0x3c0d13db	0.008610691
152	0xbb61eb0d	-0.0034472377
153	0xbc58f594	-0.013242144
154	0xbc558c3a	-0.013033921
155	0xbca440a7	-0.02005036
156	0x3b1ba7e4	0.0023751194
157	0x3c567c24	0.013091121
158	0xbca94799	-0.020664023
159	0xbbffb7e9	-0.007803906
160	0xbc80b361	-0.015710535
161	0xbbd60803	-0.006531717
162	0x3beaf828	0.007170696
163	0xb8759f75	-5.8561058e-05
164	0x3bdc41e8	0.006721724
165	0x3bca8e9a	0.00618155
166	0x3b2c23d1	0.0026266465
167	0x3be3faff	0.0069574113
168	0xbc07b0d2	-0.008281903
169	0xbcb8ad4b	-0.02254357
170	0x3c250a1c	0.010073211
171	0x3b5068b8	0.0031800698
172	0xbc787b58	-0.015166126
173	0xbad566f0	-0.0016281288
174	0x3c1d2f8c	0.009593856
175	0x3bff55b0	0.007792197
176	0x3c6e42ea	0.014542321
177	0xbc395f62	-0.011314245
178	0xbc52d306	-0.012867695
179	0xbc6a1743	-0.014287773
180	0x3b8f8814	0.0043802354
181	0x3be6c1c0	0.00704214
182	0xbc875b86	-0.016523134
183	0x3bb4dbf0	0.0055193827
184	0xbc284024	-0.010269199
185	0x3c49487e	0.01228535
186	0x3ba903f4	0.005157942
187	0xbc45eb37	-0.012080005
188	0xbb85e836	-0.0040865196
189	0x3c6c1f7a	0.0144118015
190	0xbc484799	-0.012224101
191	0xbbc5e0aa	-0.006038745
192	0xbca3c05d	-0.019989187
193	0xbb47a655	-0.0030464132
194	0xbc0955da	-0.008382285
195	0xbbcbed82	-0.0062233815
196	0xbb07dd29	-0.0020731187
197	0xbbb858c0	-0.005625814
198	0x3bee73b4	0.0072769765
199	0x3c326560	0.0108884275
200	0xba638ea0	-0.00086806156
201	0x3c3e2b76	0.011607042
202	0x3af5a030	0.0018739756
203	0x3aa117c0	0.0012290403
204	0x3c8a61e3	0.01689238
205	0xbc21ffab	-0.009887616
206	0x3c726376	0.014794221
207	0x3c305d8e	0.010764493
208	0x3a52c080	0.0008039549
209	0x3c13ee24	0.009028945
210	0x3b8e2d34	0.0043388847
211	0x3b9191a7	0.004442412
212	0xbc9ffae1	-0.019528808
213	0xbcb82d4f	-0.022482542
214	0xbc92209d	-0.017837817
215	0xbafd83f7	-0.0019341697
216	0xbcb6cc6d	-0.022314275
217	0x3b45c636	0.0030177957
218	0x3c7afc83	0.015318993
219	0xbbdbfa20	-0.006713167
220	0x3c310b19	0.010805869
221	0xbc9c1b7e	-0.019056078
222	0x3bd0ed7b	0.006375966
223	0x3a9dc6b7	0.0012037371
224	0xbbae2772	-0.005314761
225	0xbc9d3846	-0.019191872
226	0xbc0fc670	-0.0087753385
227	0x3c52489e	0.012834696
228	0xbca86903	-0.020557886
229	0x3b859847	0.0040769908
230	0x3bbb1934	0.0057097916
231	0xbc5f5e7c	-0.013633367
232	0x3b1a337f	0.002352923
233	0x3bdc1a92	0.0067170346
234	0xbb915cdb	-0.004436118
235	0xbc5fe2f9	-0.013664954
236	0x3c232141	0.009956659
237	0x39bc0464	0.00035861426
238	0xbc0e583d	-0.00868803
239	0xbc368112	-0.011139171
240	0x3c46bb2e	0.012129588
241	0xbc5f04cb	-0.013611983
242	0x3c17914d	0.009250951
243	0xbc49c24c	-0.01231439
244	0xbc730771	-0.014833317
245	0xbc8ec2c3	-0.017426854
246	0xbc79b67c	-0.015241262
247	0xbc024dd6	-0.007953128
248	0xbc582b05	-0.01319385
249	0xba506302	-0.00079493236
250	0x3b577f68	0.0032882337
251	0x39969e31	0.0002872809
252	0xbc391465	-0.011296366
253	0xbbbbe8a4	-0.00573452
254	0x3b8af7c6	0.0042409627
255	0xbbd9195f	-0.006625339

linear.0.bias f4 [16]
0	0xbc5fb134	-0.013653088
1	0x3c7c0439	0.015381866
2	0xba37a894	-0.0007006016
3	0xbc3877e8	-0.011259057
4	0x3c3bea2f	0.011469408
5	0x3bf3069b	0.007416559
6	0x3bf23829	0.0073919487
7	0x3b01e41c	0.0019819802
8	0x3d0d9571	0.034566347
9	0xbb97a241	-0.0046274965
10	0xbb4b5aaf	-0.0031029393
11	0xbb6f2891	-0.0036492685
12	0x3a87a5ab	0.0010349056
13	0xbc17d5b5	-0.00926726
14	0xbb69c65f	-0.0035671217
15	0xbc3517a0	-0.011052996

linear.2.weight f4 [1, 16]
0	0xbd9faf21	-0.07797075
1	0x3da4817b	0.08032509
2	0xbe172f69	-0.1476418
3	0x3d844d6c	0.064600796
4	0x3ca5e2bb	0.020249715
5	0xbc3fbb15	-0.011702319
6	0xbdc5b64d	-0.09653912
7	0x3ce9ee8a	0.028556127
8	0x3e5888ca	0.21145931
9	0x3e3253a3	0.17414717
10	0xbdef18af	-0.1167463
11	0xbe041ffd	-0.12902828
12	0xbe47c29f	-0.19507836
13	0xbe0c09ab	-0.13675563
14	0xbd63eb51	-0.055644337
15	0x3e506daa	0.20354334
