models/trainingmodels/start_backup.pth (torch, 45847 bytes, 5 tensors)

linear_relu_stack.0.weight f4 [64, 104]
00000000: bcf9 9ebc 1f16 34bd 58fe 9d3c bb54 9dbd
00000010: 9be0 743d c1b5 b3bd f3c9 923b 140c 9fbd
00000020: d86c 9c3d e51b 30bc ae25 f6bc 9cc0 ac3d
00000030: ceea 763c 0b83 cf3d 5e23 e9bc ce46 85bd
00000040: 88e1 35bd a9f1 90bd e0d0 bb3d e665 d03d
00000050: 760d b2bd 45db 7e3d 001b 4c3d abe3 483d
00000060: cffc 5b3d c4a8 423d 8ff0 9fbd bede 293d
00000070: b3c5 53bd bebe 82bd 8a41 18bd a101 4fbd
00000080: 8279 c5bd 96e6 a33d 0c8a 433c 8d92 a03d
00000090: 55d1 acbd 6838 bfbc 0eb5 743d 7c10 90bd
000000a0: 6cbc 8d3b 4b79 7f3d b0b3 39bd ce1d a6bd
000000b0: b9c6 1dbd c3b4 d2bc 0afe 8b3d 72eb 463d
000000c0: 30ab 2e3d 268a a9bd 0fd7 b13d cfae b93b
000000d0: 4162 90bd 1efa 56bd 405b 643b 4c96 b3bc
000000e0: 8a68 413c 902d 453c 3455 c73c 61b3 c6bd
000000f0: e8b0 fcbc dc10 aebd f6cd 07bd f394 bd3d
00000100: d1e6 5dbd cfe1 57bd ed39 91bd 1ea9 6a3d
00000110: 206e a03d ec85 85bd a2d0 a4bd 0382 a83d
00000120: de1d a23d 6691 763d 4e76 8fbd a727 a23d
00000130: 9390 5c3d aeba 783d d001 0dbd 1b21 913d
00000140: 103f 8abd d4ec 0b3d 79d2 76bd bad7 613d
00000150: 4c9c 9e3d 0c67 a93c c098 163b 59b1 ab3d
00000160: b713 a43d 248e 95bd 362e 87bd b55c a23d
00000170: 9d8f 783d ee75 26bd 55f8 b53d 756b 9cbd
00000180: ec28 aa3c 9618 493d 1d2c 5e3c 606d c33d
00000190: b822 6dbd 748e d2bc 9606 18bd 6041 9cbd
000001a0: 28f8 e83d 61c3 3d3d 5e45 91bb 56ab 9b3d
000001b0: aac7 9e3c 6b9c 113d bada d83d 87be f13d
000001c0: 1a41 423d 5485 f9ba 125f 443c 2ce3 bcbd
000001d0: 6a98 debb 4edb 413d 3b0a a7bd a63f 7bbd
000001e0: e434 923d 1dbf 5cbd 008c 1ebd 788a 813d
000001f0: f6ee 8dbd 7800 12bd 7c66 393b 3468 8dbc
00000200: 276e a4bd 5c29 763d 1fce 41bd 9415 b2bb
00000210: da94 7c3d 0768 a3bd 731f 3c3d 71c3 93bd
00000220: 73e7 f43c 7bf3 9d3d 947a 6cbd 7e15 babd
00000230: 74a5 85bd aab2 58bb bd4f 853d 43ec 9ebd
00000240: e73c 853d 163a 203c 3a69 4ebc 078a 973d
00000250: 33af ab3d 8c9b 5a3d 494d aa3c ef60 773d
00000260: a2b0 a4bc b0dd 513d 0c21 a0bc 5e99 92bd
00000270: 173b 053d a572 bd3d 4882 b5bc 1c17 a4bd
00000280: 09ad 45bd b165 8b3d 2971 bc3d 10ea 0bbd
00000290: cb19 b23c 4df4 f6bc 9127 a63d c1f7 24bd
000002a0: c418 b5bd b2cb 133d 7f15 72bc 9040 f7bc
000002b0: 92cc 443d 67ab 5f3d acf7 3bbd 8a2d 24bd
000002c0: bceb 9a3c 3aa3 ffbc 23c3 ffbc 5ac2 25bc
000002d0: 10eb 39ba fa57 6fbc 85f2 b33c 0235 eb3c
000002e0: 50ba c03b 20c6 7d3a 6234 11bb 6389 8f3d
000002f0: 9e4a 433b a67d 473d 1a78 363d 5e55 843d
00000300: d8ac 1a3d dd37 45bd 5dcf 843d 6ba1 83bd
00000310: bc31 babd 1f6d cdbc d20b c4bd b8d5 1fbc
00000320: 2c76 f03c c07d 383c 66f7 013d 7f96 80bd
00000330: bad8 8e3c be01 813b a065 683b 511d 9e3d
00000340: 5bd6 d13c 37f9 753d 6c35 833c 100a 933d
00000350: 7247 11bd d7ab c0bd 89ff df3c e08e 98ba
00000360: fb6e 51bd 1630 3cbd 0a9f 8f3d 36a0 17bd
00000370: 4fb9 26bd 15c8 853b dad7 d13c 2074 3fbc
00000380: 48c7 57bd 600f 6dbd c606 9fbc 83c0 133d
00000390: db81 1d3d 23c0 5f3d c9a9 98bc f524 92bb
000003a0: 8d86 5fbd d513 83bd ecd9 90bd 8c3a b5bc
000003b0: f53d 2d3d 72cd e33d 0480 8dba 183e 70bd
000003c0: 1a85 503d ea6e 443d f39a e63d 1c4a 6ebd
000003d0: f979 cb3b 3d50 54bd 929c 4c3d a38a 003d
000003e0: 0e38 49bb f300 343d 521f 4c3d 1e32 89bc
000003f0: be8c b23d 2771 793d 52ef a9bd d380 86bd
-0.019406192 -0.04396641 0.01928632 -0.07682177 0.059784513 -0.08774901 0.0044796406 -0.077659756
0.07637948 -0.010748838 -0.030047264 0.08435175 0.01507063 0.10132416 -0.028459247 -0.065076455
-0.044404536 -0.07077343 0.09170699 0.101756856 -0.08693974 0.06222083 0.049830437 0.049045246
0.053707894 0.04752423 -0.07809555 0.04147219 -0.051702213 -0.063840374 -0.037171878 -0.050538663
-0.096423164 0.08002965 0.011934768 0.07840452 -0.084383644 -0.023342326 0.05974298 -0.07034394
0.00432544 0.062371533 -0.04533738 -0.081111535 -0.038519595 -0.02572096 0.068355635 0.048564382
0.042643726 -0.08278303 0.08683597 0.0056665908 -0.070499904 -0.052484624 0.0034844428 -0.021922253
0.011804709 0.012034789 0.02433262 -0.097021826 -0.030846074 -0.084993094 -0.033155404 0.092569254
-0.0541752 -0.052705582 -0.070911266 0.05729019 0.07833505 -0.06519684 -0.08047606 0.08227923
0.07915853 0.060197257 -0.07004987 0.07917719 0.053848814 0.060724907 -0.034425557 0.070863925
-0.067503095 0.034161404 -0.060259316 0.055137374 0.07744655 0.02067902 0.002297923 0.08383436
0.08011573 -0.07302502 -0.06600611 0.07927839 0.060683835 -0.04063981 0.08885256 -0.07637683
0.020771466 0.049095713 0.013560322 0.09542346 -0.05789444 -0.025702693 -0.037115656 -0.07629657
0.11375457 0.046328906 -0.004433318 0.07601039 0.019382317 0.035549562 0.10588594 0.11803918
0.047425367 -0.0019036927 0.011985557 -0.09223017 -0.0067930715 0.047328286 -0.08156248 -0.061339997
0.07138994 -0.053893197 -0.038707733 0.06325239 -0.06930344 -0.03564498 0.0028289845 -0.017261602
-0.080288224 0.060098037 -0.047315713 -0.005434701 0.061665393 -0.07978826 0.04592843 -0.07215012
0.02989552 0.07712456 -0.057734087 -0.090861306 -0.06525698 -0.0033065476 0.065093495 -0.07759907
0.06505757 0.009779474 -0.01259833 0.073993735 0.08383026 0.053370997 0.020788806 0.060395177
-0.020103756 0.05123681 -0.019547008 -0.07158159 0.032527056 0.09250382 -0.02215685 -0.0801222
-0.048260722 0.068065055 0.09201271 -0.034158766 0.021740815 -0.030145789 0.081130154 -0.04027534
-0.08842614 0.03608293 -0.014775633 -0.030182153 0.048046656 0.05460682 -0.045890495 -0.040082492
0.018911235 -0.031205762 -0.031220978 -0.010117138 -0.0007092217 -0.014608378 0.021966228 0.0287118
0.005881585 0.0009680707 -0.0022156467 0.07008626 0.0029799114 0.048703812 0.04454813 0.06461595
0.037762493 -0.04814898 0.06484864 -0.064272724 -0.09091517 -0.025076447 -0.09572567 -0.009755544
0.029353224 0.01126045 0.03173008 -0.06278705 0.017437328 0.0039369753 0.0035460964 0.077204354
0.025614908 0.060052123 0.016016684 0.07179654 -0.035468526 -0.09407776 0.027343528 -0.001163926
-0.05113123 -0.045944296 0.07012756 -0.037018023 -0.040704068 0.0040826895 0.025615621 -0.011685401
-0.052680284 -0.05787599 -0.01941241 0.036072265 0.038453918 0.054626595 -0.018635647 -0.004459972
-0.054571677 -0.06400267 -0.07072815 -0.022122644 0.042295415 0.1112317 -0.0010795598 -0.058652967
0.050908186 0.04795734 0.11260023 -0.058176145 0.0062096086 -0.051834334 0.049954005 0.031382214
-0.0030703577 0.043946218 0.049834557 -0.01674753 0.08718251 0.060898926 -0.082976 -0.0656754

linear_relu_stack.0.bias f4 [64]
00000000: 51b7 a0bd 1a16 41bc d04b d93d b47c efbd
00000010: 6929 6c3d 9d0e 69bd e9e8 ddbd 9ea1 07be
00000020: b715 b63d 5dc2 55bd aff6 dc3b 36dc 7c3c
00000030: 1edf fabc 3acc ed3b e61d 8d3d 7e37 bebd
00000040: 8978 66bd 928b adbd 2d17 2a3d 0d9a 50bd
00000050: 4711 893c 68aa 033c 325a 153d 3df0 023d
00000060: b7b9 4fbd 14a4 41bc 7e31 b23d 92a6 6abb
00000070: b497 9abc d5e3 de3d ad0a b43d 5960 20bd
00000080: f7c2 e1bc 23a1 75bd a005 94bd 48ac 0fbd
00000090: 3292 a23c f789 ccbd 57a9 d3bd e06c 39bd
000000a0: 1f14 9d3d 2478 2abd dde1 8b3d 0edf a6bd
000000b0: f5ef 033d 5f8d 0f3d 0af4 bf3d 3255 fa3c
000000c0: 6254 6dbd 3c39 803d 0434 bd3c 4e30 023b
000000d0: 700b 53bd 3820 b23a 5101 8b3d 2d09 e2bc
000000e0: bfb3 e6bd c0df 643a 203c 82bd ba7b 2bbd
000000f0: 04a6 2c3d 4766 aa3c 630a f2bc 52d7 e7bd
-0.07847465 -0.011785055 0.10610163 -0.11693707 0.05765668 -0.056898702 -0.1083544 -0.13245246
0.088908605 -0.052187312 0.006743274 0.015433362 -0.030623969 0.0072570117 0.06890468 -0.09287928
-0.056267295 -0.084738865 0.04152601 -0.050928164 0.016731871 0.0080362335 0.03646297 0.03196739
-0.05071422 -0.011818904 0.08700846 -0.003580485 -0.018871166 0.10883299 0.08791099 -0.039154384
-0.027558787 -0.059968125 -0.072276354 -0.03507641 0.019845102 -0.09987252 -0.103350334 -0.045269847
0.076698534 -0.04161848 0.068301894 -0.08148013 0.032211263 0.03504693 0.09372719 0.030558202
-0.0579418 0.062609166 0.023096092 0.0019865218 -0.05152458 0.0013589924 0.067873605 -0.027592266
-0.112647526 0.0008730851 -0.06359124 -0.04186604 0.042150512 0.020800723 -0.029545968 -0.11320366

linear_relu_stack.2.weight f4 [64, 64]
00000000: 9e47 bc3d 71bf 943d da3a 42bd 2e0a 99bd
00000010: 7c3d 703b d86e 7a3c dbe9 9bbd 1afa 523d
00000020: 6b2f cdbd f549 333d 62b7 d7bd 6eb1 843d
00000030: d010 b6bd d19e abbd 84bb 6dbd 5fb2 3abc
00000040: 2376 29bc 730d 90bd 65f3 35bc ae3c 8a3d
00000050: e4f8 56bb c43f ba3d e8c2 bf3c 4cc9 c43c
00000060: 145a 24bd 065a 9fbd cd84 f0bd ea27 83bd
00000070: 961a 803c 8465 d6ba 95f6 103d ac87 d13c
00000080: 0a93 863d 512c df3d 3898 5bbc 2007 f3bd
00000090: d8ce d43d 068d ff3c 24fc d1bd 0b0c e7bd
000000a0: 103d a7bd 2649 813d 9eb2 02be aa6f a63c
000000b0: 205b bd3d e16f bc3d ab6c c53d 2f24 abbd
000000c0: 1964 f0bd 69d2 74bd a53e 93bd 530d cfbd
000000d0: 767c d33c 311c 36bd e64d b5bc 3a5f a23d
000000e0: 57d5 a2bc 15d0 a7bc 3127 e13d 4aea e7bd
000000f0: 31f1 77bd 5e49 8cbd 8a26 d4bd 2609 20bd
00000100: b342 023e 34b5 b1bd 5933 b03d 29a4 083d
00000110: 4be9 2d3d 4322 0fbd 058f d6bd 8b77 0cbc
00000120: 6d69 fabc 1153 e73d 7c3e e03d b89f e4bc
00000130: d6bb 903c d2da 263d d25e 7c3c 7644 67bd
00000140: b854 febb 5265 983d e481 86bd 452f 83bd
00000150: e341 8ebd 9151 653c 1ea8 b73d f846 d33d
00000160: 6ac2 583d d93c 8fbd 7d28 8d3d 01e5 a23d
00000170: 8e50 87bd efac 513d 86e9 49bb b2be 823d
00000180: 27b5 1abd b7e8 87bd c3cd e63d e4df aebd
00000190: 82e9 1b3d d451 67bd 32c8 703d 655c 213d
000001a0: 4707 b1bc d5a3 32bd c01a a13c fc7d 3abd
000001b0: d7a4 673d 5057 a0bd 72b8 923d 3442 f23d
000001c0: 57fe 503d d6c0 743b 809b 1bbd 7c69 30bd
000001d0: 67c3 6bbd 2a96 a6bd 6e36 053e 9a34 b33d
000001e0: 6dad 093d fa6d e6bd cd78 b33d 746c d2bd
000001f0: 8463 d9bd f66b b13d 94e1 86bc f0e3 c3bc
00000200: 0eeb f8bd bd85 91bd fc16 023e 3d36 a13d
00000210: 61b5 4a3d 9d0d 153d d65d fc3d b19d c43d
00000220: ade2 5bbd 3ed1 f6bd 466b 8c3c a5e1 f93d
00000230: b6e9 edbc 819a c1bd 43ad 9ebd 8245 9ebd
00000240: f0ed cdbc e884 f5bd 55d1 2abd a129 3a3c
00000250: 643a aa3d 7e84 9d3c e835 a23d 7f26 d73d
00000260: f9ec e13d 80c9 d2bc e2dd 9e3d 386c 8c3c
00000270: c415 a63d fce8 eabb f1ca babd 942f 283d
00000280: e256 d8bd aed4 b23d 980c 163c 7591 793d
00000290: f40a 1abc 1b11 fd3d 9038 d63d c09b 5c39
000002a0: 6093 bf3d 1a3b 6f3c 973e c33d 0476 5d3d
000002b0: 3283 c7bd cd38 7cbd 321a 2e3d 56e7 69bd
000002c0: 229d e4bd f219 ecbd ef83 f13c 5612 ecbc
000002d0: a261 00bd 70a9 223d 341c a83b 987c 2ebd
000002e0: 7a41 973c e6e6 5dbd 58ae 6b3d 00a1 5dbb
000002f0: f02a 60bd 8b9a 073d ea1f debd 8e2f adbd
00000300: ef98 643d 62f8 c6bc d4df 95bd 6328 95bd
00000310: 6065 693d 4964 06be 082a e1bd 01c5 ca3d
00000320: da11 fabd 0f4d bdbd 39cc 503d c22b b8bc
00000330: d012 80bd cd97 3ebc 0224 3c3d 0c30 6e3b
00000340: bc1e 953d dc3e c3bd 94bd 8f3d 98a4 8a3c
00000350: a6e6 123d c1b6 99bd 033e 223d 7021 c03d
00000360: 3389 383c 35a7 89bc 5b07 4fbc 5e6f a63d
00000370: 176a f13d 810f 09bd 88a9 b63d 2ab0 cebd
00000380: abd6 1c3d 0fcb e9bd bdb2 ba3d d642 03bd
00000390: db63 253d f28b 8c3d 7097 dbbd f8fd 48bd
000003a0: 2f25 9bbd 1e3a b13d 7fa9 7cbd 7212 8a3d
000003b0: 5024 ebbd d7e0 b13d 0c71 26bb 0dc4 0cbe
000003c0: 43a9 863d c6f3 13be f1cf 05be a8dd 16bd
000003d0: 3016 dabd aca9 f3bc 9517 753d ab07 c4bd
000003e0: 309a bcbd 42b1 b33d 4592 223d 1a8f da3c
000003f0: 8c16 5bbd 1d1e b8bd 303b 8dbc e297 f7bd
0.091933474 0.07263077 -0.047419406 -0.07472645 0.0036657741 0.015285216 -0.07612964 0.051508047
-0.1001881 0.043771703 -0.10533024 0.064791545 -0.088899255 -0.08379901 -0.058040157 -0.011395066
-0.010343107 -0.07033815 -0.011105393 0.06749855 -0.003280216 0.090941936 0.023408368 0.024021767
-0.040124968 -0.077808425 -0.1174408 -0.064040974 0.015637677 -0.0016357158 0.03539141 0.025577389
0.06571014 0.108971246 -0.013402991 -0.11866593 0.10391015 0.031195175 -0.1025317 -0.11281594
-0.081659436 0.0631278 -0.1276345 0.020316917 0.09245896 0.09201027 0.096398674 -0.08356511
-0.11737842 -0.059770975 -0.07189683 -0.10109963 0.025816184 -0.04446048 -0.022131871 0.07928319
-0.019877119 -0.020484963 0.10993803 -0.11323984 -0.060532752 -0.06849931 -0.10358913 -0.039071225
0.12720756 -0.0867714 0.08603544 0.03335968 0.042458814 -0.034944784 -0.104764976 -0.008573423
-0.030567849 0.112951405 0.10949418 -0.027908191 0.017667692 0.040736027 0.015403466 -0.056461774
-0.007761564 0.074412 -0.065677434 -0.064055 -0.06946161 0.013996498 0.08967613 0.103162706
0.052919783 -0.06994028 0.06892488 0.07953835 -0.066071615 0.051190313 -0.0030809357 0.063840285
-0.037770417 -0.06636184 0.11269715 -0.085387975 0.038064487 -0.05647452 0.05878467 0.039394755
-0.021609915 -0.043613274 0.019666076 -0.045530304 0.056553688 -0.078291535 0.071640864 0.118290335
0.051023807 0.0037346384 -0.037990093 -0.043069348 -0.057559397 -0.0813411 0.13009045 0.08750267
0.033612657 -0.11251445 0.08763275 -0.10274592 -0.10614684 0.0866317 -0.016464986 -0.0239124
-0.12154208 -0.07105587 0.1270408 0.07871673 0.049489383 0.036389936 0.12322585 0.0960039
-0.05368297 -0.120516285 0.017140996 0.122012414 -0.029042106 -0.094532974 -0.07747891 -0.07728101
-0.025137872 -0.119882405 -0.04170354 0.011362464 0.083119184 0.019228216 0.07920438 0.105053894
0.11031527 -0.025730848 0.077571645 0.017141446 0.0810962 -0.007168887 -0.09120739 0.041061
-0.105634466 0.08731972 0.009158276 0.060929734 -0.0094020255 0.12356778 0.10460007 0.00021038856
0.093542814 0.014601493 0.095334224 0.054067627 -0.097418204 -0.061577607 0.04250545 -0.057105385
-0.11162783 -0.11528386 0.029481856 -0.028817337 -0.03134311 0.03971237 0.005130315 -0.04259929
0.018463839 -0.05417528 0.057539314 -0.0033817887 -0.05472845 0.033106368 -0.10845931 -0.08456336
0.05580991 -0.02428836 -0.073180825 -0.07283094 0.056981444 -0.13124193 -0.10994345 0.09900857
-0.12210436 -0.092432134 0.050976012 -0.022481803 -0.06253588 -0.011632872 0.045932777 0.0036344556
0.07281253 -0.09533474 0.07018581 0.016924188 0.035864495 -0.07505561 0.03960992 0.09381378
0.01126318 -0.016803363 -0.012636031 0.0812671 0.11787813 -0.03346205 0.08919054 -0.100921944
0.03829066 -0.114156835 0.09116123 -0.03204616 0.040378433 0.0686263 -0.10722244 -0.04907033
-0.075754516 0.08653663 -0.06168508 0.067417994 -0.114815354 0.08685463 -0.002539697 -0.13746662
0.06575253 -0.14448461 -0.13067605 -0.03683248 -0.10648763 -0.029743992 0.059836943 -0.09571775
-0.092090964 0.087740436 0.039690275 0.026679564 -0.0534883 -0.08990119 -0.017240137 -0.12089516

linear_relu_stack.2.bias f4 [64]
00000000: d12c 0f3d da74 ff3d 69e4 c3bd 2f5a 6a3d
00000010: ae18 c8bd f0dd 5b3d bcfb ddbd bcae 46bd
00000020: 6ce1 c2bd ae86 a83d f565 08bd a4d6 b2bd
00000030: f46a 3abd 9043 92bc 75fc 30bd c32b 18bd
00000040: fd70 073e b247 8b3d fad8 bebd 66f0 113c
00000050: 0a05 9b3d a15a 703d 4ad1 8b3d 32d8 f7bc
00000060: 4911 10bd 50a6 08bd 93c5 2f3c 4b46 e4bc
00000070: 72ea b63d b976 10bc af6b 2ebd c055 d4b8
00000080: b3ea 5a3d f99d 07be 2e44 e3bc ec76 963d
00000090: 2c42 d6bd 6ded afbd b0df 8d3d 123a e93d
000000a0: eae1 2a3b 402e cb3d 8267 84bc 5536 33bd
000000b0: ceb2 0cbd 18aa a1bd e859 20bd f201 eabd
000000c0: 9cba ed3c c680 dd3c 9ad7 8cbc b994 dbbd
000000d0: 6232 dd3d f519 9fbd f844 b23c e409 843b
000000e0: 672b 403d ebcb 85bd f2cc 873c 2454 b33c
000000f0: 5c48 b03d f4b9 223c 8dac 083d 0cad 24bc
0.03495485 0.124734595 -0.0956505 0.057214912 -0.09770332 0.053678453 -0.1083903 -0.048506483
-0.09515652 0.08228813 -0.03330036 -0.08732346 -0.045512155 -0.017854482 -0.04320951 -0.03715111
0.13226695 0.06800784 -0.09318729 0.008907413 0.075693205 0.05868018 0.06827028 -0.030254457
-0.035172734 -0.033361733 0.010728258 -0.02786555 0.08931436 -0.008817368 -0.042583164 -0.0001012492
0.053446483 -0.13243856 -0.027742472 0.07346901 -0.1046184 -0.08590207 0.06927431 0.11388029
0.0026074597 0.09920931 -0.016162638 -0.043752987 -0.03435021 -0.07893771 -0.03914824 -0.11426152
0.029019646 0.027038943 -0.01719265 -0.10721726 0.108006254 -0.07768623 0.021761402 0.0040294994
0.04691639 -0.06533035 0.016577218 0.021890707 0.086075515 0.00993203 0.033367682 -0.010051023

linear_relu_stack.4.weight f4 [1, 64]
00000000: 9c70 f83b 25b4 a1bd 0339 bdbd a83e 093d
00000010: 048a 873c a6e2 ab3c 8034 0dbb f8a6 c13c
00000020: 282c 67bd f692 48bd ce3f ce3c 772c 043d
00000030: e72a dcbb d2bf bbbd cc29 973d 7700 93bd
00000040: 02ab 85bd 5c2a fa3c 795d 5b3c e5b3 d1bc
00000050: edcf 8dbd e644 ecbd 6c3f a6bb 3852 92bb
00000060: 1a12 91bd 7ad2 77bc 1417 813d 7ef6 b9bd
00000070: f290 cebd 1a02 d53d 77e5 c53d 9400 ca3b
00000080: 20b3 de39 fef3 c6bc 24c2 ccbc c3bb 4ebd
00000090: c168 e03b 2902 ed3c e76b 503d 146e 00be
000000a0: 48e9 38bd b8e3 bd3d 681a a7bd 07f1 6ebd
000000b0: 5b2e 34bd 0cb5 92bd 6696 aabd 00fb b8bd
000000c0: a309 3cbd 7c49 25bc 0682 e83c e002 96bc
000000d0: 2240 d0bd f33f 9fbd ead8 3b3c 9b0f b73d
000000e0: 9703 84bc 47ea e2bd c6c8 f13b 00a8 deb6
000000f0: d8dd f53d 5f8f ae3d 641e 86bd 2ed5 96bc
0.0075817835 -0.07895688 -0.0923939 0.03350702 0.016545303 0.020982098 -0.0021546185 0.023639187
-0.056438595 -0.048968278 0.025176909 0.032268967 -0.0067189815 -0.09167446 0.07381019 -0.07177823
-0.06526758 0.030537777 0.013388985 -0.025598476 -0.06924424 -0.11536579 -0.0050734784 -0.0044653676
-0.07083531 -0.015125865 0.0630323 -0.09080218 -0.1008624 0.104007915 0.096629076 0.0061646197
0.00042476598 -0.024286266 -0.024994917 -0.050472032 0.006848425 0.028931694 0.050884154 -0.12541991
-0.04514435 0.092719495 -0.081593335 -0.05833533 -0.04398952 -0.07163438 -0.083294675 -0.090322495
-0.045907628 -0.010088321 0.028382313 -0.018311918 -0.10168482 -0.07775869 0.011465291 0.089385234
-0.016114993 -0.11079841 0.0073786704 -6.6356733e-06 0.12005204 0.085234396 -0.06548765 -0.018412199
