models/trainingmodels/start_backup.pth (torch, 337595 bytes, 12 tensors)

linear_relu_stack.0.weight f4 [64, 104]
00000000: 00a3 1e3a 7811 10bd a0b9 1fbd 0004 78bb
00000010: 0853 78bd c3ca a4bd b5eb b33d c8b9 983c
00000020: e14c 60bd ccc6 2cbd cef5 2abd e17a 43bd
00000030: 792d a03d 4401 dc3c 3e14 9cbd ce0c 89bd
00000040: 83df 9f3d e47b babd 5528 61bd d3ee 54bd
00000050: 737d c8bd 5818 e6bc 8a28 0a3d f747 933d
00000060: 2408 9abd b0fc 9cbc 40ac 833c 969b 0c3d
00000070: e45a 35bd afa1 9f3d 8770 863d c2cf 703d
00000080: 66f6 30bd 82c7 743d 0c6e 9fbd dea3 b8bd
00000090: 5a9b 603d f528 9b3d 2cee 8abd cbd0 a03d
000000a0: a02a 8f3c 2273 13bd 402b 913b 50f2 c7bb
000000b0: 745d 9ebd 528e 253d 3494 b03c 793b b8bd
000000c0: 6bc7 a03d 256b afbd 4e07 503d 12d6 2e3d
000000d0: 3b0f b2bd f42b 99bc b0a8 4e3c 6545 c43d
000000e0: 9efb 1b3d 7fbb 81bd 6b90 5ebd 8c69 943c
000000f0: 7a1b 653d 42a1 593d 211f 8b3d 28dd 433c
00000100: 1893 86bd 30b9 c23c 43b9 b13d 9f70 6cbd
00000110: 6a57 82bd 3fdf 74bd 4c2f afbc c14d 903d
00000120: a056 d6bb 4e34 8bbd f035 b6bb a1f1 21bd
00000130: 6133 b33d 05e9 af3d b666 103d 1cf7 99bd
00000140: a1f4 a1bd 6963 883d 9ded 5cbd f1f6 7bbd
00000150: f005 ae3b de33 50bd 255c 8a3d c481 bcbd
00000160: 980b 9bbd c0f8 23bc fd69 803d 6c63 abbd
00000170: c0aa cf3b e802 0f3c 8a40 173d 8861 62bd
00000180: 4f82 b1bd a1f1 ab3d 3813 77bc b52c c23d
00000190: d398 b7bd 5cd4 a2bc 50df dc3b eded 8ebd
000001a0: 0c4d debc 883a 7abc 8d0e 8d3d f8df d93c
000001b0: 0024 b4bb 4d11 33bd ed8a 71bd 0ffb a83d
000001c0: bf16 b93d 64f8 b4bc f4b4 9abd 20df 463b
000001d0: 64ab 91bc 0432 b33c 9355 adbd 30ce f3bc
000001e0: 39ac 883d 0c4c 9cbd 687d 753c 245d fbbc
000001f0: c450 b6bc b43e acbd 64f9 f63c 5882 c4bc
00000200: feb1 03bd 4bbd 8c3d 504d 93bc 9433 67bd
00000210: b08b 0fbc e333 aabd 60a4 503b c829 86bd
00000220: 3017 03bc 926c afbd 6e2b 063d 80dc 05bb
00000230: 3da1 82bd 986a 613c d857 cd3c e96c 41bd
00000240: b258 2a3d 640c 02bd b571 863d 826f 123d
00000250: 56c3 0c3d 638d adbd 80fd baba 6e92 3d3d
00000260: 3504 24bd e8af 0e3c fcca b4bd 00c0 fa36
00000270: 5266 633d 3550 68bd a627 a8bd f97e a63d
00000280: 0094 503c 9e5b 6c3d 8006 dfbc c64e 373d
00000290: e89a 5d3c 80e1 5bbd 9957 c53d 82db 59bd
000002a0: cc6d d83c c7ca b9bd dc85 e3bc b1d1 1bbd
000002b0: 5ede 9bbd 071a bc3d 30ab 5abc 5a6b 1b3d
000002c0: ea38 213d 58ca f4bc 4249 4f3d 3cba a7bc
000002d0: cb92 b43d 6942 c43d 47b5 68bd 1d1c 833d
000002e0: 8c0c a3bd 0ac6 40bd ef81 ac3d 4ffc 50bd
000002f0: 65d9 a33d ec7f 90bd 6874 bbbd f392 3dbd
00000300: 6a8f 3d3d 3344 af3d 21ef 9d3d e2a1 363d
00000310: fc35 2ebd eaee a0bd aeda 21bd 9a88 2b3d
00000320: 6ac4 2e3d 8b26 57bd ea1d 8dbd 9f1d c4bd
00000330: 3002 7e3c 5ab6 533d eb64 953d 9859 633c
00000340: 807e c7bd 7870 9f3c 96d3 533d e3f2 86bd
00000350: 6601 56bd 4ada 0cbd f072 7abc 785f ae3c
00000360: 03d5 933d 8ae6 5f3d e6d0 283d de1f 86bd
00000370: a049 17bb a1a5 98bd 9431 b0bc 3557 86bd
00000380: b8b2 d03c b89b 8cbc 9404 38bd 90ed b93c
00000390: 2856 f9bc 1530 803d 2833 28bc 88dd 22bd
000003a0: 03dd c13d fda9 923d 5acb 6cbd 005f 32bc
000003b0: ba3e 0cbd 60d4 0dbb 6cba 8dbd 4006 be3a
000003c0: 0210 02bd 1dc1 b3bd 16b9 6ebd f045 823c
000003d0: 0069 e63a f70d 9d3d 06d5 143d 8a3d 9ebd
000003e0: bf82 b5bd 780b ab3c 5617 85bd 28a5 6ebd
000003f0: 86e8 5b3d ca6e 5d3d 015c 9fbd 8184 973d
0.00060515106 -0.03517291 -0.038995385 -0.003784418 -0.06062606 -0.08046486 0.08785192 0.018643275
-0.054760817 -0.042181775 -0.041738324 -0.04772461 0.07821173 0.026856072 -0.076210484 -0.066918954
0.07806303 -0.091056615 -0.054970104 -0.051985573 -0.097895525 -0.02808778 0.033730067 0.071914606
-0.07521084 -0.01916346 0.016073346 0.034328066 -0.044276133 0.077945106 0.06564432 0.058791883
-0.043203734 0.059760578 -0.07784662 -0.0901563 0.054835655 0.07576171 -0.06783709 0.07852324
0.01747638 -0.03599847 0.0044302046 -0.006101884 -0.077326685 0.04041893 0.021555044 -0.089957185
0.07850536 -0.08565358 0.050788216 0.042684622 -0.08694311 -0.018697716 0.01261346 0.095835485
0.038081758 -0.0633459 -0.054336946 0.018116735 0.055934407 0.053132303 0.06793047 0.011954583
-0.06571025 0.023769945 0.08677914 -0.05772459 -0.06364329 -0.059783217 -0.021384858 0.070460804
-0.006541088 -0.06797086 -0.005560629 -0.039537076 0.08750034 0.08589367 0.035254203 -0.075178355
-0.079079874 0.06659586 -0.053937543 -0.0615148 0.0053107664 -0.050830714 0.067558564 -0.09204438
-0.07570571 -0.010008037 0.06270216 -0.083685726 0.0063374937 0.00872872 0.036926784 -0.055268794
-0.086674325 0.083956964 -0.015080266 0.094811834 -0.08964696 -0.019876651 0.006740488 -0.069789745
-0.027136348 -0.015272744 0.06887541 0.026596054 -0.0054974556 -0.04371767 -0.05897038 0.082510106
0.090375416 -0.022091098 -0.07554045 0.0030345395 -0.01778192 0.021874435 -0.084635876 -0.029761404
0.06673474 -0.07631692 0.014983512 -0.030684061 -0.022255309 -0.08410397 0.030148216 -0.023987934
-0.03215217 0.06872042 -0.017981201 -0.056445673 -0.008761331 -0.08310678 0.0031836256 -0.06550938
-0.008001134 -0.0856563 0.03275626 -0.0020425618 -0.0637841 0.013758324 0.025066301 -0.047223005
0.041588493 -0.031750098 0.06564657 0.035750873 0.034365974 -0.08474233 -0.0014266223 0.046282224
-0.040043075 0.0087089315 -0.08827779 7.4729323e-06 0.055517502 -0.056717116 -0.08210687 0.08129687
0.012730598 0.05770456 -0.02722478 0.04475286 0.013525702 -0.05368185 0.096358486 -0.053187855
0.026419543 -0.0907188 -0.02777379 -0.038041774 -0.076107726 0.09184652 -0.013346478 0.037944175
0.039360918 -0.029881641 0.050606973 -0.020474546 0.08817061 0.09582979 -0.056813505 0.064018466
-0.079613775 -0.047063865 0.0842322 -0.05102187 0.08000449 -0.07055649 -0.09153062 -0.04628272
0.04627935 0.0855793 0.07711626 0.044587977 -0.042531952 -0.07858069 -0.03951519 0.04187832
0.042667784 -0.05252699 -0.06890471 -0.09575962 0.015503451 0.051687576 0.07294639 0.013876341
-0.09740925 0.019462809 0.051715456 -0.06589296 -0.052247427 -0.034387864 -0.015286192 0.021285757
0.07218363 0.05466322 0.041214846 -0.06549047 -0.0023084655 -0.07453466 -0.021508016 -0.06559602
0.025475845 -0.017164096 -0.04492624 0.022696286 -0.03043659 0.06259171 -0.010266103 -0.03976205
0.09465983 0.07161329 -0.05781112 -0.010886908 -0.03423951 -0.0021641478 -0.06920323 0.0014497712
-0.031753547 -0.08777068 -0.05828198 0.01590249 0.00175789 0.07668679 0.036335967 -0.077265814
-0.088628285 0.020879492 -0.064985916 -0.058262974 0.05368855 0.054060735 -0.0778122 0.0739832

linear_relu_stack.0.bias f4 [64]
00000000: 26f8 573d 8370 92bd 21fe 2fbd 1768 873d
00000010: f3f8 1bbd e503 aabd 0e9d 1e3d 30e9 f83b
00000020: 22b8 3b3d b289 83bd 3ece 00bd 7440 e2bc
00000030: 6434 c53c fe53 783d a3ab b93d 33df b83d
00000040: 82ef b8bd 0806 36bc 28d1 4fbc d01d f23b
00000050: 3176 c23d c01b 083c 2646 633d 4074 a83a
00000060: 485e 343c 1bfd 63bd ea02 433d 6eaa 063d
00000070: 554a 8bbd 604e e8bb 55f2 813d b8fd dcbc
00000080: c29a 04bd e67b 733d 05a7 963d 2fdd 7abd
00000090: 7c2e e93c 807d 0bbd f08d 9abc 1e57 693d
000000a0: 91ff a73d 009a 5bba dfce 2cbd a0e4 b1bd
000000b0: f25d 50bd 2082 0cbd 9e48 2d3d da2c 363d
000000c0: 8046 14ba c089 883c 917a a93d 719c 933d
000000d0: 7dcc 8a3d f58a a23d 188f 11bd 8356 51bd
000000e0: f950 78bd f0e8 c2bb e08d 913c 1025 99bb
000000f0: d964 963d cdd8 63bd 246e e53c 6af3 a9bd
0.052726887 -0.07150366 -0.042966966 0.066116504 -0.038079213 -0.08301524 0.038723998 0.0075961575
0.0458299 -0.06422748 -0.031446688 -0.027618624 0.024072833 0.060626976 0.0906594 0.09026947
-0.090300575 -0.011109836 -0.012684144 0.007388808 0.094951995 0.008307397 0.05548682 0.0012852028
0.0110088065 -0.055661302 0.0476102 0.03287738 -0.06801287 -0.007089421 0.06345049 -0.026976451
-0.03237415 0.05944433 0.07356075 -0.061246093 0.028464548 -0.034055233 -0.01886651 0.056967847
0.08203042 -0.0008377135 -0.042189475 -0.08686185 -0.050870843 -0.034303784 0.04230558 0.044476368
-0.0005656257 0.016667247 0.08275331 0.07207573 0.06777284 0.0793666 -0.035536855 -0.051107895
-0.060624097 -0.0059481785 0.017767847 -0.0046736076 0.07343454 -0.05562668 0.02800662 -0.08298381

linear_relu_stack.2.weight f4 [64, 64]
00000000: 0070 4f38 784e 183d 8e73 bb3d e4f2 ba3d
00000010: c0ca c2bd 9247 fabd a4d0 a3bd 802d 7a3b
00000020: a0e7 1c3d 8031 dbbb 0093 aabb 447e 80bd
00000030: fce0 bfbd a017 073c 781c 9f3c a8bb 1fbd
00000040: aa67 f53d 30db 9fbd 8e5b aebd 8060 0abb
00000050: 1cc9 78bd 2e44 a73d 2083 0a3c 546f 933d
00000060: e092 47bc 9888 a63d 2cbe 8d3d 8630 a6bd
00000070: 007d 92bc 2613 f7bd 4cd3 4e3d 90e9 82bd
00000080: a093 3fbc a0d0 ed3b b842 94bd fc26 24bd
00000090: 9c6a 9e3d 589f 13bd 30cc 653d 4082 123c
000000a0: 2ecd ec3d fadb f7bd 10cd f5bd 9228 d3bd
000000b0: 40d2 973c 4aa8 e9bd f040 39bc ccc2 693d
000000c0: 2cb5 413d ac9f d1bd a0b2 a9bc e852 09bd
000000d0: 6e14 ea3d 80b2 1abb a0a4 423d 4c8f ba3d
000000e0: 48f7 e33c 70c7 56bc 90f9 ffbc be12 a23d
000000f0: 5067 503c c86b 013d f80b 8fbd 9832 f1bc
00000100: f09b bcbc d4a9 703d 0029 19ba 402d 81bd
00000110: f889 04bd 7814 21bd 0ea9 fd3d f01a 7a3c
00000120: 6035 a8bc 823b e73d 00d1 ce3d 961a edbd
00000130: ec01 7c3d b859 493d b421 013d f873 d93d
00000140: 04d6 73bd b80a 22bd 7a9a fb3d 80a6 613d
00000150: 382c bd3c 40b8 57bc dc80 6ebd 841e 69bd
00000160: 0254 fd3d 8442 4a3d 74b1 983d 0cfd 5ebd
00000170: 282c b6bd 8041 663d 2a8c febd c84f 5cbd
00000180: 3006 e1bc 64dc 333d f889 4c3d 1499 80bd
00000190: b85c 9b3d 0c94 a1bd a23f 8bbd 30c6 35bd
000001a0: 8252 86bd 9236 883d 22bc d4bd fc18 6fbd
000001b0: a053 8bbc 2cff e53d a0ce 243d 3058 c73c
000001c0: 00f4 1e3a b2db ffbd 5037 b63c 185e babd
000001d0: 42c9 82bd 48ac b63c aed2 873d 0030 ffb9
000001e0: dea0 b0bd b861 42bd e881 273d 207a 803c
000001f0: 3025 a73c 4cd7 b9bd 2866 f73d 80d4 82bc
00000200: 888b 43bd 7ee5 b63d 7863 3bbd d8f7 a53c
00000210: ac40 c43d ea2a e13d 54a4 a1bd e03e e9bd
00000220: d047 233c d64c eb3d 600b 403d ea0b c9bd
00000230: b681 bf3d 7cdd 4f3d 00c8 ddb9 402d 55bb
00000240: 0013 a8bc e867 f43c b453 aa3d 08ed a5bd
00000250: 96b0 c1bd 98e9 cfbd 5688 a3bd ce46 dfbd
00000260: 3c6a 97bd 103e 7ebc 207c babc ec7e 2d3d
00000270: 7857 9e3d a09a 323d e41c 19bd 94a1 5a3d
00000280: 94e7 2abd 009c c53b 60cc abbb b434 4cbd
00000290: d469 3a3d 2445 38bd 4032 043d 405d a63d
000002a0: 8021 b9ba 2c93 3ebd a8e4 a43c f0a5 18bc
000002b0: 54cb 1d3d 00b4 23bb e21d fc3d 8224 c1bd
000002c0: 6461 afbd 5299 9dbd 847b 07bd 2232 ab3d
000002d0: 40bd d43c ee52 d8bd 868a b23d 8a22 d1bd
000002e0: e0ba e1bd 427a d93d a25c f33d b0e9 ad3d
000002f0: 2204 a03d 1cd9 693d 90be e13c 88ed be3c
00000300: 1421 6cbd f848 fa3d be5a d83d 0ada f73d
00000310: 683a 72bd e4f5 d23d 3cbd 913d 74f2 41bd
00000320: ec23 9b3d cc1f a0bd 3282 c5bd 8840 85bd
00000330: a8a3 86bc 188a dabd 1235 8f3d 6cf2 7a3d
00000340: f47e 8e3d e863 2f3d 4072 78bb 0e7e f63d
00000350: 9067 453c a0d9 95bd 64ce c4bd 84ef 6a3d
00000360: 00a6 d9b9 02eb f3bd 74df 9ebd f665 f0bd
00000370: d0e6 3b3d 2ed8 b23d dc4a fbbd cab0 b93d
00000380: 72bd 95bd f424 3b3d a2e3 86bd e8ac cb3d
00000390: 7af9 ddbd 90be 3abc d4b0 f33d 4aeb eb3d
000003a0: 8032 febc 8cdb 29bd 9072 5a3c c05d aebc
000003b0: 04fb 0a3d beff a33d 4c85 dabd 64d7 4ebd
000003c0: da1f e73d 00fa a43b 643a a13d 845d 67bd
000003d0: 4023 643c 087a 12bd 9883 a23c c82a cd3c
000003e0: 8ab3 873d 78d0 123d 1c08 a63d f0e3 723c
000003f0: f287 973d 64d7 b13d be36 93bd a8ea 31bd
4.9456954e-05 0.03718421 0.091529 0.09128359 -0.09511328 -0.12220682 -0.079987794 0.0038174093
0.038306832 -0.0066892505 -0.005205512 -0.06274083 -0.09369084 0.008245379 0.019422755 -0.038997322
0.11982663 -0.078054786 -0.085135564 -0.0021114647 -0.060738668 0.08167301 0.008454114 0.071989685
-0.012181014 0.08131522 0.06921038 -0.08114724 -0.01788187 -0.12064199 0.050494477 -0.06392205
-0.011692911 0.007257536 -0.07239288 -0.04007624 0.07735178 -0.036040634 0.05610293 0.008942187
0.115625724 -0.12102504 -0.12002003 -0.103104725 0.018532872 -0.11409052 -0.011306986 0.05707054
0.04729192 -0.10235533 -0.020715058 -0.03352633 0.11429678 -0.002360493 0.04752028 0.09109363
0.027827874 -0.013109073 -0.03124693 0.07913731 0.012719944 0.03159693 -0.06984705 -0.02944307
-0.023023576 0.05875571 -0.00058425963 -0.06307459 -0.03235814 -0.03932616 0.1238576 0.015265211
-0.020533264 0.11290647 0.10098457 -0.115773365 0.06152527 0.049157828 0.031526282 0.106178224
-0.059530273 -0.039561003 0.122853234 0.055090427 0.023092374 -0.013166487 -0.05822836 -0.056913868
0.12369539 0.04937984 0.074557215 -0.054440543 -0.08895141 0.05621481 -0.12429078 -0.053787023
-0.02746877 0.043911353 0.049936265 -0.06279197 0.07586044 -0.07889566 -0.06799246 -0.04437846
-0.06558706 0.066510335 -0.10387446 -0.058373436 -0.017007649 0.11230311 0.040236115 0.024334043
0.00060635805 -0.124930754 0.022243172 -0.09099978 -0.06386043 0.022298947 0.06631981 -0.00048673153
-0.08624433 -0.047456473 0.040895373 0.015683234 0.020403475 -0.09074268 0.12080032 -0.015970469
-0.04774049 0.08930491 -0.045749158 0.020259783 0.09582648 0.10994513 -0.07892671 -0.113889456
0.009965852 0.11489265 0.046885848 -0.098167256 0.09350912 0.050748333 -0.00042301416 -0.0032528192
-0.020516872 0.029834703 0.08316746 -0.08101851 -0.09457509 -0.10151976 -0.079849884 -0.10902177
-0.073933095 -0.015517727 -0.022764266 0.04235737 0.07731527 0.043604493 -0.037381068 0.05337675
-0.041724756 0.0060305595 -0.0052428693 -0.04985495 0.04551108 -0.044987813 0.032274485 0.08123255
-0.0014124364 -0.046527073 0.020128563 -0.009316906 0.038523987 -0.0024979115 0.12310387 -0.094307914
-0.08563498 -0.07695259 -0.033076778 0.083591715 0.025969148 -0.105626926 0.087178275 -0.10211666
-0.11021972 0.10619022 0.11882903 0.08491838 0.07813288 0.057091817 0.027556688 0.023306623
-0.057648733 0.12220949 0.10564183 0.121021345 -0.05913773 0.10300806 0.07116172 -0.047350362
0.07575211 -0.07818565 -0.096439734 -0.06506449 -0.01643546 -0.106708705 0.06992544 0.061266348
0.06957808 0.042819887 -0.0037909895 0.12035762 0.012048617 -0.07316899 -0.096096784 0.057357326
-0.00041513145 -0.119100586 -0.07757464 -0.117381975 0.045874417 0.08732639 -0.12270138 0.09066923
-0.073115245 0.045689538 -0.06586386 0.099450886 -0.108385995 -0.011397973 0.11898962 0.11519487
-0.03102994 -0.04146914 0.013332978 -0.021284938 0.033930793 0.08007763 -0.106699556 -0.05049838
0.11285372 0.005034685 0.07872465 -0.056485668 0.01392442 -0.03576091 0.01983814 0.025044814
0.06626041 0.035843343 0.081070155 0.014824852 0.073989764 0.086836606 -0.071881756 -0.043436676

linear_relu_stack.2.bias f4 [64]
00000000: 344d c03d 10e4 5b3d 7259 b43d 34be 633d
00000010: 9cd3 73bd 707e 4b3c 880f 6bbd c029 423b
00000020: 5c62 093d 7ae8 873d f880 ebbc 84ce 6bbd
00000030: 4e59 abbd 320f 803d 1424 01bd d073 ff3d
00000040: 7c4e a53d b08e 233d e0b9 c4bc e078 a0bb
00000050: 8ef3 8fbd 9866 c13c 3242 c7bd 404f fc3b
00000060: c045 153d c698 b5bd f445 893d 0cf4 dbbd
00000070: 005e e13a dc76 993d e6d8 dd3d 2a20 8e3d
00000080: 3a44 ecbd 36b5 ccbd 48b2 c3bc 70dc 883d
00000090: f425 8f3d 8cbb 913d 743f 393d 8c74 f2bd
000000a0: 96cb e23d b83a 653d 5449 053d 5010 523d
000000b0: 7095 a1bd 7027 cebc 1ab5 c93d a04f d53c
000000c0: a8d6 9f3d f886 a43d 50de b9bc f0ec c4bd
000000d0: 80b9 363d 587f 59bd a4f0 aabd 3074 0cbd
000000e0: 788c dc3d 7033 94bd f2b8 f2bd c03c e43c
000000f0: 36a3 c6bd 0078 9fba 508a 99bc 9210 d6bd
0.09389725 0.053684294 0.08806123 0.055601314 -0.05952798 0.012420282 -0.05738786 0.0029626936
0.03354107 0.06636138 -0.02874802 -0.057569996 -0.08366643 0.06252898 -0.031528547 0.12473261
0.0807161 0.039931 -0.024014413 -0.004897222 -0.07028876 0.02360849 -0.09729423 0.007699877
0.036443472 -0.0886703 0.067027956 -0.107399076 0.0017194152 0.07493374 0.10832386 0.069397286
-0.11536451 -0.09995501 -0.023888722 0.0668267 0.06989661 0.0711585 0.04522653 -0.11838636
0.11073987 0.0559642 0.032540634 0.051285088 -0.07889831 -0.02516529 0.098489955 0.026038945
0.07804614 0.08033556 -0.022689015 -0.09615505 0.0446105 -0.05309996 -0.0834668 -0.034290493
0.1076898 -0.072363734 -0.11851682 0.027861 -0.09699099 -0.00121665 -0.01874271 -0.10452379

linear_relu_stack.4.weight f4 [1, 64]
00000000: ec81 18bd 302c ddbd eecd aebd c859 88bc
00000010: 9208 a9bd 20ac 2bbc 6e96 cfbd 809b 7f3b
00000020: 3809 f0bc 58ea b33c d878 8d3c 7410 6abd
00000030: 4054 7fbd 80ab 34bc 0048 efbd 6c4b b6bd
00000040: 6636 9f3d 7c5d a93d 76ad 853d c068 64bc
00000050: 462c dc3d 7e4e 96bd 78a1 e9bc d855 97bd
00000060: 1431 24bd 26a8 9f3d e82c 243d 041e b93d
00000070: b085 663c 8849 d1bd 0e40 da3d f04e 9b3d
00000080: fc5d a33d 9c12 67bd 740c 35bd dc32 843d
00000090: 38aa afbd d063 d7bc 6867 94bd b06c 883d
000000a0: 7493 613d 0c14 233d 841e db3d 7e47 bfbd
000000b0: 004c 2fbc d2b4 8cbd 10af b6bc 903b a03c
000000c0: 986f fcbd b09a 10bc 20d3 5dbc a81a 6cbd
000000d0: 34e1 753d c60c e5bd 5465 2d3d 18fc ec3d
000000e0: b438 81bd 343a 21bd 906e 5f3c 8cd2 b43d
000000f0: 6220 953d f024 ae3c 382f 8f3c e8f0 2c3d
-0.03723328 -0.10799444 -0.08535372 -0.016644374 -0.08253588 -0.0104780495 -0.10136114 0.0039002597
-0.02930127 0.02196233 0.017269537 -0.057144597 -0.062336206 -0.011027217 -0.11683655 -0.08901104
0.077740476 0.08269784 0.06527226 -0.01394099 0.10750632 -0.0733919 -0.028519377 -0.0738942
-0.040085867 0.07795744 0.04008189 0.09038928 0.0140699595 -0.10219103 0.10656749 0.075834155
0.079769105 -0.05641423 -0.04420133 0.06455013 -0.085773885 -0.026292711 -0.07246286 0.066613555
0.055072263 0.03981404 0.1069918 -0.09339808 -0.010699272 -0.06870426 -0.022300273 0.019559652
-0.12325972 -0.008825943 -0.013539106 -0.05764261 0.060029224 -0.11184077 0.042332962 0.115715206
-0.063096434 -0.039362147 0.0136372 0.08829221 0.07281567 0.021257848 0.01747857 0.042221934

cnns.0.weight f4 [32, 2, 3, 3]
00000000: 95ac 463e 7bda 1ebe d66e 3ebe 207a 2d3c
00000010: 13a9 cbbd 61c6 f03c 4620 e53d 8c2f ac3d
00000020: 2a48 a9bd a996 463e dd77 52be be6f c5bd
00000030: d006 663c 5be9 5a3e 91be 493d d0e2 6b3c
00000040: 649b 0cbe aee5 a83d 6031 15be 6290 b2bd
00000050: b279 91bd 182d 503e 7813 09bc 6394 bebd
00000060: 5a91 72be ddbc 81be e875 283e 7050 44be
00000070: 4b48 92bd c796 1a3e bf8f 8f3d 1c87 b0bd
00000080: 84ac d63a c422 ff3d f950 d8bd 15e4 413e
00000090: 2021 6d3e de3b 85be 75a4 3dbe eaf5 033e
000000a0: 66be ce3b 0a87 0bbe f89a 0b3e 6fde d03d
000000b0: df01 233d 3ee0 11be e919 3d3e c935 b13d
000000c0: df58 e83d 132f f1bd 34c9 a93d 258e d83d
000000d0: 8445 5f3e 1c64 82bd 9268 fcbd 8a32 363e
000000e0: 604f 7b3d 5346 3a3e 1d4c 5f3e dfb9 6fbe
000000f0: b54d adbd 5b9e 2cbe e49a e9bd ef42 863c
00000100: 80aa 85bd b48c 4bbd 36df adbd 2171 3c3d
00000110: d9f2 a83c cd5a e53d ce4d 8e3d 8dfd 8d3c
00000120: 1d3e 673e cf5e cb3d e29d 383e a243 edbd
00000130: 53fa c1bd 2b67 0cbe 83e1 2f3e 5d14 553e
00000140: 3a85 aa3d d7d2 9dbd b529 713e 2feb 5ebe
00000150: 30c4 63bd 40a7 163e d76d 2a3e 09f2 b53d
00000160: c133 3e3e dc93 bebd b36d 283e 2ebc 3fbd
00000170: 3492 003e f372 113e d61c 953d 6516 4d3e
00000180: 562e 4abd 803c c1bd 4434 163e 6d45 353e
00000190: a074 b3bd 55a3 923d 45d2 5fbe 5520 8f3c
000001a0: eb3e 82bd 7713 523c 3c3c 54be 64f9 27bd
000001b0: fe9a 5cbd ff8d e6bd 38dd 23be 9c8e 5dbe
000001c0: aabe 14be e88c 4c3e 3da5 e63d d462 ef3b
000001d0: 26bf f8bd 9ecd 693e 63ad 64be 59c8 6dbe
000001e0: 6ed7 c3bd fc2b 483e efe4 5fbe fe8c a53d
000001f0: bf06 f3bd 3852 87bd 9aa8 49bc 32c6 c73d
00000200: 9cf9 c03d 322b ecbd 9c46 2cbe 82e8 2b3d
00000210: 7542 02be 1da3 1dbd e4c1 2d3e ea1d 063c
00000220: cee9 ac3d d249 503d 97a5 5bbe de97 ce3c
00000230: 4bda a5bd ede2 0cbe ab77 01be b0bd 47bc
00000240: 6fd9 db3c e614 143e 2e9a 4fbe c45e 8ebd
00000250: ed83 62bc a3cc 35be 5c08 653e 7b7b 6d3e
00000260: ddc7 9e3d 84f9 213e b8fc d3bd 780c 153c
00000270: ad15 0dbd c554 4dbc 02ff 753d feed 3abe
00000280: 42aa 533d 5d37 3b3d 4fe4 10be 052b 183e
00000290: b72f 6b3e cf0d 073e 618b 243e 0455 dcbd
000002a0: bb80 f73b 1a92 cdbd 0758 55be d279 323b
000002b0: 25b8 b53d 53dd 11be 24da b53d 15cd ef3d
000002c0: 45e1 143d 69fa 06be 593d c73d a4c1 eabd
000002d0: dafc 1ebe b460 9c3c 0866 0f3e a53a 17be
000002e0: 2aab 9bbc e1db ed3d 54f1 c73c 18da 1d3e
000002f0: b004 e13d 1cdd 1cbe faa3 e9bd e9a6 38be
00000300: 8699 33bd adcd c23d c4df 29be 8333 ffbd
00000310: d4a9 5ebd ef39 36be 378f 243e f028 70be
00000320: 0a2f b03c e122 a9bc 1209 013e 4682 95bd
00000330: 303b 543e 51f8 193e 181d 313e 01e1 e2bd
00000340: 3952 6dbe 55c8 de3d 1b62 a3bd 6681 32be
00000350: 41a0 75be cbeb e6bd 552d 1c3e 723b 3bbe
00000360: 460a 823c 04a9 58be 3715 9c3d 4c2d 543d
00000370: 181d d5bc 48a3 c1bb 0d50 5ebe b0ad 50be
00000380: 0802 d83d 81aa 17be 4301 333d 0a02 73bd
00000390: 3ac8 a73b cf4f 35be e882 59bd 3266 15be
000003a0: 7412 25bd 1c7b 2bbe 12a7 0a3d e72f 313e
000003b0: e4e6 153e 1ced 54be 72ec 25be 33ce 193e
000003c0: aa52 91bd 3d35 88bd 7e53 5ebe e3df 183e
000003d0: 6aac 48be fe83 393e 58a3 20be f76e 37be
000003e0: dbcc 9d3d 379a 043e 5d37 78bd d902 68be
000003f0: 27bb e73d 5a7a 46be 5ad7 18be a3ff 123e
0.19401772 -0.15513031 -0.18596968 0.010588199 -0.09944358 0.02939147 0.11187796 0.08407506
-0.08265717 0.1939341 -0.20553537 -0.09640454 0.01403971 0.2137808 0.049254004 0.014397338
-0.13731152 0.08246933 -0.14569616 -0.08718945 -0.0710329 0.20329702 -0.008366458 -0.09305646
-0.2368826 -0.25339404 0.16451228 -0.1917131 -0.07142695 0.1509658 0.07009839 -0.0861952
0.0016378318 0.12457803 -0.10562319 0.18934663 0.23157167 -0.26022238 -0.18519767 0.12886778
0.0063093184 -0.13625732 0.13633335 0.10198676 0.039796706 -0.14245698 0.18466915 0.08652837
0.11345076 -0.11776557 0.082903296 0.10573987 0.21803862 -0.063667506 -0.12324633 0.17792717
0.061354995 0.18190889 0.21806379 -0.23410748 -0.08462087 -0.16857283 -0.11406496 0.016389338
-0.06526661 -0.04969473 -0.0848984 0.046006326 0.020623611 0.111989595 0.06948434 0.017332816
0.22582288 0.09930193 0.18028978 -0.115851656 -0.09471574 -0.1371123 0.1717587 0.20808549
0.08326192 -0.0770623 0.23551066 -0.21769403 -0.05560702 0.14712238 0.16643463 0.08884055
0.1857443 -0.09305546 0.16448097 -0.04681032 0.12555772 0.14204006 0.07280891 0.20028074
-0.049360596 -0.094353676 0.14668375 0.17702265 -0.08762479 0.07160059 -0.21857555 0.017471472
-0.06359657 0.012822024 -0.20726103 -0.04100932 -0.05385875 -0.11257552 -0.16002357 -0.21636432
-0.14525858 0.19975626 0.112619855 0.0073054824 -0.12145834 0.22832343 -0.22331767 -0.23220958
-0.09562574 0.19548029 -0.21864675 0.08083533 -0.11866521 -0.06607479 -0.012308264 0.097546
0.09422609 -0.11531676 -0.1682381 0.041969784 -0.12720664 -0.038485635 0.16968495 0.008185843
0.08443032 0.05085165 -0.21449886 0.0252189 -0.08098277 -0.1375844 -0.12643306 -0.012191221
0.026837079 0.14461097 -0.20273659 -0.06951669 -0.013825399 -0.17753844 0.2236647 0.23191635
0.07752965 0.15817839 -0.10350937 0.009097211 -0.0344445 -0.012532418 0.060057648 -0.1825485
0.051676042 0.045707095 -0.14149593 0.1486016 0.2296742 0.13188861 0.16068794 -0.10758403
0.0075531877 -0.10037632 -0.20834361 0.0027233255 0.088730134 -0.14244585 0.08879498 0.11709038
0.036347646 -0.13181461 0.09728498 -0.11462715 -0.15526143 0.01908908 0.14003766 -0.14768465
-0.019002516 0.11614204 0.024407066 0.15415227 0.10987222 -0.15318722 -0.11408229 -0.18032421
-0.043847583 0.09511886 -0.16589266 -0.12460997 -0.05436118 -0.17795537 0.16070257 -0.23453116
0.021506805 -0.020646514 0.12601116 -0.07300238 0.20725703 0.15036131 0.17296255 -0.11078072
-0.23175897 0.10878054 -0.079776965 -0.17432174 -0.23986913 -0.11275443 0.15251668 -0.18284395
0.01587404 -0.21158224 0.07621234 0.05180101 -0.02601485 -0.005909357 -0.21710224 -0.20378757
0.105472624 -0.14811136 0.043702375 -0.059328116 0.0051203044 -0.17706226 -0.053103358 -0.14589766
-0.0403008 -0.16746181 0.033850737 0.1730343 0.14638859 -0.20793575 -0.16203478 0.15020065
-0.07095845 -0.066507794 -0.21711537 0.14929156 -0.19597021 0.18116757 -0.1568731 -0.17913423
0.07705089 0.12949453 -0.060599674 -0.22657336 0.11314993 -0.19382611 -0.149259 0.1435533

cnns.0.bias f4 [32]
00000000: e53b 23be 2032 e13d 95a5 a13d 8879 39be
00000010: bff2 8fbc 8389 aabd 8e15 00be 0e83 2b3e
00000020: 032a 79bd 22bc 993d 4983 04be da72 63bd
00000030: 56fd e8bc b952 353e e71e 47be 79b0 b23d
00000040: 7863 0ebd 73a2 30bd 8c4f 43bd 4f67 a8bd
00000050: e503 a7bc 23d6 9abd e04b ae3a 157d 083e
00000060: 24b5 37bc de46 5e3d d060 15bd 07e0 17be
00000070: 0174 76be 3c54 48bd 92c0 033e 5980 aabd
-0.15940817 0.10995889 0.078929104 -0.18112767 -0.017571805 -0.083270095 -0.12508222 0.16749212
-0.06083108 0.075065866 -0.12940706 -0.055529453 -0.028441112 0.17707337 -0.19445382 0.08725066
-0.03476283 -0.043123674 -0.047683284 -0.082228296 -0.0203876 -0.075603746 0.0013297759 0.13328965
-0.011212621 0.054266803 -0.03646928 -0.14831553 -0.2406769 -0.048908457 0.12866428 -0.083252616

cnns.2.weight f4 [64, 32, 3, 3]
00000000: 2f86 47bd 4379 61bd fe0a 3b3d 12dd 8bbc
00000010: 715f 963c c0f0 553c 13ac 843c 6ef2 d1bc
00000020: 01d8 12bd 2bed e0bc 7097 90bc 3ad3 07bd
00000030: 1a07 35bd 78ca 9ebd 264e 55bd 80d7 69bd
00000040: 94fa e0bc 8853 653a 45fe 3f3d 2323 c53c
00000050: 3347 4fbd e387 51bd c177 52bd c0c2 803a
00000060: fe21 28bc 809e ee3c c54a 3b3c 377a 02bd
00000070: 8ca6 e03c 0d53 bd3c 0b4f e03c 7121 cfbc
00000080: 3ba3 213d 4c7b f1bb aeaf d8bb ad07 cbbc
00000090: 1550 bdbc c601 48bb 9a8d cb3c aa0d 9fbc
000000a0: 9120 093d 5b44 833c 6a1b 743c 4ab5 aebc
000000b0: 0c82 0fbc 3ea0 cebc 000d 9f3c c280 743d
000000c0: fa0f 553d 74b7 a6bc cedc 763d 8cb4 99bc
000000d0: 9f76 73bd 2a6e 443d 8349 6ebd 4b1f 863d
000000e0: b895 4aba c0f2 4e3d d795 7abd 9241 adbc
000000f0: 3e0d 143c 57aa bbbb d0f1 963c 3cc0 80bc
00000100: ce9a 503d 8ac3 7abd 66da 1bbd 703d 79bc
00000110: a0a5 9eba b543 bebb 3f20 55bd 68bc 0e3d
00000120: c898 4abd c87d cb3c 2ea2 373d 64e4 0abc
00000130: 123c 84bd 7c6f 01bc 0bc7 77bd c892 7c3c
00000140: b077 aab9 adc6 ccbc ca1e 243b c6e6 303d
00000150: 2294 15bd 9717 5dbd c18c ddbb 5bc3 03bd
00000160: 293e ab3b f267 6dbd cf0c 0cbd 84a5 423d
00000170: 3c5a f83a 0fc8 56bd 73c9 f3bc f7ef 513d
00000180: f8f7 623a fd92 7e3c e0f0 26ba 8e9b 16bc
00000190: d51e 9ebc 9457 5bbd b044 c23b 77d2 35bc
000001a0: 60dc 053d a4e7 8bbd 888d 263d ba90 34bd
000001b0: 7b2e 41bd 6c7d 573d 539c a73c 1aae 5abc
000001c0: d25f 413b 36f6 3f3b b18c 943d 05e7 95bb
000001d0: 06c9 24bc edd7 bcbb 11ba 6bbc 07e9 d0bc
000001e0: cb14 e23b 874d 08bd de42 b53c 83e4 83bd
000001f0: ae1f 163d c684 493d 4444 18bd 811f 1b3d
00000200: e001 e5bb 4034 2d3a 095c 233d 0e35 fe3c
00000210: ef94 373d 1dd2 1abd 0c25 f33c 324f 9ebc
00000220: a095 ecbc e538 1f3d 45ba 9cbd e4d6 82bc
00000230: be5a 61bc 3db8 103d 2898 33bc e482 68bd
00000240: d6c7 43bd f440 3ebd 6bcc 863c a69b 003d
00000250: 99b8 1a3d 7d73 0ebc 1f23 14bd 8f29 8abd
00000260: 6e4f 653c fe97 f5bc 5c12 253d 14eb 403d
00000270: d5ed 2dbd 5760 20bd 5750 44bd 7a16 fb3c
00000280: 8c99 eebc b944 443d 785f 1c3d ecce 22bd
00000290: 07d8 72bd 3037 e23c 19b5 5a3d 5eb2 953b
000002a0: e9b4 40bd 144e aeba abae ae3b 29e3 bb3c
000002b0: f87e 133d 013f 593c e7ce ef3c 52e4 f23c
000002c0: 3cce bd3c 60d0 56bc 0d38 6ebc 1af2 6cbd
000002d0: ce55 87bd 00f0 c0b7 b519 7f3c eeea 0a3d
000002e0: 94df 093d 1134 293d 5019 31bd 70e2 efbc
000002f0: 1d88 253d d1fa a1bc 1208 7cbd 5405 143d
00000300: 0af0 f0bc 0d52 96bd 2985 d2bc c684 7f3c
00000310: e94b d0bc 3fe4 043d 0818 b6bc 1718 87bd
00000320: 74c5 80bd 5b23 353d 1b71 14bd 8546 513d
00000330: 196c cdbc fc62 9c3a 7214 453b a39d 8ebc
00000340: 54f2 ee3c 58b3 953b e059 2f3d e6e5 5bbd
00000350: 48b1 82bc a66e 1e3d 61b3 043d c862 86bc
00000360: 88ef 1e3d 905e 42bd d4a0 65bd fc01 28bd
00000370: 302e 84bd b074 873c b7f3 b83c 0378 8bbd
00000380: b5bb 82bd ad11 c3bb 5421 54bd a26b 243d
00000390: 3086 2ebd 6c92 2abc c697 933c ff77 b83c
000003a0: eaa3 1f3d 45c8 5cbd 2831 fb3c c528 00bd
000003b0: 1e54 3ebd d8b9 e63a c010 6abd 6541 1a3d
000003c0: cad4 443b fc39 a5bb 193a 2c3d 8b66 0dbd
000003d0: 4f09 b7bc fe6b 33bd bfb0 a53c 4e41 b43c
000003e0: bff6 163d 4768 f63c ecc4 673c 2ef6 63bd
000003f0: 8c21 603c eefd f93c 7ee1 f73c 734b 0cbd
-0.04871195 -0.055047285 0.04566478 -0.017073188 0.018356057 0.013057888 0.016195333 -0.025628295
-0.03585053 -0.02745684 -0.017650336 -0.033160426 -0.044196226 -0.077534616 -0.05207648 -0.057090282
-0.027463235 0.0008748104 0.04687335 0.024064606 -0.05060501 -0.051154982 -0.051383737 0.0009823665
-0.010262011 0.029128313 0.011431401 -0.031854834 0.027423166 0.02311089 0.02738144 -0.0252845
0.03946231 -0.0073694345 -0.0066127395 -0.024783934 -0.023109475 -0.0030518635 0.024847794 -0.019415695
0.033478323 0.016023805 0.014899114 -0.02132668 -0.008759033 -0.025222894 0.019415379 0.059693106
0.05201719 -0.02035115 0.06026917 -0.01876285 -0.059439298 0.047956623 -0.058175575 0.065489374
-0.00077279983 0.050524473 -0.061178055 -0.02114943 0.00903636 -0.005727093 0.018425852 -0.015716664
0.050928883 -0.061221637 -0.038050078 -0.015212402 -0.0012103803 -0.005806411 -0.052032705 0.034847647
-0.04946211 0.02484025 0.0448324 -0.008477304 -0.0645677 -0.007900115 -0.060492557 0.015415855
-0.000325141 -0.02499708 0.0025042766 0.043188833 -0.036518224 -0.053977575 -0.006761164 -0.032168727
0.005225916 -0.057960458 -0.034191903 0.04752113 0.001894779 -0.052436884 -0.029759144 0.05125424
0.0008658166 0.015537974 -0.00063682906 -0.009192361 -0.019301811 -0.053550318 0.0059285983 -0.011097542
0.03268087 -0.06831291 0.04066232 -0.044083335 -0.047163468 0.052609846 0.020460283 -0.013347173
0.0029506576 0.002929104 0.07253397 -0.004574659 -0.010057693 -0.005763045 -0.014387623 -0.025501741
0.0068994514 -0.03327706 0.022126611 -0.064400695 0.036651306 0.04919889 -0.03717448 0.03787184
-0.006988749 0.0006607212 0.039882693 0.031031158 0.04481977 -0.037798036 0.029680751 -0.019324873
-0.02887994 0.03887262 -0.076527156 -0.015971608 -0.013754545 0.035331953 -0.01096157 -0.056765452
-0.047798 -0.046448663 0.016454896 0.031398438 0.037773702 -0.008694527 -0.036166307 -0.06746208
0.013995988 -0.029979702 0.040300712 0.047099188 -0.042463142 -0.039154377 -0.04792818 0.030650366
-0.029125951 0.0479171 0.038176984 -0.039748117 -0.05928805 0.027614206 0.053395364 0.004568382
-0.04704753 -0.0013298416 0.0053308806 0.022935467 0.03600976 0.01325965 0.029273463 0.029649887
0.02316963 -0.013111204 -0.014539731 -0.057848074 -0.06608163 -2.2999942e-05 0.015570094 0.033915453
0.033660486 0.04130942 -0.04323703 -0.029282779 0.04041301 -0.019772919 -0.061531134 0.036137894
-0.029411335 -0.07339869 -0.025698261 0.0155956205 -0.025426822 0.032444235 -0.022228256 -0.06596392
-0.06287661 0.04422317 -0.03624068 0.051092643 -0.025075959 0.0011931355 0.0030072 -0.017409151
0.029168285 0.0045684986 0.04281032 -0.053686045 -0.015953675 0.03867974 0.03239763 -0.016404524
0.038802654 -0.047453463 -0.05606158 -0.041017517 -0.06454122 0.016535133 0.02257715 -0.0681
-0.063834585 -0.005953035 -0.051789597 0.04014171 -0.04260844 -0.010410886 0.018016707 0.022518156
0.03897468 -0.05390193 0.030663088 -0.03128888 -0.04646694 0.0017602993 -0.05714488 0.03766002
0.0030034059 -0.0050423127 0.042047594 -0.03452162 -0.022343306 -0.04380416 0.02022588 0.022003796
0.03685641 0.03007902 0.014146071 -0.055654697 0.013679873 0.03051659 0.03025889 -0.03425164

cnns.2.bias f4 [64]
00000000: 1036 80bb 34ea eb3c cac9 d8bc 00df 27bc
00000010: 29f3 1c3d f17e dabb 4888 623d ba49 61bb
00000020: ce92 3cbd d461 563c c0d1 6839 be98 0d3d
00000030: 91c0 74bc 46e8 8abb def7 4cbd 0111 1c3c
00000040: edb4 1a3d 0605 3ebb 28ed 5f3d a654 553c
00000050: 0e9f 4ebd 7781 2ebd c076 783d def9 87bd
00000060: 9cd6 f5ba 0cbd 123d 16c0 67bd 6877 263c
00000070: a495 9c3c cd58 0a3d 3a31 4abc 7c03 cf3c
00000080: d09c 28bd a4f3 1c3d 5980 1ebd b898 38bd
00000090: 14b0 b03b b0e8 a5b9 b82a e63c 20a7 43bd
000000a0: 386b 033c 1a32 34bd 998c f33c 4683 e7bb
000000b0: 04de ba3c 3c47 62bd 2ea0 6a3c 9e48 cabc
000000c0: 9bf2 033d 23ce 84bd eacd 77bd 08e5 5dbd
000000d0: 3446 36bd 8033 50bd ec7d 413c 810a 25bd
000000e0: bfce 0dbd 8cbc 443c 31c6 02bd 74e2 f53a
000000f0: 1889 75bd 50f3 43bd db4a fabc 5cc5 0a3d
-0.0039126948 0.0287982 -0.026463408 -0.010246038 0.038317833 -0.0066679646 0.05530575 -0.003437622
-0.04603844 0.0130848475 0.00022203382 0.034569494 -0.0149384895 -0.004239115 -0.050041072 0.009525538
0.0377702 -0.0028994693 0.05466953 0.01302067 -0.050444655 -0.042603936 0.060660124 -0.06639455
-0.0018755975 0.03582482 -0.05657967 0.010160305 0.019114323 0.033776093 -0.012340838 0.025270216
-0.041165173 0.03831829 -0.03869662 -0.04506752 0.005392084 -0.00031644618 0.028096542 -0.047766805
0.008021168 -0.043993093 0.029730128 -0.0070652096 0.022810943 -0.055243716 0.014320416 -0.02469283
0.03221379 -0.0648463 -0.06049911 -0.0541735 -0.044500545 -0.050830364 0.011809807 -0.04029322
-0.034620997 0.012007844 -0.03192729 0.0018759505 -0.059945196 -0.047839463 -0.030553272 0.033879623

linear.0.weight f4 [16, 3328]
00000000: dd2c 2d3c b908 b0bb 7b97 00bc 1802 23bc
00000010: 30f0 343c 3597 bebb 7019 3abc f24e 4c3c
00000020: f08b f7ba d424 bbbb b679 f7bb dccd f6bb
00000030: d66b 76bc 944b de3b 476d 813c 7080 e3bb
00000040: 3074 423b 20ea 07bc d487 283c 8e18 f53b
00000050: 406e 883b acb7 2d3c d4d9 e33b 0018 3d37
00000060: 42b1 dbbb b052 023c 6fc7 93bb 6dbc 11bc
00000070: 8246 82bb cce2 d83b d89c 993b 10e3 acbb
00000080: be55 643c f2ff 91bb d0a3 71bb 1cb6 7bbc
00000090: f27d 6d3c 5836 86bc 5681 6d3c 000c cd3b
000000a0: ec5c d83b 65f6 50bc 6080 34bb aea9 4dbc
000000b0: 5cd6 1ebc a4af 6cbb 6e74 5dbc add6 87bc
000000c0: de89 23bc 4059 8c3b 8e51 63bc 9020 f23a
000000d0: f34c 3f3c ca1f d23b 9c49 bd3a 20b3 3f3c
000000e0: 301d 393b 24bb 8bbc 886a 283c 5079 343c
000000f0: 840c 4bbc 9ef3 873b b08c 793b 2e01 62bc
00000100: 123d 55bc 900e 9139 df85 853c 2ae4 063c
00000110: 4d41 03bc 7054 bf3a 942f 8ebc e65a 65bb
00000120: b583 0d3c da78 6cbc 73f0 b3bc c4b9 7cbc
00000130: b331 243c 6899 2d3c 9c45 a5bc 0ef9 0b3c
00000140: 5511 833c 6cda 6fbb 7458 30bb bb5c af3b
00000150: 6e02 0ebc 1c32 a3bb 66ba 82bc 1cb9 7bbb
00000160: e2a6 31bc a703 e83b e6ee 9cbc b390 863c
00000170: fb8b 2a3c c08f 34bc d593 83bc 7c29 323c
00000180: 7d2d 94bb 689c 51bc f00a 10bb 7abf b6bc
00000190: a4b4 b6bc 1005 45ba fcda 0bbc 3652 44bc
000001a0: a47b 95bb a036 263b 9693 253b ec40 a8ba
000001b0: 4075 6dbc 911b a6bc e871 d8bb fee7 7dbb
000001c0: 20b0 6339 061d 0a3c 0718 c43b 78bc c1bb
000001d0: c782 aa3b f2d4 333c 605b 75ba 3afd 593c
000001e0: 9c0a 3abc 38b3 a4bc aea0 d83b 38bc 3ebc
000001f0: 19bb 013c 7003 753b c8a5 fe3b 90a0 51ba
00000200: e79c 00bc 21a3 84bc 484a 28bb 1e32 dabb
00000210: 7808 653b 5462 863b d66f 393c cc0b 02bc
00000220: b799 06bc 41c7 823c f60d 693c 387f 973b
00000230: 92ca 4f3c 2bba 5dbc 5834 30bc a1ac 833c
00000240: 30f6 453c 5cd5 31bb d8fb 14bc aa22 82bc
00000250: 78f5 0a3c 0e3d 40bc f700 893c 0c9e d1bb
00000260: a80b 35bb 1a64 763c 6aa7 2dbc b79d 10bc
00000270: 1b0b 93bc 7eec 9bbb 8723 90bb e60b 62bc
00000280: 4c06 61bc ccd6 493c 5c03 9f3b 2492 303b
00000290: 0985 dabb 053e b63b a453 ae3b fafa 73bb
000002a0: a84d 723b 0096 703a 9e69 47bc f8e4 83bc
000002b0: 3c8f f63b 5856 3b3c 2867 16bc acd5 283c
000002c0: 1244 333c 1de6 72bc d8ff 4d3b 477a 033c
000002d0: f528 d1bb ec15 2d3b 5251 0d3c 2269 64bc
000002e0: 0662 3bbc 5765 243c 06bf b6bc e08e 193c
000002f0: 6762 843c a7af 313c 8a1a 583b b6eb 32bc
00000300: b4c8 13bb 6ee4 09bc 2dfd f83b 00ed 2ab9
00000310: 20ed 413c 18e9 1c3c 0034 0f37 a5a4 9bbc
00000320: dca8 1b3c c779 24bc a8be d23a ccd7 28bb
00000330: 90cf 213b f022 a93b b07a 27bc c889 55ba
00000340: 5c3c 8fbc e082 2e3b 7769 253c 4b2c acbc
00000350: 245d b0bc 0885 90bb 78d9 2e3b e094 043c
00000360: 12ce 61bc c34b 0e3c fc05 79bc a8d6 c3bb
00000370: 94ec 203c b834 a4bc c4c6 0cbc baa3 34bb
00000380: f685 383b a6a4 fbbb 108a 36bc 7f9f 18bc
00000390: 30cb dc39 00e8 ad38 98ab 82ba d4fd 52bc
000003a0: 6049 ae39 ae6e 6c3c fd16 bcbb 63d9 58bc
000003b0: 2e4e 8a3b 3e93 8bbb 850f cbbb 803c 03b9
000003c0: 5ae3 13bc 689e 20bc 2449 54bc fc55 aebb
000003d0: 29f6 c0bb 4c37 f33b c06d a4b9 c43c 98bc
000003e0: 17ed 9cbc 7887 323c f470 2abc b657 d7bb
000003f0: 3d79 a6bc 4d79 a1bc e73f a7bb 51e8 893c
0.010569778 -0.0053721336 -0.007848616 -0.00994923 0.011043593 -0.005816365 -0.011358604 0.012469994
-0.0018886309 -0.0057111774 -0.007552351 -0.0075318646 -0.0150403585 0.006783912 0.015799178 -0.006942801
0.0029671304 -0.008295566 0.01028629 0.007479734 0.0041635334 0.010602873 0.0069534574 1.1270866e-05
-0.0067044804 0.007954285 -0.0045098583 -0.008895022 -0.0039756903 0.006618833 0.0046878867 -0.0052760914
0.013936458 -0.00445556 -0.0036871321 -0.0153632425 0.01449536 -0.016383335 0.014496168 0.006257534
0.006602874 -0.0127540575 -0.0027542338 -0.012552662 -0.009694662 -0.0036115432 -0.0135165285 -0.016581858
-0.009981601 0.0042831004 -0.013874425 0.0018472839 0.011676061 0.006412481 0.0014441493 0.011700422
0.0028246157 -0.017057009 0.010279305 0.011015251 -0.012393121 0.0041489145 0.003807824 -0.013794227
-0.013015049 0.00027667405 0.016299186 0.0082331095 -0.008011174 0.0014597308 -0.017356671 -0.0034996807
0.008637358 -0.01443311 -0.021965241 -0.015425149 0.010021615 0.010595657 -0.020174794 0.008543266
0.015999475 -0.0036598695 -0.002690819 0.0053516305 -0.0086675715 -0.0049803387 -0.015958022 -0.0038409894
-0.010843011 0.0070805135 -0.019156884 0.01642642 0.0104093505 -0.011020601 -0.016061703 0.010874148
-0.004522024 -0.012793638 -0.0021979176 -0.0223081 -0.022302933 -0.0007515708 -0.008536097 -0.011982491
-0.0045618583 0.002536215 0.002526497 -0.0012836731 -0.014493287 -0.020276817 -0.0066053756 -0.0038743014
0.00021714019 0.008429771 0.0059843096 -0.00591236 0.005203578 0.010976063 -0.0009359624 0.013305003
-0.011355069 -0.02010499 0.0066109514 -0.011641555 0.007918143 0.0037386082 0.0077712275 -0.0007996643
-0.007849908 -0.016191067 -0.002567904 -0.0066588065 0.0034947675 0.004101077 0.011318168 -0.007937383
-0.008215359 0.015964152 0.01422452 0.00462332 0.012682574 -0.013533155 -0.010754667 0.016073527
0.012082621 -0.0027135229 -0.009093247 -0.01588567 0.008481376 -0.011733307 0.016724093 -0.0063970145
-0.0027625356 0.0150385145 -0.010598997 -0.008826665 -0.017949631 -0.0047584167 -0.0043987664 -0.013796782
-0.013734411 0.012319278 0.0048526954 0.0026942575 -0.006668691 0.0055615925 0.0053200293 -0.003722845
0.0036972556 0.0009177625 -0.012171177 -0.016100392 0.007524399 0.01143416 -0.009179868 0.01030485
0.010941522 -0.014825371 0.0031433012 0.008024759 -0.0063830563 0.0026410772 0.008625345 -0.013941081
-0.011436945 0.010033927 -0.022307884 0.009372443 0.016160203 0.010845101 0.0032974803 -0.010920456
-0.0022550048 -0.008416278 0.0075985403 -0.00016300753 0.01183632 0.009577058 8.535571e-06 -0.018999407
0.009500708 -0.0100388 0.0016078549 -0.002576339 0.0024690367 0.0051616356 -0.010222122 -0.0008145836
-0.017484836 0.00266283 0.010095946 -0.021017214 -0.021528788 -0.00441039 0.0026679914 0.008092135
-0.013782041 0.008685055 -0.015199181 -0.0059765168 0.00982203 -0.02004467 -0.008592311 -0.002756341
0.0028156019 -0.0076795397 -0.011141315 -0.009315371 0.00042113056 8.292496e-05 -0.0009969352 -0.0128779
0.00033242535 0.014430685 -0.005740045 -0.013235423 0.0042207455 -0.004259496 -0.0061969184 -0.00012515672
-0.009026373 -0.009803392 -0.012956891 -0.0053203087 -0.0058887196 0.0074223634 -0.00031362288 -0.018583663
-0.019156022 0.010896556 -0.010402907 -0.0065717353 -0.020321483 -0.019711161 -0.0051040533 0.01683441

linear.0.bias f4 [16]
00000000: 021c a8bb d023 4e3c f488 31bc a388 4f3c
00000010: fbec 4cbc 4c42 c43a eca1 213b cff9 b23b
00000020: de88 86bc a89d 063b 8ea3 81bc 0df5 16bc
00000030: 32f9 ec3b 5e4c 80bc 7e16 a1bb 9e54 1e3b
-0.005130292 0.012581781 -0.010835875 0.012666854 -0.012507672 0.0014973371 0.0024663163 0.0054619084
-0.016422685 0.0020540748 -0.01582506 -0.009213698 0.007231855 -0.015661415 -0.0049160114 0.0024159322

linear.2.weight f4 [1, 16]
00000000: a8ab 0e3e fb11 88bd ac4a 20be ec37 33be
00000010: bdec d0bb f8ff 8dbd 1d7d 81be a908 3bbe
00000020: 7ced 903d cfe6 bfbd e44a de3a 10c6 443e
00000030: 49be 71be c624 233e c49c 60be 4c64 6e3e
0.13932669 -0.066440545 -0.15653485 -0.17501801 -0.0063758777 -0.06933588 -0.25290766 -0.18265022
0.070765465 -0.09370195 0.0016959575 0.1921618 -0.23607744 0.15931997 -0.21934801 0.23280448
